model_round_3.pth (torch, 126796 bytes, 9 tensors)

conv1.weight f4 [16, 1, 16, 3]
-0.76242197 -0.023873875 0.6022545 -0.47177935 0.14414975 0.16943574 -0.35082987 -0.05012487
-0.15797764 -0.31645554 -0.15276252 0.3277315 -0.26481342 0.081645675 0.12660304 0.058429703
-0.35684875 -0.026094114 0.22035848 -0.12823448 0.24188481 -0.10706954 -0.91743195 0.06803428
0.24397543 -0.9310116 -0.026040332 -0.10065063 -0.83705086 -0.4607608 0.40978283 -0.122700386
0.10482209 0.19601618 -0.3979951 0.20806319 0.5305982 0.4787409 0.07394489 -0.3501301
-0.25605667 -0.49836323 0.2547509 0.07575651 0.28389448 -0.44457975 -0.16835424 -0.55559576
0.16757728 -0.3059456 -0.069361195 0.24595597 -0.2505705 -0.4055606 0.5617959 -0.08599882
-0.46640995 -0.41376913 0.03467708 0.056707885 -0.06262703 -0.037178937 -0.10404254 0.19574064
-0.0025295382 -0.2926428 0.5499144 -0.131051 -0.6238891 -1.0979266 -0.41553771 -0.28834426
-0.26905566 -0.49474275 -0.5622641 0.16356437 -0.1780302 -0.17749792 0.26573083 -0.119233504
-0.14523864 -0.8071657 0.23371135 -0.29763168 0.35347974 0.05523773 -0.4420072 0.36671183
-0.15061583 -0.6569874 -0.11048361 -0.33062658 -0.663208 -0.7502954 0.9479219 -0.0505585
-0.41234517 -0.5911262 -0.1219891 -0.123520255 0.14278258 0.40232745 0.05239804 0.04702575
0.29104987 -0.24974257 -0.13166851 -0.011480401 -0.043529525 0.20316076 -0.095825516 -0.22490372
0.11165151 -0.23969314 -0.47385296 -0.28702465 -0.3221224 0.04662365 0.12251767 -0.3838148
0.008096162 -0.08491583 -0.40703943 0.0899949 0.1432848 -0.22575127 0.1594622 0.4955484
-0.26633233 -0.075460166 0.24404271 -0.11577332 -0.012218484 -0.09336953 -0.019047448 0.14489
0.042826906 -0.13294822 -0.04744132 0.42954338 0.15868817 0.47263983 -0.04131456 -0.17437078
-0.19282684 -0.19392532 0.0009809467 0.102722615 -0.16980648 -0.25844437 -0.044461634 -0.15451175
-0.027493361 -0.044489164 -0.3254764 -0.21837005 -0.27457932 0.20818332 0.098291 -0.32049832
-0.697352 -0.19831544 -0.13032208 -0.5558541 -0.2945139 0.07032988 -0.74535346 0.061670464
0.21491282 -0.5836386 0.0066472925 -0.5750041 -0.062413733 0.06904124 -0.072468676 -0.113811836
-0.30451447 0.002726077 -0.51533824 -0.32308468 0.37996006 -0.23464285 0.052672356 -0.82736796
0.49752527 0.12947582 0.31891793 0.9304243 -0.06661777 -0.09885969 0.9154892 0.017146818
-0.054681737 0.15147395 -0.25933295 -0.24962872 -0.1033716 -0.10651573 -0.40075886 0.0307987
0.030430283 0.18311983 0.16623579 -0.11950146 -0.09180767 -0.14317323 -0.11692834 0.021526128
0.13473815 -0.053965867 0.16453253 -0.09008058 -0.12411814 -0.0221081 -0.16134316 0.12016679
0.00036061803 0.10106 -0.41307008 0.047359534 0.24983808 0.032327153 -0.3130918 -0.13829362
-0.045581795 0.036184184 0.18480931 0.24748635 -0.16469175 0.3806265 -0.16610408 0.6344669
0.9550453 0.06783321 -0.78474456 -0.16562754 0.0735303 -0.887239 -0.18708822 0.37633255
-0.71847767 -0.07683823 -0.07939914 -0.00987741 0.31585133 0.12554276 0.13390954 0.19821888
0.23205951 0.14786373 0.222778 0.06254369 0.017470365 0.061839316 -0.43601173 -0.1288853
00000000: 162e 43bf 2593 c3bc 5a2d 1a3f 108d f1be
00000010: fe9b 133e 9080 2d3e f99f b3be bc4f 4dbd
00000020: e4c4 21be 7606 a2be c76d 1cbe 6ccc a73e
00000030: a095 87be d935 a73d 3aa4 013e fc53 6f3d
00000040: e1b4 b6be 53c3 d5bc a7a5 613e e64f 03be
00000050: a7b0 773e 4647 dbbd d2dc 6abf 8e55 8b3d
00000060: b2d4 793e c756 6ebf 8952 d5bc eb21 cebd
00000070: f748 56bf d7e8 ebbe 0ecf d13e 574a fbbd
00000080: f7ac d63d 77b8 483e 04c6 cbbe 840e 553e
00000090: 49d5 073f 871d f53e 6b70 973d 4144 b3be
000000a0: dc19 83be 7729 ffbe b66e 823e 3b26 9b3d
000000b0: 9e5a 913e f59f e3be 0e65 2cbe 863b 0ebf
000000c0: 6199 2b3e e7a4 9cbe 3e0d 8ebd e2db 7b3e
000000d0: c74a 80be a4a5 cfbe dbd1 0f3f 2620 b0bd
000000e0: 49cd eebe 8cd9 d3be 8e09 0e3d 8746 683d
000000f0: 9a42 80bd f148 18bd 4114 d5bd 3c70 483e
00000100: 9cc6 25bb 47d5 95be 31c7 0c3f 3c32 06be
00000110: 32b7 1fbf dc88 8cbf 5cc1 d4be dca1 93be
00000120: aac1 89be ec4e fdbe 8af0 0fbf 6b7d 273e
00000130: 8c4d 36be 04c2 35be df0d 883e b230 f4bd
00000140: 70b9 14be 69a2 4ebf 0752 6f3e 2e63 98be
00000150: 4cfb b43e f540 623d c54e e2be a7c1 bb3e
00000160: 093b 1abe 5430 28bf 3b45 e2bd e347 a9be
00000170: 00c8 29bf 5c13 40bf 02ab 723f 6e16 4fbd
00000180: e81e d3be 0c54 17bf 6cd5 f9bd 30f8 fcbd
00000190: 9935 123e ddfd cd3e 549f 563d 139e 403d
000001a0: 7d04 953e 84bc 7fbe 1cd4 06be 4b18 3cbc
000001b0: 044c 32bd 6009 503e 2b40 c4bd 294d 66be
000001c0: 8ca9 e43d 1e72 75be db9c f2be e5f4 92be
000001d0: 3aed a4be 71f8 3e3d 8bea fa3d 6083 c4be
000001e0: c4a5 043c 5ae8 adbd 7967 d0be 3f4f b83d
000001f0: 40b9 123e 572b 67be 0f4a 233e 85b8 fd3e
00000200: b65c 88be dc8a 9abd 55e6 793e 901a edbd
00000210: 0930 48bc 8638 bfbd 6509 9cbc 0b5e 143e
00000220: 446b 2f3d 9423 08be d451 42bd 1ced db3e
00000230: 277f 223e d9fd f13e 7539 29bd 418e 32be
00000240: 6674 45be 5c94 46be 1c93 803a 3c60 d23d
00000250: c0e1 2dbe d252 84be 671d 36bd 5438 1ebe
00000260: c239 e1bc 453a 36bd d8a4 a6be 669c 5fbe
00000270: a995 8cbe 022e 553e cb4c c93d 5b18 a4be
00000280: a985 32bf 3413 4bbe 2773 05be 744c 0ebf
00000290: 87ca 96be 1d09 903d 7ccf 3ebf 2b9a 7c3d
000002a0: 1b12 5c3e 5769 15bf 88d1 d93b 7833 13bf
000002b0: 8ba5 7fbd 7e65 8d3d 756a 94bd 2e16 e9bd
000002c0: 52e9 9bbe fca7 323b 35ed 03bf 5b6b a5be
000002d0: 208a c23e 3746 70be f8be 573d 63ce 53bf
000002e0: a2bb fe3e 4f95 043e 3649 a33e 4930 6e3f
000002f0: e66e 88bd f376 cabd 805d 6a3f 7c77 8c3c
00000300: f5f9 5fbd fd1b 1b3e 4ac7 84be ac9e 7fbe
00000310: 7db4 d3bd eb24 dabd 4430 cdbe 8e4d fc3c
00000320: ee48 f93c c483 3b3e b739 2a3e 2ebd f4bd
00000330: a905 bcbd 019c 12be 2078 efbd 9057 b03c
00000340: ccf8 093e 500b 5dbd 377b 283e 2b7c b8bd
00000350: a731 febd 0c1c b5bc 2437 25be 021a f63d
00000360: 5511 bd39 8cf8 ce3d ec7d d3be 12fc 413d
00000370: 8ed5 7f3e 7a69 043d 924d a0be d89c 0dbe
00000380: fab3 3abd de35 143d a73e 3d3e 106d 7d3e
00000390: f4a4 28be 7ae1 c23e 3017 2abe 6c6c 223f
000003a0: d97d 743f 23ec 8a3d 05e5 48bf 449a 29be
000003b0: 0e97 963d 1822 63bf 0e94 3fbe a9ae c03e
000003c0: 27ee 37bf 5d5d 9dbd 049c a2bd dcd4 21bc
000003d0: 44b7 a13e 488e 003e 951f 093e e4f9 4a3e
000003e0: 02a1 6d3e 9769 173e eb1f 643e e816 803d
000003f0: 031e 8f3c 394b 7d3d ee3c dfbe 82fa 03be

conv1.bias f4 [16]
0.025603086 0.2753979 -0.18997921 0.37166947 -0.41383684 -0.21424037 -0.115602836 -0.14784299
-0.38826737 0.102512546 0.016986907 -0.05439056 -0.07469968 -0.047274992 0.05689419 -0.3024981
00000000: 90bd d13c f400 8d3e e989 42be 764b be3e
00000010: 6ce2 d3be d461 5bbe 2ec1 ecbd 2764 17be
00000020: fbca c6be 19f2 d13d 2028 8b3c a3c8 5ebd
00000030: 25fc 98bd 6ca3 41bd e209 693d 08e1 9abe

conv2.weight f4 [16, 16, 3, 5]
-0.18978271 -0.16261157 -0.26376498 -0.23138067 -0.29519507 -0.15929466 -0.32950246 0.039158467
-0.24743563 0.18460345 -0.22255142 -0.13451467 0.06306782 -0.56903327 -0.06805882 -0.06324734
-0.20127374 -0.8861607 -0.22051984 -0.10364131 0.17100641 0.0034726236 -0.13353294 -0.10632123
-0.22944061 0.38726154 -0.06907114 -0.27660385 -0.21828693 -0.06495196 -0.15884562 -0.14265129
-0.25585866 -0.18801805 -0.542589 0.02213813 0.26146874 -0.03244226 -0.22683127 -0.1383044
0.030781027 -0.05710848 0.026667116 0.02078915 0.103418365 0.26971272 -0.28179508 -0.52419347
-0.47467893 -0.053303774 -0.19486767 0.18811156 -0.6248625 0.13265538 0.19322142 0.4694171
-0.24554732 -0.20062396 -0.04183005 -0.15082963 -0.42243052 -0.25484213 -0.19246656 -0.11972211
-0.09138335 0.01446114 0.061302457 0.20836654 0.19243877 0.03830721 -0.0338708 -0.04605271
-0.04915962 -2.5794143e-05 -0.2414639 -0.18481347 -0.14171703 -0.080235794 -0.20114404 -0.23363362
-0.85327053 0.050182503 0.5540812 -0.38715217 -0.4512979 -0.28246608 -0.16838016 0.13070582
-0.029161002 0.011886693 0.15912093 -0.20314127 -0.15133968 -0.75973 -0.38445908 -0.7604487
0.44115072 0.40352044 -0.40912804 -0.27399573 -0.12570655 -0.4618322 -0.4596057 0.04665313
-0.3336346 -0.070911594 -0.22008187 -0.6124088 0.31524965 -0.48791006 0.16270348 -0.11010756
0.30839732 -0.20423941 -0.25628075 -0.29763114 -0.38596773 0.20380116 -0.24680455 0.066263705
0.26063713 0.12488384 -0.10154847 0.040343598 -0.3276747 0.11975796 -0.42563757 0.1792377
0.06601156 -0.59191155 -0.25154987 -0.49863556 -0.042107362 -0.03920271 -0.6211901 -0.31158453
-0.36015394 -0.22803837 -0.19713564 -0.06361597 -0.037791286 -0.34664991 -0.057024088 0.11665363
-0.34328887 -0.41394332 0.037875574 0.24535193 -0.037490293 -0.45428637 -0.4202454 -0.30519187
-0.002788795 -0.48231936 -0.025100987 0.27721226 0.11282142 -0.382103 -0.04773557 -0.39623106
-0.21600121 -0.4146659 0.05791017 -0.03598012 0.4386226 0.043083873 -0.06873245 -0.12189528
0.124865584 -0.23268747 -0.49861887 -0.088989794 0.16422333 -0.32795873 0.017369803 -0.22331749
-0.15483578 0.04222611 -0.33885416 -0.19527651 -0.26409367 0.16423851 0.19304222 -0.11404259
-0.07579309 -0.63138366 0.054101236 0.24373129 0.09118949 0.013443419 -0.22407638 -0.20234486
-0.31262967 -0.31055924 0.07264059 0.1645891 -0.12499012 0.026367638 -0.26468608 -0.16788009
-0.24399424 0.20357087 -0.09411226 -0.31697 -0.06698961 0.076507 -0.093393 -0.27277952
-0.030265957 -0.034560423 -0.53940505 -0.19540693 -0.039875317 -0.48287976 -0.2611026 -0.14625475
-0.39559767 -0.16164722 -0.26491764 -0.40222555 0.22760302 0.014239665 -0.3940457 -0.022858841
0.067486934 -0.36277878 -0.4001354 -0.15464835 0.11477493 -0.3220941 -0.4104138 -0.25183037
0.2424968 -0.042922404 -0.28226542 -0.091193095 0.20973903 0.13762133 -0.08551727 -0.3185016
-0.5665696 -0.21226948 -0.13710064 0.13131224 -0.15401419 -0.3512196 -0.27659398 -0.26522517
-0.14577425 -0.087429464 -0.23177017 -0.14354801 -0.6001027 0.06200679 -0.08412124 -0.20463008
00000000: 6656 42be a683 26be 340c 87be 0eef 6cbe
00000010: cf23 97be 241e 23be 8cb4 a8be a164 203d
00000020: c45f 7dbe b008 3d3e 85e4 63be 37be 09be
00000030: b429 813d 2aac 11bf 6c62 8bbd d287 81bd
00000040: b41a 4ebe 6ddb 62bf f4cf 61be e541 d4bd
00000050: 4e1c 2f3e f594 633b dcbc 08be f2be d9bd
00000060: 7bf2 6abe 2547 c63e 2b75 8dbd 059f 8dbe
00000070: 9c86 5fbe 8905 85bd 6da8 22be 2e13 12be
00000080: e8ff 82be ce87 40be 1de7 0abf 065b b53c
00000090: 3bdf 853e 2de2 04bd 7546 68be ab9f 0dbe
000000a0: 7e28 fc3c 95ea 69bd ff74 da3c 024e aa3c
000000b0: 02cd d33d c917 8a3e 7247 90be 8b31 06bf
000000c0: 1e09 f3be 0f55 5abd 648b 47be 51a0 403e
000000d0: fdf6 1fbf d0d6 073e d6db 453e 7057 f03e
000000e0: c270 7bbe 5e70 4dbe fd55 2bbd 1573 1abe
000000f0: d048 d8be ab7a 82be f415 45be de30 f5bd
00000100: 3227 bbbd 6bee 6c3c 4918 7b3d 0a5e 553e
00000110: ab0e 453e 05e8 1c3d 1cbc 0abd c4a1 3cbd
00000120: 995b 49bd 8060 d8b7 5042 77be be3f 3dbe
00000130: 451e 11be aa52 a4bd b4f8 4dbe a73d 6fbe
00000140: f06f 5abf 2b8c 4d3d 44d8 0d3f cf38 c6be
00000150: 8510 e7be 659f 90be d96b 2cbe bfd7 053e
00000160: 0ee3 eebc 67c0 423c 99f0 223e 4404 50be
00000170: caf8 1abe aa7d 42bf d2d7 c4be c4ac 42bf
00000180: 82de e13e 3b9a ce3e 3b79 d1be 2b49 8cbe
00000190: 38b9 00be 4575 ecbe 7051 ebbe 5a17 3f3d
000001a0: 27d2 aabe 193a 91bd 245d 61be d3c6 1cbf
000001b0: 6768 a13e 59cf f9be be9b 263e 1380 e1bd
000001c0: 41e6 9d3e 2324 51be 3b37 83be 1c63 98be
000001d0: 909d c5be 40b1 503e 55ba 7cbe 44b5 873d
000001e0: 3b72 853e 19c3 ff3d a5f8 cfbd 543f 253d
000001f0: fac4 a7be a943 f53d 2bed d9be 168a 373e
00000200: 1231 873d 8487 17bf 25cb 80be 294d ffbe
00000210: c578 2cbd 0593 20bd 5006 1fbf 0288 9fbe
00000220: 1966 b8be e482 69be eddd 49be 1749 82bd
00000230: 09cb 1abd 197c b1be 1792 69bd 19e8 ee3d
00000240: 8fc3 afbe 61f0 d3be 6b23 1b3d 893d 7b3e
00000250: 6c8f 19bd 3998 e8be 682a d7be 1c42 9cbe
00000260: 37c4 36bb 90f2 f6be 96a0 cdbc c4ee 8d3e
00000270: eb0e e73d 01a3 c3be 6086 43bd ccde cabe
00000280: 6c2f 5dbe 174f d4be 3733 6d3d e45f 13bd
00000290: 2493 e03e b778 303d 99c3 8cbd 3ca4 f9bd
000002a0: 87b9 ff3d a045 6ebe f94a ffbe 4840 b6bd
000002b0: 292a 283e 35ea a7be 1e4b 8e3c 57ad 64be
000002c0: 458d 1ebe 49f5 2c3d 4b7e adbe 91f6 47be
000002d0: 4937 87be 242e 283e dcac 453e 298f e9bd
000002e0: 6839 9bbd 5ca2 21bf 4299 5d3d b294 793e
000002f0: 8ec1 ba3d c941 5c3c 4774 65be 7e33 4fbe
00000300: ff10 a0be 9f01 9fbe 97c4 943d 0c8a 283e
00000310: d2fa ffbd f200 d83c ef84 87be c2e8 2bbe
00000320: a0d9 79be e274 503e eebd c0bd e449 a2be
00000330: d931 89bd b4af 9c3d d444 bfbd c2a9 8bbe
00000340: 50f0 f7bc 3b8f 0dbd 7316 0abf c118 48be
00000350: 4d54 23bd 043c f7be 3daf 85be cec3 15be
00000360: c78b cabe d986 25be 49a3 87be 82f0 cdbe
00000370: c410 693e 7c4d 693c 5cc0 c9be 7742 bbbc
00000380: 9736 8a3d 24be b9be 8cde ccbe 235c 1ebe
00000390: 1e0f eb3d 85e9 a4be c221 d2be e9ef 80be
000003a0: 1551 783e 67cf 2fbd 1885 90be 72c3 babd
000003b0: d4c5 563e 9bec 0c3e ae23 afbd a412 a3be
000003c0: b50a 11bf 2c5d 59be 1c64 0cbe b776 063e
000003d0: e5b5 1dbe 0ed3 b3be ba9d 8dbe 98cb 87be
000003e0: d845 15be 380e b3bd 2955 6dbe 40fe 12be
000003f0: 55a0 19bf d5fa 7d3d c247 acbd 8c8a 51be

conv2.bias f4 [16]
0.2138919 -0.19028708 0.06078777 -0.5142225 0.013294852 0.044029366 -0.15725952 -0.2863627
0.044022758 -0.017728552 -0.37322488 -0.28381458 -0.34620962 -0.27830207 0.012502755 -0.21317191
00000000: 7a06 5b3e 9eda 42be 99fc 783d 16a4 03bf
00000010: a7d2 593c 2358 343d a408 21be 229e 92be
00000020: 3551 343d 783b 91bc 5517 bfbe 2550 91be
00000030: 6342 b1be 9c7d 8ebe 5bd8 4c3c bd49 5abe

conv3.weight f4 [32, 16, 8, 3]
-0.37584448 0.17845124 -0.042144094 -0.45209864 -0.14191425 -0.2558313 -0.11990612 0.06612178
-0.022593586 -0.06499152 -0.3038206 -0.40352547 -0.2668041 -0.0629322 -0.06545678 -0.10161585
0.13618964 -0.0702944 -0.019149654 -0.03313722 -0.16743739 -0.13392597 -0.14650327 -0.14169113
0.44572878 -0.041870747 -0.20515281 0.011552546 -0.009806388 0.019675152 -0.17869209 0.02253098
0.047960963 -0.14153218 -0.1857852 -0.0497132 -0.0894622 -0.03482334 0.20253174 -0.0035377676
0.13894796 -0.1293305 -0.19456661 -0.1358392 -0.12096086 0.13101703 -0.09510379 0.033242133
0.1653912 -0.16764848 -0.0386167 -0.017758513 0.18353936 0.053949386 -0.017842386 0.015217251
-0.049013004 -0.107274115 -0.25557378 -0.028065868 -0.040161982 0.07059585 -0.13754657 -0.35814148
-0.09093952 -0.32568997 -0.31744444 0.06363054 0.0049127075 -0.2985938 0.16406456 -0.23306097
-0.43017343 -0.31164417 -0.37191534 -0.38799334 -0.47099224 -0.35791075 -0.076400906 -0.7134235
0.17560367 -0.28559318 -0.33954695 -0.41105315 -0.38084874 -0.4000135 -0.30769297 -0.1373758
0.117157966 -0.11337003 -0.26725042 -0.16446027 -0.22984473 -0.13673176 -0.24605775 -0.14317366
-0.14532125 -0.06283847 -0.03072195 -0.012711684 -0.06100921 0.20151566 0.02264833 0.06444025
0.12369602 -0.15893438 -0.26614386 -0.011638185 0.013243169 -0.16887474 -0.25640953 0.12775901
-0.073355645 0.070709795 -0.10422909 -0.21139121 -0.16671412 -0.36747542 -0.04343939 -0.06261689
-0.5012906 -0.39682305 -0.3358633 -0.39150345 0.39995465 0.027367458 0.013630297 -0.3066088
-0.3439553 -0.53217757 -0.24656184 0.07619437 -0.23425749 0.051011115 0.054537434 -0.051470026
-0.025465595 0.020567283 -0.5639015 0.12000843 -0.2722906 -0.37605947 -0.18402907 -0.21124469
-0.0787944 -0.051899366 -0.24820068 0.27737474 -0.41414243 0.038095202 -0.12650913 -0.16544431
0.02121345 -0.19746718 -0.057664778 -0.14807229 -0.14693752 -0.028512426 0.062712535 0.026492171
-0.15272439 -0.124319635 0.1463216 0.07100808 -0.22893998 -0.096306354 -0.092172295 -0.07359588
0.32020843 0.16962928 -0.5011488 -0.13117348 -0.4567478 -0.3222621 -0.37341344 0.22524506
-0.26494113 -0.10593668 0.19576731 0.10463212 -0.33159685 -0.22664179 -0.089925714 0.17201798
0.070042334 -0.0304529 0.08125872 0.14042048 0.03732781 -0.48707575 0.082973994 -0.31858975
0.24571016 -0.09622302 0.11891006 0.06875123 -0.27005708 -0.076176584 -0.018170629 -0.020363413
-0.079479426 0.105495684 -0.19949886 0.03786041 0.21946207 0.060075745 -0.32489583 -0.39889374
0.15132946 -0.40318695 0.03599081 -0.060421553 -0.26970407 -0.21022643 -0.15679236 -0.061826773
0.08669113 -0.45543617 -0.22223745 -0.17691451 -0.4009755 0.070999466 0.33243373 -0.35684615
0.069099225 -0.24371147 0.08003298 0.0041783983 0.081772774 -0.13869157 0.25776467 -0.39818722
-0.14250438 0.056497257 0.03556904 0.07966884 -0.010758784 -0.005496012 -0.1902163 0.085723154
-0.17230354 -0.32042646 -0.21509984 -0.36530697 0.00012875431 0.0849185 -0.062158227 -0.11552783
-0.34739935 0.12540966 -0.18678515 -0.19438437 0.06299408 0.077676505 -0.11947269 -0.36849558
00000000: b06e c0be ecbb 363e 499f 2cbd 7979 e7be
00000010: f851 11be 52fc 82be 5791 f5bd db6a 873d
00000020: 2f16 b9bc 461a 85bd 608e 9bbe e49a cebe
00000030: 8c9a 88be 99e2 80bd 340e 86bd f91b d0bd
00000040: 4c75 0b3e 83f6 8fbd bcdf 9cbc e5ba 07bd
00000050: b574 2bbe e423 09be f404 16be 7b17 11be
00000060: 9036 e43e a980 2bbd 9413 52be e446 3d3c
00000070: f9aa 20bc c92d a13c 0ffb 36be e492 b83c
00000080: b772 443d d0ed 10be 7a3e 3ebe 12a0 4bbd
00000090: f537 b7bd eba2 0ebd 7b64 4f3e e4d9 67bb
000000a0: 6048 0e3e 376f 04be 783c 47be 6e19 0bbe
000000b0: 54ba f7bd 5429 063e c7c5 c2bd e728 083d
000000c0: 505c 293e 0bac 2bbe 8b2c 1ebd 4d7a 91bc
000000d0: bef1 3b3e 08fa 5c3d 322a 92bc c751 793c
000000e0: dcc1 48bd 88b2 dbbd 91da 82be 64ea e5bc
000000f0: e480 24bd 8f94 903d 02d9 0cbe 525e b7be
00000100: 803e babd d6c0 a6be 1488 a2be bb50 823d
00000110: c7fa a03b 49e1 98be 8a00 283e 89a7 6ebe
00000120: b13f dcbe d38f 9fbe b06b bebe 10a7 c6be
00000130: e525 f1be 1440 b7be 1478 9cbd eca2 36bf
00000140: 73d1 333e 4539 92be 19d9 adbe 8f75 d2be
00000150: 9bfe c2be 92ce ccbe ef89 9dbe 3eac 0cbe
00000160: 84f0 ef3d 8c2e e8bd 0cd5 88be 4668 28be
00000170: 6b5c 6bbe 6903 0cbe 90f6 7bbe 1e9c 12be
00000180: 18cf 14be 75b1 80bd 99ac fbbc ab44 50bc
00000190: cbe4 79bd 1f5a 4e3e fe88 b93c 40f9 833d
000001a0: 5754 fd3d b2bf 22be 0244 88be 16ae 3ebc
000001b0: e0f9 583c 80ed 2cbe 1c48 83be 42d3 023e
000001c0: 7c3b 96bd 4cd0 903d 1076 d5bd f076 58be
000001d0: 1bb7 2abe bd25 bcbe 80ed 31bd 493d 80bd
000001e0: 9554 00bf 642c cbbe 46f6 abbe 2473 c8be
000001f0: dbc6 cc3e b831 e03c 9c51 5f3c d4fb 9cbe
00000200: e91a b0be ca3c 08bf b57a 7cbe cb0b 9c3d
00000210: 32e1 6fbe 08f1 503d a562 5f3d 3cd2 52bd
00000220: 399d d0bc b87c a83c d95b 10bf fbc6 f53d
00000230: ac69 8bbe de8a c0be 1e72 3cbe 8750 58be
00000240: f55e a1bd 6e94 54bd 5228 7ebe 1004 8e3e
00000250: 7a0a d4be b709 1c3d 9c8b 01be 3c6a 29be
00000260: d4c7 ad3c d634 4abe e731 6cbd 43a0 17be
00000270: ca76 16be e492 e9bc 6e6f 803d 1c06 d93c
00000280: c863 1cbe 4b9b febd 54d5 153e af6c 913d
00000290: 3e6f 6abe 443c c5bd d4c4 bcbd 70b9 96bd
000002a0: 5cf2 a33e 4cb3 2d3e 4a4b 00bf 5752 06be
000002b0: d9da e9be 8aff a4be 0c30 bfbe a4a6 663e
000002c0: 5da6 87be 55f5 d8bd 3a77 483e 5d49 d63d
000002d0: 10c7 a9be c914 68be f92a b8bd 7b25 303e
000002e0: 5b72 8f3d 5c78 f9bc f96a a63d 63ca 0f3e
000002f0: 0ce5 183d fe61 f9be 45ee a93d 321e a3be
00000300: 729b 7b3e 9310 c5bd 1e87 f33d 72cd 8c3d
00000310: ec44 8abe 7802 9cbd 92da 94bc 2cd1 a6bc
00000320: 1cc6 a2bd 1f0e d83d 6e49 4cbe 8413 1b3d
00000330: aaba 603e fc11 763d bf58 a6be cd3b ccbe
00000340: 1cf6 1a3e 856e cebe 196b 133d 977c 77bd
00000350: a716 8abe 9945 57be 2d8e 20be 123e 7dbd
00000360: 1f8b b13d ee2e e9be 3792 63be 1429 35be
00000370: a94c cdbe 2b68 913d c134 aa3e 8ab4 b6be
00000380: e583 8d3d 808f 79be 55e8 a33d f2ea 883b
00000390: 7c78 a73d 2a05 0ebe bbf9 833e 32df cbbe
000003a0: abec 11be ab69 673d d7b0 113d 6b29 a33d
000003b0: 9c45 30bc e417 b4bb 10c8 42be 9f8f af3d
000003c0: 5770 30be f00e a4be 2243 5cbe 8409 bbbe
000003d0: 3902 0739 c0e9 ad3d a099 7ebd db99 ecbd
000003e0: 54de b1be 646b 003e 9b44 3fbe b20c 47be
000003f0: 0a03 813d dc14 9f3d 19ae f4bd 74ab bcbe

conv3.bias f4 [32]
-0.25508553 -0.13620722 -0.19091402 -0.26062334 -0.3135019 -0.3426419 -0.61854404 -0.48511
0.025871376 -0.18423666 0.05271271 -0.2232837 -0.109476075 -0.26767704 -0.48463959 -0.59427327
0.09176309 -0.5496064 -0.23801517 -0.23688729 0.31094074 -0.27949655 -0.20475467 -0.19826642
-0.29159904 -0.57968974 -0.18069696 -0.3447487 0.024235982 -0.21957882 -0.37961596 0.082981296
00000000: 929a 82be e879 0bbe f77e 43be 6c70 85be
00000010: 5283 a0be c26e afbe e758 1ebf 5760 f8be
00000020: 35f0 d33c 89a8 3cbe 48e9 573d 7ba4 64be
00000030: fe34 e0bd f70c 89be ae22 f8be 4b22 18bf
00000040: 49ee bb3d 01b3 0cbf 40ba 73be 9592 72be
00000050: a033 9f3e 2c1a 8fbe 35ab 51be 5a06 4bbe
00000060: 784c 95be 8c66 14bf a008 39be e782 b0be
00000070: 8a8a c63c 45d9 60be 065d c2be 19f2 a93d

conv4.weight f4 [32, 32, 4, 3]
-0.046881273 -0.21751177 0.045259025 -0.12756865 0.009614395 -0.2548326 -0.10478764 0.027961394
-0.028351996 -0.11840594 -0.039801404 0.011612151 0.07560005 -0.12554087 -0.066739 0.08107578
0.07240791 0.021251393 0.04564948 -0.010283414 -0.18035582 -0.13132434 -0.053851105 -0.31236824
-0.116685085 -0.1082063 -0.06424462 -0.26013243 0.04901427 -0.07073658 0.013330366 -0.35180312
-0.0075063175 -0.07499308 -0.21802223 0.117287874 -0.21150167 -0.0540126 0.1052849 -0.24338542
-0.081144735 0.07708822 0.037357923 -0.09559378 -0.26440752 0.085738964 -0.11959561 -0.009165648
0.033373754 -0.15705068 -0.097545065 0.0014824404 -0.015403282 -0.02856986 0.0047977204 -0.18696083
0.114674754 0.08547723 -0.38563648 -0.088282645 0.0027985524 -0.049278907 0.21399885 -0.101723105
0.07050121 -0.24182943 -0.10581866 -0.23599452 -0.08993764 -0.33048424 -0.17331441 -0.077196896
-0.19806585 -0.14611924 -0.29917485 -0.1344142 -0.13855867 -0.21051092 -0.11410251 -0.046669345
-0.0923976 -0.17266968 0.059991274 -0.0808644 0.067160316 -0.014841944 -0.063670546 -0.07270975
-0.05467389 -0.24144983 -0.1081878 -0.025814626 -0.10924618 -0.009866085 -0.13320556 0.026220437
0.14249663 -0.005401156 -0.2778445 0.066413715 -0.059673633 0.013077319 0.02209024 -0.07232353
-0.1962786 -0.3230041 -0.0053836736 -0.1834585 -0.057572767 -0.020835986 -0.092004746 -0.019613894
-0.019431582 0.112945795 -0.14886326 -0.07722025 -0.11679615 -0.045833938 -0.17399122 -0.11114829
0.21297531 -0.08569172 0.0031174752 -0.033614513 0.027994372 -0.20259309 -0.13641697 -0.031314027
-0.31853068 -0.07535365 -0.033837054 -0.21615738 -0.083226435 -0.03523186 0.01671856 -0.05931477
-0.08013826 -0.16767079 -0.22621767 0.033606574 -0.16513038 -0.3430258 -0.04938527 -0.020419605
-0.070774265 -0.123036146 0.034423053 -0.21623538 -0.06896753 -0.060295574 -0.23041593 -0.089614846
-0.2054282 -0.13460833 0.0063739326 -0.33217502 -0.24389999 0.06925812 -0.105287954 -0.054724228
0.018175615 -0.21713817 -0.19692373 -0.31447035 -0.031770185 -0.03985793 0.009900172 -0.11981177
-0.07957388 0.056705084 -0.04460587 0.06461417 -0.0035240662 0.079358086 -0.2725153 -0.05952106
-0.12130585 0.0006722423 -0.22700556 0.0031673727 0.118837506 -0.2317658 -0.02266295 -0.14041588
-0.3563459 -0.14101028 0.063654095 -0.117739916 -0.097513825 -0.14783889 -0.17023012 -0.030564656
0.012620334 -0.02316473 -0.031034777 0.031179475 -0.02436366 0.048007663 0.04251547 -0.11482293
-0.03604293 -0.011205233 -0.16993776 -0.09420206 -0.17735173 -0.0788405 0.07140418 -0.02321792
-0.073195696 0.0034691459 -0.10766915 0.08749071 -0.04183191 -0.18898223 -0.008529965 -0.16111523
-0.11410599 -0.086456746 0.15263571 -0.13025299 -0.21398231 -0.029279053 -0.2419912 -0.033344984
-0.07069079 0.026330374 -0.07543591 -0.16108482 -0.09520851 -0.053951457 -0.042019837 -0.23736975
-0.28642344 -0.08839132 -0.22961688 -0.26122966 -0.15627107 -0.18313512 -0.16595435 -0.11510131
-0.19282658 -0.26089028 0.046160027 -0.28655946 -0.30109614 -0.28930494 -0.18081458 0.10188772
-0.14648645 -0.037118044 -0.3116394 -0.10330189 0.03827182 -0.08287016 0.10386236 -0.17924891
00000000: 9406 40bd 68bb 5ebe 8761 393d 5ba1 02be
00000010: b285 1d3c 6b79 82be e79a d6bd 4b0f e53c
00000020: 7242 e8bc d07e f2bd cc06 23bd e440 3e3c
00000030: 33d4 9a3d c98d 00be 75ae 88bd 0f0b a63d
00000040: 994a 943d 6717 ae3c f3fa 3a3d c47b 28bc
00000050: 32af 38be e379 06be fa92 5cbd bbee 9fbe
00000060: 97f8 eebd 449b ddbd af92 83bd 1430 85be
00000070: 30c3 483d 57de 90bd 9c67 5a3c 8a1f b4be
00000080: 8ef7 f5bb f995 99bd 3841 5fbe a034 f03d
00000090: e593 58be 513c 5dbd 9c9f d73d 073a 79be
000000a0: 362f a6bd 6ee0 9d3d 9f04 193d acc6 c3bd
000000b0: 6c60 87be e997 af3d 8bee f4bd 842b 16bc
000000c0: ebb2 083d e5d1 20be b5c5 c7bd 724e c23a
000000d0: 0c5e 7cbc 570b eabc 3236 9d3b a972 3fbe
000000e0: 99da ea3d b00e af3d 2572 c5be 88cd b4bd
000000f0: eb67 373b aed8 49bd 8422 5b3e 3454 d0bd
00000100: f062 903d 22a2 77be 74b7 d8bd 8ca8 71be
00000110: 3a31 b8bd 3b35 a9be 5579 31be 6819 9ebd
00000120: c6d1 4abe 48a0 15be 722d 99be e0a3 09be
00000130: 53e2 0dbe 2d90 57be 94ae e9bd 5b28 3fbd
00000140: f43a bdbd 52d0 30be 69b9 753d 3c9c a5bd
00000150: 598b 893d a02b 73bc b465 82bd d9e8 94bd
00000160: bbf1 5fbd a03e 77be 9191 ddbd 3279 d3bc
00000170: 76bc dfbd 5ca5 21bc 0a67 08be 3ecc d63c
00000180: a3ea 113e 2efc b0bb a241 8ebe ea03 883d
00000190: 576c 74bd 4042 563c 97f6 b43c 5c1e 94bd
000001a0: 42fd 48be cb60 a5be 8769 b0bb 8cdc 3bbe
000001b0: 6cd1 6bbd 3bb0 aabc fc6c bcbd 51ad a0bc
000001c0: fb2e 9fbc 2050 e73d 9c6f 18be a725 9ebd
000001d0: d232 efbd 5ebc 3bbd c12a 32be b7a1 e3bd
000001e0: 3316 5a3e 247f afbd 8e4e 4c3b 5faf 09bd
000001f0: 7454 e53c 9074 4fbe e4b0 0bbe 2343 00bd
00000200: 7416 a3be 0453 9abd b998 0abd 5c58 5dbe
00000210: 9f72 aabd 484f 10bd 5df5 883c 0bf4 72bd
00000220: 871f a4bd e4b1 2bbe 9ba5 67be 0ca7 093d
00000230: f017 29be 14a1 afbe 3548 4abd 0447 a7bc
00000240: 19f2 90bd 60fa fbbd 30ff 0c3d cf6c 5dbe
00000250: d93e 8dbd 7ef8 76bd 27f2 6bbe fd87 b7bd
00000260: c55b 52be c4d6 09be 6cdc d03b d812 aabe
00000270: ebc0 79be 34d7 8d3d 36a1 d7bd 8326 60bd
00000280: 07e5 943c 7859 5ebe 60a6 49be 4202 a1be
00000290: 7421 02bd 1242 23bd 5534 223c e05f f5bd
000002a0: a1f7 a2bd 9743 683d a5b4 36bd 6f54 843d
000002b0: 05f4 66bb 7e86 a23d 2087 8bbe 5bcc 73bd
000002c0: 346f f8bd 6b39 303a 2574 68be b293 4f3b
000002d0: 1461 f33d 0454 6dbe a7a7 b9bc 2ec9 0fbe
000002e0: f872 b6be 0065 10be 145d 823d a021 f1bd
000002f0: 54b5 c7bd 1463 17be ce50 2ebe bb62 fabc
00000300: 84c5 4e3c f6c3 bdbc a53c febc 196c ff3c
00000310: 4c96 c7bc afa3 443d b424 2e3d 4928 ebbd
00000320: c0a1 13bd 2796 37bc 2a04 2ebe 02ed c0bd
00000330: b19b 35be 2177 a1bd 5b3c 923d 8233 bebc
00000340: a0e7 95bd 9c5a 633b a581 dcbd 542e b33d
00000350: f057 2bbd 8f84 41be 44c1 0bbc 64fb 24be
00000360: 67b0 e9bd 3c10 b1bd 894c 1c3e 0a61 05be
00000370: 2e1e 5bbe a0da efbc 8bcc 77be c094 08bd
00000380: 55c6 90bd ccb2 d73c 247e 9abd 6bf3 24be
00000390: aefc c2bd 34fc 5cbd fe1c 2cbd 0e11 73be
000003a0: 18a6 92be 8206 b5bd b020 6bbe e5bf 85be
000003b0: 8605 20be c687 3bbe f0ef 29be 3cba ebbd
000003c0: 5574 45be 6993 85be 4c12 3d3d ecb7 92be
000003d0: 4629 9abe c71f 94be 7527 39be 82aa d03d
000003e0: 8b00 16be 1709 18bd 338f 9fbe f18f d3bd
000003f0: e9c2 1c3d d5b7 a9bd cab5 d43d 078d 37be

conv4.bias f4 [32]
-0.26508343 -0.18831524 -0.21538626 -0.2222212 -0.05039446 -0.2627577 -0.203627 0.080729686
-0.22517869 -0.25712582 0.075907335 -0.21372074 -0.19922656 0.100980066 -0.35820997 0.04786385
-0.24560666 -0.20044965 -0.09465457 0.06248586 -0.09335843 0.10561468 -0.19486874 -0.2504008
-0.18829156 -0.28587216 -0.089717545 -0.2272093 -0.26183975 -0.34913895 -0.18427962 -0.2960346
00000000: 04b9 87be b6d5 40be 378e 5cbe f48d 63be
00000010: 6c6a 4ebd 2d88 86be 9983 50be 9b55 a53d
00000020: 3e95 66be ffa5 83be 4e75 9b3d 9cd9 5abe
00000030: 0c02 4cbe a3ce ce3d 4c67 b7be e20c 443d
00000040: 5080 7bbe ac42 4dbe 41da c1bd 2cf1 7f3d
00000050: b432 bfbd 824c d83d ac8b 47be 8934 80be
00000060: 81cf 40be d65d 92be d5bd b7bd 8ea9 68be
00000070: dc0f 86be 57c2 b2be ccb3 3cbe d991 97be

fc.weight f4 [1, 1440]
0.027608046 0.054891273 -0.030428784 0.23793343 -0.0023977694 0.10473456 -0.11426054 0.30887467
-0.048723593 0.029533446 -0.18705124 -0.05884989 -0.00077057217 -0.081899 0.06251326 -0.00627132
-0.039436832 0.051700003 0.043977864 0.053306766 -0.0745412 0.12483174 -0.0836313 -0.029685667
0.029487448 0.116210446 -0.12332784 0.03544992 -0.019480832 0.059791956 -0.14005792 -0.03291728
-0.030762054 -0.15989292 -0.05274123 0.05004682 -0.052156728 -0.04468717 -0.03689786 -0.036632743
-0.027072629 -0.010928808 0.10250177 -0.113882266 -0.014109969 0.11610031 -0.21209238 0.37333605
-0.04186128 0.32520765 -0.24011141 0.16231844 0.46834224 -0.1805145 -0.0055197645 -0.5272741
0.071441025 0.21224624 0.37614465 0.19901878 0.17329796 -0.06174014 0.07873897 -0.04817423
-0.022535022 0.19657838 -0.2006852 -0.36526194 -0.16497697 0.38908684 0.15848005 0.027383886
0.11559001 0.15527897 0.18889467 -0.14843823 0.1348345 0.27935737 0.22405076 -0.13557346
-0.17161568 -0.06794241 0.024304496 0.097377695 -0.045434687 0.058454648 0.1113347 0.13749184
-0.15353912 0.035006687 -0.10841975 0.26126742 0.50668925 0.38400596 0.06346053 0.23372385
-0.07079837 0.18165305 -0.07725855 -0.010045562 0.06305691 0.009021614 0.3068256 0.09500107
-0.18958846 0.15553018 -0.2901091 -0.25458893 -0.04430263 0.07720362 0.26036805 -0.18623802
-0.32842505 0.09915307 -0.1333155 -0.29985565 -0.1280481 -0.0070934645 -0.052834682 0.035849497
0.0006750822 0.1544635 0.062814735 0.15784979 0.20065488 0.011485653 0.060975417 -0.054167453
0.0873799 -0.068804026 0.017976012 0.030858776 0.14573476 0.00847223 0.0013283214 -0.045701995
0.18268934 0.19134508 0.16886698 -0.13491032 -0.20233352 -0.23353665 0.09866277 0.073073186
-0.114285864 0.05595353 0.50160277 0.15785271 0.23489983 -0.15982991 0.021646291 -0.210097
-0.0445737 -0.010851884 0.0125471195 -0.11866346 0.010767546 0.034519915 0.05864856 0.050984785
0.1311669 0.008697324 0.10789021 0.26977298 -0.20065238 0.16696051 -0.1577185 0.0038990628
-0.03125011 -0.04788051 -0.032540005 -0.08888031 -0.0449878 -0.07860544 -0.079335086 0.054087654
0.07000944 0.15239255 -0.03415219 -0.057528887 0.28240788 0.18577038 0.30159476 -0.08022
-0.20088571 -0.31016153 0.41535437 0.26603022 -0.07594473 -0.06529918 -0.29193413 0.40350705
0.13675648 0.08731787 -0.12681001 -0.22657943 -0.29834682 -0.18511608 0.11443571 0.048781812
-0.34963432 -0.12700239 -0.04605418 -0.17851222 -0.0369168 0.008079667 0.31508467 -0.08788261
-0.037631467 -0.22206528 0.32657176 -0.08415825 -0.069466256 0.27480924 -0.07065799 0.111614436
-0.07563649 0.09963241 -0.047568277 -0.27805415 -0.058785506 0.09011361 0.18555067 -0.06634865
-0.21059188 -0.30730224 -0.27629703 0.034498684 0.32362652 0.4927401 -0.36721146 0.0021663175
0.098844856 0.07961737 0.1264263 0.07908191 0.07284489 0.4826442 -0.14944227 -0.2872851
-0.19940636 0.2878221 -0.28576264 -0.051280204 -0.28794342 -0.15820615 -0.15133 -0.14671183
0.0082815625 -0.19840409 0.36029452 0.22238472 0.05905883 0.07815386 0.19352514 -0.07676154
00000000: 452a e23c acd5 603d c945 f9bc d2a4 733e
00000010: e523 1dbb 137f d63d 6e01 eabd d224 9e3e
00000020: 6492 47bd 20f0 f13c 5c8a 3fbe 950c 71bd
00000030: 3900 4aba aaba a7bd f406 803d a57f cdbb
00000040: 8488 21bd 62c3 533d 2222 343d 3258 5a3d
00000050: 0fa9 98bd c9a7 ff3d e346 abbd 5b2f f3bc
00000060: a98f f13c beff ed3d 4e93 fcbd ef33 113d
00000070: 4496 9fbc 69e8 743d 586b 0fbe 45d4 06bd
00000080: b400 fcbc f8ba 23be 3007 58bd e5fd 4c3d
00000090: 4ba2 55bd e509 37bd 3622 17bd 370c 16bd
000000a0: 6bc7 ddbc be0e 33bc 73ec d13d 1b3b e9bd
000000b0: 802d 67bc 00c6 ed3d bf2e 59be e725 bf3e
000000c0: bc76 2bbd 9e81 a63e c4df 75be ce36 263e
000000d0: 8eca ef3e cbd8 38be 24df b4bb 6ffb 06bf
000000e0: ac4f 923d 1457 593e 0896 c03e 94cb 4b3e
000000f0: 0575 313e 3be3 7cbd e641 a13d 5752 45bd
00000100: 5e9b b8bc d84b 493e 6c80 4dbe 9d03 bbbe
00000110: b9ef 28be 6436 c73e 9848 223e 2c54 e03c
00000120: 75ba ec3d 7301 1f3e 9b6d 413e 3100 18be
00000130: 0e12 0a3e ee07 8f3e 906d 653e c5d3 0abe
00000140: 05bc 2fbe 6425 8bbd 391a c73c f56d c73d
00000150: b919 3abd 246e 6f3d 7203 e43d a9ca 0c3e
00000160: 5c39 1dbe 2c63 0f3d 2d0b debd d8c4 853e
00000170: 63b6 013f 6e9c c43e 98f7 813d 4e55 6f3e
00000180: bcfe 90bd 4203 3a3e bb39 9ebd 2496 24bc
00000190: fb23 813d 64cf 133c 3f18 9d3e ec8f c23d
000001a0: 7a23 42be 4e43 1f3e 2e89 94be 7b59 82be
000001b0: ad76 35bd ee1c 9e3d f64e 853e 2eb5 3ebe
000001c0: 5427 a8be c410 cb3d dc83 08be ae86 99be
000001d0: 0b1f 03be 4b70 e8bb 2e69 58bd ecd6 123d
000001e0: 00f8 303a ae2b 1e3e 03a5 803d 60a3 213e
000001f0: 7978 4d3e 522e 3c3c 5cc1 793d b1de 5dbd
00000200: 3cf4 b23d 20e9 8cbd 6e42 933c 8bcb fc3c
00000210: 7e3b 153e 1ccf 0a3c 121b ae3a 0432 3bbd
00000220: ea12 3b3e f7ef 433e 77eb 2c3e ee25 0abe
00000230: 8530 4fbe 3b24 6fbe b50f ca3d 65a7 953d
00000240: b50e eabd 872f 653d 0a69 003f 24a4 213e
00000250: 9589 703e 74aa 23be 9053 b13c ab23 57be
00000260: e992 36bd 1acc 31bc 6f92 4d3c d405 f3bd
00000270: 5c6a 303c c164 0d3d 7939 703d 6cd5 503d
00000280: 9e50 063e 397f 0e3c 8bf5 dc3d af1f 8a3e
00000290: d177 4dbe b2f7 2a3e f580 21be 6b87 7f3b
000002a0: 1e00 00bd 5b1e 44bd ab48 05bd e106 b6bd
000002b0: 2145 38bd e4fb a0bd 6f7a a2bd 048b 5d3d
000002c0: 1c61 8f3d cb0c 1c3e 2be3 0bbd 69a3 6bbd
000002d0: c497 903e 973a 3e3e a16a 9a3e 624a a4bd
000002e0: fcb4 4dbe 7ecd 9ebe 54a9 d43e 1d35 883e
000002f0: e988 9bbd 94bb 85bd 6478 95be 7a98 ce3e
00000300: e409 0c3e b6d3 b23d 7cda 01be 7004 68be
00000310: eac0 98be 128f 3dbe 455d ea3d 70cf 473d
00000320: 4503 b3be ea0c 02be 4fa3 3cbd e8cb 36be
00000330: 1236 17bd 9460 043c c752 a13e ccfb b3bd
00000340: 7423 1abd 1565 63be 6a34 a73e 295b acbd
00000350: 5344 8ebd ccb3 8c3e 23b5 90bd 1c96 e43d
00000360: 4ee7 9abd 140c cc3d f4d6 42bd 1d5d 8ebe
00000370: 12c9 70bd 7c8d b83d ff00 3e3e cde1 87bd
00000380: 66a5 57be b856 9dbe ce76 8dbe 7e4e 0d3d
00000390: 60b2 a53e 6e48 fc3e 2403 bcbe c7f8 0d3b
000003a0: 2c6f ca3d 6f0e a33d e575 013e b2f5 a13d
000003b0: b42f 953d 241d f73e 6507 19be 0817 93be
000003c0: 2e31 4cbe 6b5d 933e 7b4f 92be 310b 52bd
000003d0: 526d 93be cb00 22be 40f6 1abe a03b 16be
000003e0: 64af 073c 712a 4bbe 8678 b83e d2b8 633e
000003f0: ace7 713d 220f a03d 742b 463e 2735 9dbd
