model_round_2.pth (torch, 126796 bytes, 9 tensors)

conv1.weight f4 [16, 1, 16, 3]
0	0xbf13a0dc	-0.57667327
1	0xbc843bb4	-0.01614175
2	0x3ef34635	0.475145
3	0xbeb02f09	-0.34410885
4	0x3e209369	0.15681233
5	0x3e014ad4	0.12626201
6	0xbdcb970d	-0.0994092
7	0x39802ae4	0.00024446019
8	0xbdde74c0	-0.10862112
9	0xbe809b8c	-0.25118673
10	0xbd083acc	-0.033259198
11	0x3e873114	0.2640463
12	0xbe0c79f5	-0.13718398
13	0x3db877a0	0.09007192
14	0x3d60cbc5	0.05488183
15	0x3cafdc4e	0.021467354
16	0xbea691e7	-0.3253319
17	0xbd6cc377	-0.057803597
18	0x3e06dca3	0.13170104
19	0xbd7d9ea5	-0.061918873
20	0x3e44e227	0.19226895
21	0xbe0af8ff	-0.13571547
22	0xbf2a7821	-0.6658955
23	0x3cf4d199	0.0298851
24	0x3e2d3d12	0.16917828
25	0xbf203180	-0.6257553
26	0xbcefa344	-0.029252656
27	0xbda95e31	-0.08269919
28	0xbf10e285	-0.5659564
29	0xbeb45cd2	-0.35227066
30	0x3eaebb10	0.34127092
31	0xbcc0ac0b	-0.023519536
32	0x3ddd7958	0.1081416
33	0x3e2c3311	0.16816355
34	0xbe766462	-0.2406173
35	0x3e26bc72	0.16282824
36	0x3ec8b709	0.39202145
37	0x3ec35b84	0.38155758
38	0xbcf320ce	-0.029678728
39	0xbe9bdb0c	-0.30440557
40	0xbea9bec3	-0.33153352
41	0xbeda3cf0	-0.42624617
42	0x3e0c11e6	0.13678703
43	0x3ca2b176	0.01986001
44	0x3e5c0db1	0.21489598
45	0xbed53237	-0.41639873
46	0xbd7f845c	-0.062382087
47	0xbea981ce	-0.33106846
48	0x3e3ea17d	0.1861629
49	0xbe775340	-0.24152851
50	0xbb76138e	-0.0037548277
51	0x3e7197f4	0.23593122
52	0xbe710b35	-0.23539431
53	0xbe238479	-0.15968503
54	0x3edc36ec	0.43010652
55	0xbde01b3c	-0.109426945
56	0xbeb3c6c6	-0.3511259
57	0xbe80571c	-0.2506646
58	0x3d8a4e21	0.06753183
59	0x3d4123a9	0.04715315
60	0xbb83299e	-0.004002764
61	0xbd5fbcd4	-0.05462344
62	0xbd6a2612	-0.057165213
63	0x3dfe5259	0.1241805
64	0x3cac41c0	0.021027446
65	0xbe584790	-0.21121049
66	0x3ed606f4	0.4180218
67	0xbe1fd559	-0.1560873
68	0xbeddf3af	-0.43349978
69	0xbf468474	-0.7754586
70	0xbeb4d1e4	-0.35316384
71	0xbdd4ea34	-0.10396233
72	0xbe62dbf9	-0.22154225
73	0xbee1b503	-0.44083413
74	0xbec10a69	-0.37703255
75	0x3d324180	0.043519497
76	0xbe285528	-0.16438735
77	0xbdfb7357	-0.12277859
78	0x3e01ab9e	0.12663123
79	0xbde55ac7	-0.11198955
80	0xbe1c809b	-0.15283434
81	0xbf28bdbe	-0.65914524
82	0x3e33daf9	0.17564
83	0xbdff33a4	-0.124610215
84	0x3e91c2b1	0.2846885
85	0x3d13a332	0.036044307
86	0xbebb9081	-0.36633685
87	0x3e7613b5	0.24030955
88	0xbde6f5c4	-0.11277345
89	0xbef73540	-0.48282814
90	0xbe1539e9	-0.14572872
91	0xbe9500c0	-0.29102135
92	0xbf08be03	-0.53414935
93	0xbf0aea24	-0.5426352
94	0x3f500d7c	0.81270576
95	0xbd43e232	-0.04782314
96	0xbe4b9f3e	-0.19884965
97	0xbeb0d704	-0.34539044
98	0x3df48802	0.11940004
99	0xbe88a5bf	-0.26688954
100	0xbd641ac7	-0.0556896
101	0x3ebf573e	0.37371248
102	0xbdb0cd35	-0.0863289
103	0xbd9d3f90	-0.07678139
104	0x3e7425c5	0.23842533
105	0xbe8115dc	-0.2521199
106	0xbdd91b3e	-0.10600899
107	0x3d4af931	0.049554054
108	0x3d3f0bb1	0.04664201
109	0x3e5cd4cb	0.21565549
110	0x3da4f277	0.08054059
111	0xbe3985a4	-0.18117386
112	0x3ddc820c	0.10766992
113	0xbe08236d	-0.13294764
114	0xbe955c15	-0.29171816
115	0xbe80bf50	-0.2514596
116	0xbe728aeb	-0.23685805
117	0x3ca034d5	0.019556442
118	0x3d3c56db	0.04598127
119	0xbeaf03a5	-0.34182468
120	0x3d40f824	0.047111645
121	0xbe09db4b	-0.1346256
122	0xbebbbab2	-0.36665875
123	0x3d824ba2	0.06362082
124	0x3d97120d	0.0737649
125	0xbe466afc	-0.19376749
126	0x3e0921ec	0.13391846
127	0x3ec0ebee	0.3768
128	0xbe8d10ad	-0.27551785
129	0xbd778bd5	-0.06043609
130	0x3e1f00dc	0.15527672
131	0xbde6a60b	-0.11262139
132	0xbcf9f275	-0.03051112
133	0xbe016340	-0.12635517
134	0x3ba60efc	0.0050677042
135	0x3e0e3370	0.1388681
136	0xbc5d99d2	-0.013525443
137	0xbe180ea5	-0.14849336
138	0xbcd15ef9	-0.025557982
139	0x3e9158a3	0.28387937
140	0x3e039b8d	0.12852307
141	0x3eb85287	0.36000463
142	0xbd97cc01	-0.074119575
143	0xbdfce88e	-0.12349044
144	0xbdde5023	-0.108551286
145	0xbe3dc0fb	-0.18530647
146	0x3a0c37dc	0.00053489
147	0x3c8c8dfc	0.017157547
148	0xbdf7e992	-0.12105097
149	0xbe6f25e4	-0.23354298
150	0xbe3344c9	-0.17506708
151	0xbe6d8545	-0.2319537
152	0xbc5981de	-0.013275592
153	0xbc7be78e	-0.015375031
154	0xbec7335b	-0.3890637
155	0xbe397635	-0.18111499
156	0xbe6aa7e0	-0.22915602
157	0x3cd5937a	0.026071299
158	0x3e20c0d8	0.15698564
159	0xbe6fe93e	-0.23428819
160	0xbf20784c	-0.6268356
161	0xbe32f2a9	-0.1747538
162	0xbdd1dc72	-0.10247125
163	0xbefbce22	-0.49180704
164	0xbe01470c	-0.12624758
165	0x3d678d4b	0.05653123
166	0xbf1cd2a8	-0.61258936
167	0x3d76cbe2	0.06025303
168	0x3e3033dd	0.17207284
169	0xbef35e35	-0.47532812
170	0x3d318baa	0.043346085
171	0xbeebb2a4	-0.4603473
172	0xbd466562	-0.04843653
173	0x3cb300ab	0.021850904
174	0xbccc8416	-0.024965327
175	0xbdd78d15	-0.10524956
176	0xbe9bd575	-0.30436292
177	0x3d7af2fc	0.061266884
178	0xbee273a4	-0.44228852
179	0xbe81deb7	-0.2536523
180	0x3e99586b	0.2995027
181	0xbe6f10b5	-0.23346217
182	0x3d649cc5	0.05581357
183	0xbf27bb04	-0.6551974
184	0x3ed0eb7a	0.40804654
185	0x3d719f50	0.058989823
186	0x3e807611	0.25090078
187	0x3f4153fc	0.75518775
188	0xbc91a70e	-0.017779853
189	0xbe03203b	-0.12805264
190	0x3f307cc2	0.68940365
191	0xbcfba905	-0.030720243
192	0xbc58a5a9	-0.01322309
193	0x3dcc5a10	0.099781156
194	0xbd8341e3	-0.06409051
195	0xbe5b5b04	-0.21421438
196	0xbe0aa6a5	-0.13540132
197	0x3d8cc298	0.06873053
198	0xbe6b7400	-0.22993469
199	0x3d4ce772	0.05002541
200	0x3db0b194	0.0862762
201	0x3e164eaa	0.14678445
202	0x3e033ceb	0.12816207
203	0xbd6fa997	-0.058511343
204	0xbce25b92	-0.027631555
205	0xbd0ee7c8	-0.034889013
206	0xbd98aed5	-0.074552216
207	0x3c469ca4	0.012122307
208	0x3dd5e398	0.10443801
209	0xbd8441fc	-0.06457898
210	0x3e006c7e	0.12541386
211	0xbda14442	-0.07874347
212	0xbe0c5e5b	-0.13707869
213	0x3d09e17b	0.0336623
214	0xbe1d5264	-0.15363461
215	0x3dc19b46	0.09453444
216	0x3c6916a7	0.014226592
217	0x3d66ce22	0.056348927
218	0xbe9156d5	-0.2838656
219	0x3dc97159	0.098360725
220	0x3e261613	0.16219358
221	0x3cd3b00d	0.025840783
222	0xbe4c81cc	-0.19971389
223	0xbe0fbd38	-0.14037025
224	0xbd14efee	-0.036361627
225	0x3d6327d2	0.055457897
226	0x3e0ed431	0.13948132
227	0x3e377111	0.17914225
228	0xbd2397fe	-0.039939873
229	0x3ead9141	0.33899882
230	0xbdbe67a5	-0.092971124
231	0x3ee65260	0.44984722
232	0x3f30cf51	0.6906634
233	0x3d2da136	0.04239007
234	0xbf2291b4	-0.63503575
235	0xbdbce2d6	-0.09222953
236	0x3d0f4752	0.034980126
237	0xbf390fc4	-0.7228968
238	0xbe2e9cdb	-0.17052023
239	0x3e777569	0.24165882
240	0xbf09c0a4	-0.5380957
241	0xbd4cbd15	-0.04998501
242	0xbd98a389	-0.07453067
243	0xbd6899b0	-0.056787193
244	0x3e8d9487	0.2765238
245	0x3e143270	0.14472365
246	0x3bcc5972	0.0062362486
247	0x3db35189	0.08755786
248	0x3e254664	0.16140133
249	0x3d0323c7	0.03201654
250	0x3e252b71	0.16129853
251	0x3d6447a4	0.055732384
252	0xbc9187fa	-0.017765034
253	0x3d8603e4	0.06543711
254	0xbeabff6c	-0.3359331
255	0xbd47d979	-0.048791382

conv1.bias f4 [16]
0	0x3cac92fc	0.021066181
1	0x3e44cda7	0.19219075
2	0xbe1084f8	-0.14113224
3	0x3e7cb5d5	0.24678738
4	0xbeb3b190	-0.35096407
5	0xbe3c1909	-0.18368925
6	0xbdd80b12	-0.105489865
7	0xbdc8d0f8	-0.098054826
8	0xbe9394b5	-0.28824392
9	0x3d5d878a	0.05408434
10	0xbb3c9ed5	-0.0028781195
11	0xbca8a591	-0.02058676
12	0xbdeb6cf9	-0.11495394
13	0xbda885f4	-0.082286745
14	0xbcd6c64c	-0.026217602
15	0xbe47eece	-0.1952469

conv2.weight f4 [16, 16, 3, 5]
0	0xbe4684c0	-0.19386578
1	0xbe1010c6	-0.14068899
2	0xbe4feea3	-0.20305876
3	0xbdf0b124	-0.11752537
4	0xbe9e4552	-0.30912262
5	0x3b0ce204	0.002149702
6	0xbe229efc	-0.1588096
7	0x3e0be5c6	0.1366187
8	0xbe64bab0	-0.2233684
9	0x3da6f889	0.08152873
10	0xbd80b3ae	-0.06284271
11	0xbcb431d7	-0.021996422
12	0x3d1ce0c0	0.038300276
13	0xbeaf0b38	-0.34188247
14	0xbd610a82	-0.05494166
15	0xbc2feb75	-0.01073729
16	0xbeb87bde	-0.36032003
17	0xbf30ed9a	-0.6911255
18	0xbe0b2c8a	-0.13591209
19	0xbdfc2f7e	-0.12313746
20	0x3d0d7d93	0.034543585
21	0xbdcefe57	-0.10107105
22	0xbd3a8c1e	-0.045543782
23	0xbe36a4d3	-0.17836313
24	0xbdc6a4e8	-0.09699422
25	0x3e152eb0	0.14568591
26	0xbdefff9e	-0.11718677
27	0xbe114e01	-0.14189912
28	0xbdec42c9	-0.11536176
29	0xbd0e9024	-0.034805432
30	0xbdeca3c4	-0.11554673
31	0xbe3e1af7	-0.18564974
32	0xbe5f5329	-0.21809067
33	0xbd3fef4e	-0.046859078
34	0xbe8bb65a	-0.2728756
35	0xbd2795d1	-0.04091436
36	0x3dee0e15	0.1162378
37	0xbd1dfd88	-0.038571864
38	0xbe536ac6	-0.206462
39	0xbdd29547	-0.10282379
40	0x3d1138bb	0.035454493
41	0xbd98682f	-0.074417464
42	0xbdbca0eb	-0.0921038
43	0xbca081dc	-0.019593172
44	0x3d966f9c	0.073455065
45	0x3e271dc3	0.16319947
46	0xbe87e4a2	-0.2654162
47	0xbef482c5	-0.4775602
48	0xbee1a82c	-0.44073617
49	0xbd27160e	-0.040792517
50	0xbde2cdf4	-0.11074439
51	0x3d8f12b4	0.06985989
52	0xbf075835	-0.5286897
53	0xbc3bd7a7	-0.01146499
54	0x3dcfb517	0.10141962
55	0x3e704264	0.23462826
56	0xbdf373c4	-0.11887315
57	0xbe82c233	-0.25538787
58	0xbcc1fcb5	-0.02368007
59	0xbe8b72f5	-0.27236143
60	0xbe90f466	-0.2831146
61	0xbe249809	-0.16073622
62	0xbe1c92ba	-0.15290347
63	0xbdee7155	-0.1164271
64	0xbe83c2af	-0.2573447
65	0x3cad8a04	0.021183975
66	0x3d937bce	0.07201348
67	0x3e0efe94	0.13964301
68	0x3d6396a7	0.055563595
69	0xbddcd96c	-0.107836574
70	0xbd79d214	-0.06099136
71	0xbcd0790a	-0.02544834
72	0xbc90a811	-0.017658265
73	0xbae0204c	-0.0017099469
74	0xbe039407	-0.12849437
75	0xbe17a8ee	-0.14810535
76	0xbe5df90f	-0.2167704
77	0xbd7562f9	-0.05990884
78	0xbe4779e0	-0.19480085
79	0xbe3cbfd0	-0.18432546
80	0xbf24a847	-0.6431927
81	0x3cba0ba6	0.022710633
82	0x3edcd182	0.43128592
83	0xbe89de4c	-0.26927412
84	0xbea8a821	-0.32940772
85	0xbe57fbab	-0.21092097
86	0xbd7f9e0e	-0.062406592
87	0x3e440045	0.19140728
88	0x3d06578c	0.032798335
89	0xbd4a8355	-0.049441654
90	0x3e5ac369	0.21363606
91	0xbe35e7e5	-0.17764242
92	0xbe2216d3	-0.15829019
93	0xbf263d9e	-0.6493777
94	0xbe9ad8d8	-0.30243564
95	0xbf12c146	-0.5732616
96	0x3ec04f77	0.37560627
97	0x3ebc9cf4	0.36838496
98	0xbe8ce106	-0.2751543
99	0xbdc08893	-0.094010495
100	0xbd482de5	-0.048871893
101	0xbeae5af4	-0.34053767
102	0xbee7233c	-0.4514407
103	0x3d229cc5	0.03970029
104	0xbe6ff720	-0.23434114
105	0xbba74176	-0.005104239
106	0xbda0882d	-0.078384735
107	0xbeaa35fb	-0.3324431
108	0x3e9c0508	0.3047259
109	0xbebb4bf0	-0.36581373
110	0x3e2254b7	0.15852629
111	0xbc0606a7	-0.008180297
112	0x3e989ee9	0.2980874
113	0xbe46f1c9	-0.19428171
114	0xbe66b5cc	-0.22530288
115	0xbdfe4a5e	-0.12416528
116	0xbe89ff94	-0.26952803
117	0x3e2a122c	0.16608495
118	0xbe82c86e	-0.2554354
119	0x3dab3b30	0.083608985
120	0x3e0e8162	0.13916543
121	0x3d6880b0	0.05676335
122	0xbdf8e372	-0.12152757
123	0x3ca10f5e	0.019660648
124	0xbe974267	-0.29542848
125	0x3e061231	0.13092877
126	0xbeb1012b	-0.34571204
127	0x3deba1f2	0.11505498
128	0x3d92f7a1	0.07176138
129	0xbe948e5b	-0.2901486
130	0xbe1b72d5	-0.15180524
131	0xbe9bd659	-0.30436972
132	0xbda939bc	-0.08262965
133	0xbc8cc10c	-0.017181896
134	0xbece7b8d	-0.40328637
135	0xbe827af2	-0.25484425
136	0xbe2d259f	-0.16908883
137	0xbdc466d3	-0.09589925
138	0xbe282a14	-0.16422302
139	0xbda24822	-0.079239145
140	0xbdbfd3fd	-0.093666054
141	0xbe92e56a	-0.28690654
142	0x3d4b3c5d	0.049618114
143	0x3e3143ef	0.17311071
144	0xbe791049	-0.24322619
145	0xbe8e2de3	-0.27769384
146	0xbd08b44e	-0.033375077
147	0x3e44cde4	0.19219166
148	0x3e09ee94	0.13469917
149	0xbec04423	-0.37551984
150	0xbe989da0	-0.29807758
151	0xbea6ed8f	-0.32603118
152	0xbd4fcfd3	-0.050735306
153	0xbedb09f0	-0.4278102
154	0xbdef32c7	-0.11679607
155	0x3e4569cd	0.19278641
156	0x3d258500	0.04041004
157	0xbe6098c7	-0.2193328
158	0xbd15ba30	-0.036554515
159	0xbea58ca0	-0.3233385
160	0xbdf80a9c	-0.121113986
161	0xbeb04ead	-0.34435025
162	0x3d917926	0.07103185
163	0xbd693677	-0.056936707
164	0x3e585394	0.21125633
165	0xbb09ae2b	-0.0021008353
166	0xbd535f78	-0.051604718
167	0xbe073de3	-0.13207202
168	0x3e096ce7	0.13420449
169	0xbe8dc519	-0.27689436
170	0xbea2ab78	-0.31771445
171	0xbdf8f18b	-0.12155446
172	0x3dbda59c	0.09260103
173	0xbe7e9f09	-0.24865355
174	0xbd5ba0a8	-0.05362001
175	0xbe01d920	-0.12680483
176	0xbe2291af	-0.15875886
177	0xbc45b2d5	-0.012066563
178	0xbdffdacb	-0.12492903
179	0xbe29a1d8	-0.16565645
180	0xbc9d7749	-0.019221919
181	0x3d277fc2	0.040893324
182	0x3df5ba60	0.11998439
183	0xbdc43da1	-0.09582067
184	0xbdde8769	-0.10865671
185	0xbee588a7	-0.4483082
186	0x3ddd8995	0.10817257
187	0x3e21f94c	0.15817755
188	0x3d72d3fc	0.059284195
189	0xbd6e9932	-0.058251567
190	0xbe3cc599	-0.18434753
191	0xbe2af01e	-0.1669316
192	0xbeaae109	-0.33374813
193	0xbe70c139	-0.23511209
194	0x3e32f4e9	0.17476238
195	0x3ccef35f	0.025262533
196	0xbdc4f4a7	-0.09616976
197	0x3d1cb79e	0.03826105
198	0xbe2db44c	-0.16963309
199	0xbd5cc2ab	-0.053896587
200	0xbdeadc02	-0.114677444
201	0x3dc8462d	0.0977901
202	0xbe5b1f80	-0.21398735
203	0xbeae742c	-0.34073007
204	0xbd2eb714	-0.042655066
205	0x3e17ef6e	0.14837429
206	0xbe000865	-0.12503202
207	0xbe6ad5ac	-0.22933072
208	0x3c826242	0.015915994
209	0xbd537bbb	-0.05163167
210	0xbeb24e39	-0.34825304
211	0xbe1a4afb	-0.15067665
212	0xbe1d0b6c	-0.15336388
213	0xbea98504	-0.33109295
214	0xbd853886	-0.065049216
215	0xbe0c3bd7	-0.13694702
216	0xbeb25fec	-0.34838808
217	0xbdf84fe5	-0.12124614
218	0xbe33726a	-0.17524114
219	0xbe670f0e	-0.22564337
220	0x3e3f37c9	0.18673624
221	0xbae2eee4	-0.0017313627
222	0xbe87ef11	-0.2654958
223	0x3be4ad5c	0.006978674
224	0x3df59652	0.11991562
225	0xbe962b17	-0.2932975
226	0xbe728012	-0.23681667
227	0xbe14c1c5	-0.14527042
228	0x3e06b15d	0.13153596
229	0xbe5e91be	-0.21735284
230	0xbebe8f5d	-0.37218753
231	0xbe900662	-0.2812987
232	0x3e59da5b	0.21274702
233	0xbe041866	-0.12899932
234	0xbe6b4e5b	-0.22979109
235	0xbdb11b01	-0.08647729
236	0x3e81d934	0.25361025
237	0x3d9c7637	0.07639735
238	0xbdd5ccf9	-0.10439486
239	0xbe710619	-0.23537482
240	0xbf081acc	-0.5316589
241	0xbde359a4	-0.11101082
242	0xbe516b85	-0.20451172
243	0x3dbfd23f	0.09366273
244	0xbdc598f0	-0.09648311
245	0xbe1437a0	-0.14474344
246	0xbe5b1f1b	-0.21398585
247	0xbd5468d4	-0.051857784
248	0xbce2b941	-0.027676227
249	0xbe0f55b6	-0.1399754
250	0xbe28fffe	-0.16503903
251	0xbe95d9da	-0.2926777
252	0xbed12d95	-0.4085509
253	0x3dc069a9	0.09395153
254	0xbd76836b	-0.060183924
255	0xbe1ed5d5	-0.15511258

conv2.bias f4 [16]
0	0x3df5fc45	0.12011007
1	0xbdf38ef2	-0.11892499
2	0x3ce0196c	0.027355872
3	0xbeb20ab4	-0.3477379
4	0x3d25c31a	0.040469266
5	0x3cf066a2	0.029345814
6	0xbdefb4db	-0.11704417
7	0xbe5e20c2	-0.21692184
8	0x3b63a9c0	0.003473863
9	0xbd9c130c	-0.076208204
10	0xbe86d1bd	-0.26331893
11	0xbe386c22	-0.1801
12	0xbe4291fc	-0.19001001
13	0xbe28ac47	-0.16471969
14	0xbc843b3e	-0.01614153
15	0xbdf7178e	-0.120650396

conv3.weight f4 [32, 16, 8, 3]
0	0xbe52c8a0	-0.20584345
1	0x3d1e74a9	0.038685475
2	0x3a90a5f2	0.0011035784
3	0xbecd2082	-0.40063864
4	0xbdfa3937	-0.12217944
5	0xbd9bfd52	-0.076166764
6	0xbcd3e38b	-0.025865337
7	0x3da70e92	0.08157076
8	0x3df0e267	0.11761933
9	0x3d7175f0	0.058950365
10	0xbe8def85	-0.277218
11	0xbeb37a75	-0.35054365
12	0xbe5e8dc0	-0.21733761
13	0xbd004ee0	-0.03132522
14	0x3ba24d82	0.0049530873
15	0xbe4be170	-0.19910216
16	0x3e341d5c	0.17589325
17	0xbe03665f	-0.1283202
18	0x3df3997e	0.11894511
19	0xbd1271f4	-0.035753205
20	0xbe0c5937	-0.13705908
21	0xbc8af284	-0.016961344
22	0xbdba4025	-0.09094266
23	0xbd4443c2	-0.04791618
24	0x3ec54cd4	0.38535178
25	0xbe6b8c20	-0.23002672
26	0x3bbe42eb	0.005806317
27	0x3d9e0dc0	0.07717466
28	0xbd8cbca9	-0.068719216
29	0x3e161ce2	0.14659455
30	0xbe6e2c62	-0.23259118
31	0x3c62d8a4	0.013845596
32	0xbda27026	-0.07931547
33	0xbe1b9f21	-0.15197422
34	0xbdcfc1bc	-0.10144374
35	0xbb613227	-0.0034362169
36	0x3d83e664	0.06440428
37	0xbd9d42a2	-0.07678725
38	0x3e0926ad	0.1339366
39	0x3d48ba79	0.04900596
40	0x3da832ee	0.08212839
41	0xbe80ea2e	-0.25178665
42	0xbdd94bf0	-0.10610187
43	0xbe1ce45b	-0.15321486
44	0xbd91b52b	-0.07114633
45	0x3da84748	0.08216721
46	0xbd510889	-0.05103353
47	0xbe0426fc	-0.12905496
48	0x3dfe6015	0.1242067
49	0xbe45f4d5	-0.19331677
50	0xbc9e2657	-0.019305391
51	0x3c4f380e	0.012647642
52	0x3e78eb25	0.2430845
53	0xbe226728	-0.15859663
54	0xbcf71c9c	-0.03016501
55	0x3cf1a957	0.029499693
56	0xbdba22ad	-0.09088645
57	0xbe2fb397	-0.17158352
58	0xbdece9e5	-0.11568049
59	0x3cfbfbf7	0.030759795
60	0xbcb4abfe	-0.022054669
61	0x3e1a409b	0.15063708
62	0xbeb8512e	-0.35999435
63	0xbe8cf2ac	-0.27528894
64	0x3bcadc55	0.0061908164
65	0xbe83b1ec	-0.2572168
66	0xbeb9ff5c	-0.36327636
67	0x3d3b8e45	0.045789976
68	0xbde10314	-0.10986915
69	0xbd92e8c4	-0.07173303
70	0x3e1b708a	0.15179649
71	0xbe6e08f4	-0.23245603
72	0xbe9e2334	-0.30886233
73	0xbe7afc09	-0.24510206
74	0xbead40bc	-0.3383845
75	0xbe588599	-0.21144713
76	0xbe90d4ab	-0.28287253
77	0xbe843498	-0.25821376
78	0xbe1ed945	-0.15512569
79	0xbea651fc	-0.32484424
80	0x3dba15bc	0.09086177
81	0xbe6f097c	-0.23343462
82	0xbe24ef84	-0.16106993
83	0xbe9191b5	-0.28431478
84	0xbe8d9b28	-0.27657437
85	0xbe60bdc8	-0.21947396
86	0xbe38e4e6	-0.18056068
87	0xbddd36b3	-0.10801449
88	0x3cae1085	0.021248112
89	0xbdb0b088	-0.08627421
90	0xbeac6dd9	-0.33677557
91	0xbdf7d199	-0.121005245
92	0xbe16dd28	-0.14732802
93	0xbd492186	-0.049104236
94	0xbe404044	-0.18774515
95	0xbd81b728	-0.063337624
96	0xbdb0ef47	-0.086393885
97	0xbb2e58d5	-0.002660324
98	0xbd9c040c	-0.076179594
99	0x3dc8c897	0.098038845
100	0x3dac8355	0.08423487
101	0x3e2fff6e	0.17187282
102	0x3d023d8c	0.031796977
103	0xb9351e39	-0.00017272764
104	0x3da1bb6b	0.07897075
105	0xbc67ab12	-0.014139907
106	0xbb265b2e	-0.0025383937
107	0x3c79a1b9	0.015236312
108	0x3ded1d47	0.1157785
109	0xbddeba65	-0.10875396
110	0xbdea8f4e	-0.114531144
111	0x3e690325	0.22755106
112	0xbdd011ad	-0.101596214
113	0x3d2b2276	0.04178091
114	0x3d9cbcff	0.07653236
115	0xbe200e99	-0.15630569
116	0xbd553864	-0.05205573
117	0xbe0a6975	-0.13516791
118	0xbd99022f	-0.074711196
119	0xbd570c26	-0.05250182
120	0xbeddc8f6	-0.43317384
121	0xbe7accf0	-0.2449224
122	0xbd9ed680	-0.077557564
123	0xbe8fb8b5	-0.28070608
124	0x3e8cd4fd	0.27506247
125	0xbe3ea432	-0.18617323
126	0x3cc845bf	0.02444732
127	0xbe9defda	-0.30847055
128	0xbe98b805	-0.29827896
129	0xbe9e0248	-0.30861115
130	0xbe4e3e2b	-0.20140903
131	0x3e4a612a	0.19763628
132	0xbe93f844	-0.2890035
133	0x3c8a5acb	0.016888997
134	0xbd51128c	-0.05104308
135	0x3d28dc97	0.041225996
136	0xbd6773ab	-0.056506794
137	0x3d4dddf5	0.050260503
138	0xbea697a9	-0.32537583
139	0x3d6d2f52	0.057906456
140	0xbe1ffb8f	-0.15623306
141	0xbe9f5cdb	-0.3112553
142	0xbd269007	-0.0406647
143	0xba8e883c	-0.0010874341
144	0xbdc57274	-0.09640971
145	0x3db3afb0	0.08773744
146	0xbe359315	-0.17731889
147	0x3e3b7965	0.18308027
148	0xbde54e8e	-0.11196624
149	0xbca2402b	-0.019805988
150	0x3daa5002	0.083160415
151	0xbeb0eae2	-0.345542
152	0x3d10c244	0.035341516
153	0xbe7556b0	-0.2395885
154	0x3cf54f09	0.029944913
155	0x3ddf3cc7	0.10900264
156	0xbe4710d7	-0.19440018
157	0xbe0e3070	-0.13885665
158	0xbcbaa5f5	-0.022784213
159	0xbdab6c40	-0.083702564
160	0x3843838e	4.6614143e-05
161	0xbda95b00	-0.0826931
162	0x3e3a37de	0.18185374
163	0xbb6c8f00	-0.0036095977
164	0xbea73b93	-0.3266264
165	0x3df6406b	0.120240055
166	0xbe4db38b	-0.20088021
167	0x3c2ed32b	0.010670464
168	0x3e5d60a6	0.216189
169	0x3d9fa855	0.07795779
170	0xbe95c404	-0.2925111
171	0xbdff6ef7	-0.12472337
172	0xbe9018f8	-0.2814405
173	0xbdffdceb	-0.12493309
174	0xbedd3377	-0.43203327
175	0x3e4c9dc4	0.19982058
176	0xbde2a3be	-0.110663876
177	0xbe15f967	-0.1464592
178	0x3e23e78e	0.160063
179	0xbcaa143c	-0.020761602
180	0xbe2ff7de	-0.17184398
181	0xbdfbc44e	-0.122933015
182	0xbdcb3175	-0.099215426
183	0x3e5069f0	0.20352912
184	0x3d43909b	0.04774533
185	0xbcaf9a3a	-0.021435846
186	0x3de4f134	0.11178818
187	0x3e23746a	0.15962377
188	0x3d91ce49	0.07119424
189	0xbeadfd31	-0.33982232
190	0x3dfa8e65	0.12234191
191	0xbe214548	-0.15749085
192	0x3ddd3bc2	0.108024135
193	0xbd7ae094	-0.06124933
194	0x3debc402	0.11511995
195	0x3d62452b	0.055241745
196	0xbe363a15	-0.17795594
197	0xbd2cc3ab	-0.04217879
198	0xbd8ddaf6	-0.06926529
199	0x3c08a124	0.0083392
200	0xbe4da116	-0.2008098
201	0x3ddd4c74	0.10805598
202	0xbe2c3680	-0.16817665
203	0x3e3abcb7	0.18236051
204	0x3d499261	0.049211863
205	0x3dcc46e4	0.09974459
206	0xbcea169b	-0.028575232
207	0xbde19c7d	-0.11016176
208	0x3d808a34	0.0627636
209	0xbe807b5a	-0.2509411
210	0x3d80d6d7	0.062909774
211	0xbd372a35	-0.044717986
212	0xbbb64b96	-0.0055632098
213	0xbdfb9cf0	-0.12285793
214	0xbd320c56	-0.043468796
215	0xbe2b9ba6	-0.16758594
216	0x3dca9c9f	0.09893154
217	0xbec2dd05	-0.3805925
218	0xbe29b442	-0.16572669
219	0xbe0fcac2	-0.1404219
220	0xbeedbc4c	-0.46432722
221	0xbd8a5eac	-0.067563385
222	0x3ea2c33c	0.31789577
223	0xbea1a33c	-0.3156985
224	0x3dede144	0.11615232
225	0xbd5e1fca	-0.054229535
226	0x3d33a2b6	0.043856345
227	0xbdab17eb	-0.08354171
228	0x3db33637	0.08750575
229	0xbd314951	-0.04328281
230	0x3dc06494	0.09394184
231	0xbe305de6	-0.1722332
232	0xbdf4e78e	-0.11958228
233	0x3d9d857a	0.07691474
234	0xbcfa71e2	-0.030571882
235	0xbb84784b	-0.0040426604
236	0xbdaa4369	-0.08313639
237	0xbe4290e0	-0.19000578
238	0xbe0bebb2	-0.1366413
239	0xbd935c57	-0.07195347
240	0xbda53d14	-0.0806829
241	0xbea79fb1	-0.32739022
242	0xbdcc703b	-0.09982344
243	0xbe83a765	-0.2571365
244	0x3ded514c	0.11587772
245	0x3cd761c3	0.026291734
246	0xbdbefc47	-0.09325462
247	0xbe1b5cdf	-0.15172146
248	0xbeb35774	-0.3502766
249	0x3d4030ef	0.046921667
250	0xbd8a46c8	-0.06751782
251	0xbe178b5b	-0.14799254
252	0x3dfb582e	0.12272678
253	0x3da3bda4	0.079951555
254	0xbdf80ffc	-0.12112424
255	0xbea3b269	-0.31972054

conv3.bias f4 [32]
0	0xbe2ec8d4	-0.17068797
1	0xbe0a5dd5	-0.13512357
2	0xbdf74eb5	-0.12075559
3	0xbe22859d	-0.15871282
4	0xbe5a7ecc	-0.21337432
5	0xbe8b8ddd	-0.2725667
6	0xbeeaf54b	-0.4589027
7	0xbeb73900	-0.35785675
8	0x39e20e1c	0.0004311659
9	0xbe3ab6ec	-0.18233842
10	0xbc501589	-0.012700447
11	0xbe2aec7f	-0.16691779
12	0xbd78ab74	-0.060710385
13	0xbe5585f0	-0.20851874
14	0xbebf2ea7	-0.3734028
15	0xbeacee52	-0.33775574
16	0xbcae27a9	-0.021259146
17	0xbe989645	-0.29802147
18	0xbe4b934c	-0.19880408
19	0xbe27317f	-0.16327475
20	0x3e33b14e	0.17548105
21	0xbe623945	-0.22092159
22	0xbe3a025e	-0.18164966
23	0xbe62bc44	-0.2214213
24	0xbe435bfc	-0.19078058
25	0xbeb1356c	-0.3461107
26	0xbde64b20	-0.11244798
27	0xbe589afa	-0.21152869
28	0xbc290f20	-0.0103185475
29	0xbddccdfb	-0.10781475
30	0xbe8e0f03	-0.27745828
31	0x3c3b1c7c	0.011420365

conv4.weight f4 [32, 32, 4, 3]
0	0xbca4672b	-0.020068726
1	0xbe6820a4	-0.22668701
2	0xbdc0ed2c	-0.09420237
3	0xbddef0b6	-0.10885756
4	0xbc1094fb	-0.008824582
5	0xbe6b28a7	-0.22964726
6	0xbdc2b59f	-0.09507298
7	0x3be3e0b2	0.006954276
8	0xbddcd698	-0.10783118
9	0xbd9590fa	-0.07303043
10	0xbc88be01	-0.016692163
11	0xbca30d40	-0.019903779
12	0x3dd5d49c	0.10440943
13	0xbe06d9c4	-0.13169008
14	0x3b5e077e	0.0033878977
15	0x3d10dc1c	0.035366163
16	0x3d05d8d5	0.03267749
17	0x3cf38d37	0.029730422
18	0x3d328287	0.04358151
19	0xbd9de2fc	-0.077093095
20	0xbe31f06b	-0.17376868
21	0xbdd62bec	-0.10457596
22	0xbd45c60b	-0.04828457
23	0xbe8896b0	-0.26677465
24	0xbe0ce2f8	-0.13758457
25	0xbde9391b	-0.11387845
26	0xbde22285	-0.1104174
27	0xbe840526	-0.25785178
28	0x3d7e5770	0.062095106
29	0xbe0ea7a0	-0.13931131
30	0x3d4550bc	0.048172697
31	0xbe9d08d3	-0.30670795
32	0x3c25243e	0.010079442
33	0xbc967159	-0.018364595
34	0xbe6c28f2	-0.23062494
35	0x3da46185	0.08026413
36	0xbe3d57b8	-0.18490493
37	0xbc533177	-0.012890211
38	0x3d1de28c	0.03854613
39	0xbe3869eb	-0.18009154
40	0xbd948af3	-0.07253065
41	0x3df5e315	0.12006203
42	0x3d7acbf7	0.061229672
43	0xbd32a694	-0.043615893
44	0xbe83e3fd	-0.2575988
45	0x3dd62be3	0.104575895
46	0xbdd4a804	-0.10383609
47	0xbb5b93ec	-0.0033504916
48	0x3b7adc32	0.003827822
49	0xbe27781e	-0.16354415
50	0xbe423e3b	-0.18969052
51	0xbd6fc872	-0.05854077
52	0x3cca1147	0.024666442
53	0xbb96b425	-0.0045991116
54	0xbc4ec58c	-0.012620341
55	0xbe13d6a9	-0.14437355
56	0x3db9d116	0.09073083
57	0x3d6fd079	0.058548424
58	0xbeb83839	-0.35980394
59	0xbdb83e80	-0.08996296
60	0xbc1183e4	-0.008881543
61	0xbd8d40fe	-0.06897162
62	0x3e047a2b	0.12937228
63	0xbd90222c	-0.07037768
64	0xbe076ad0	-0.1322434
65	0xbe7940d9	-0.24341144
66	0xbdb6de11	-0.089290746
67	0xbe5618cb	-0.20907895
68	0xbd04ef4b	-0.03245477
69	0xbe919d10	-0.28440142
70	0xbe1fe7c5	-0.15615757
71	0xbd807944	-0.062731296
72	0xbe2d0260	-0.16895437
73	0xbde9b5b5	-0.11411611
74	0xbe876882	-0.2644692
75	0xbe345dc6	-0.17613897
76	0xbe1c698e	-0.15274641
77	0xbe866816	-0.26251286
78	0xbdd1de24	-0.10247448
79	0xbd8645f3	-0.065563105
80	0xbdbb8da6	-0.09157877
81	0xbe403b03	-0.18772511
82	0x3d987c6e	0.07445608
83	0xbd799547	-0.060933378
84	0x3dd2eb55	0.10298792
85	0xbd5ef4c6	-0.054432653
86	0xbd41dc16	-0.04732903
87	0xbdb45da0	-0.0880692
88	0x3b6a97f4	0.0035796138
89	0xbe61e7fc	-0.22061151
90	0xbe007967	-0.12546311
91	0xbc584c5b	-0.013201798
92	0xbdce4d64	-0.10073355
93	0xbc978ec7	-0.018500699
94	0xbd8568b9	-0.06514115
95	0xbca35d7e	-0.019942041
96	0x3e020f0d	0.12701054
97	0x3d8d5e94	0.06902805
98	0xbe676fc9	-0.22601236
99	0x3cae58ae	0.02128252
100	0xbdaff6e0	-0.085920095
101	0x3d412fb5	0.047164638
102	0xbd7fbdbb	-0.0624368
103	0xbd4ef787	-0.05052903
104	0xbe4e4e07	-0.20146953
105	0xbe892c3e	-0.26791567
106	0xbdc93d8d	-0.09826193
107	0xbe2cbcf0	-0.16868949
108	0xbd88b8e9	-0.06675894
109	0xba6bf8de	-0.00090016227
110	0xbd8c9ee1	-0.06866241
111	0xbd233b4f	-0.039851483
112	0x3bf01272	0.0073264176
113	0x3e024381	0.12721063
114	0xbe15f54c	-0.14644355
115	0xbdd28efe	-0.1028118
116	0xbde9c35b	-0.11414214
117	0xbd20fffe	-0.039306633
118	0xbe3b7e46	-0.18309888
119	0xbd4dc48c	-0.05023627
120	0x3e4eaa1c	0.20182079
121	0xbb989a61	-0.0046570753
122	0x3c5832dc	0.01319572
123	0xbd4516ab	-0.04811732
124	0x3d8482b7	0.064702444
125	0xbe3dbbfb	-0.1852874
126	0xbe19cb2c	-0.1501891
127	0xbd953853	-0.072861336
128	0xbe838666	-0.25688475
129	0xbc8511d5	-0.016243855
130	0xbd88737a	-0.066626504
131	0xbe334b29	-0.1750914
132	0xbdb1d3c3	-0.086829685
133	0x3c565ec8	0.013084121
134	0x3c6519c0	0.01398319
135	0xbc069ea9	-0.0082165385
136	0xbcbfe82b	-0.023426136
137	0xbe87ae3b	-0.26500115
138	0xbe8eded3	-0.27904376
139	0x3d911d82	0.07085706
140	0xbe371b9b	-0.17881624
141	0xbeaf5d65	-0.34250942
142	0xbd4a0225	-0.04931845
143	0x3cd51fe6	0.026016187
144	0xbd764fd9	-0.060134742
145	0xbdf68124	-0.1203635
146	0x3cc03e45	0.023467192
147	0xbe6b2812	-0.22964504
148	0xbd8eeb3c	-0.06978461
149	0xbd1314b4	-0.035908416
150	0xbe5b7edc	-0.21435112
151	0xbe06c834	-0.13162309
152	0xbe8703bf	-0.26370046
153	0xbe295e87	-0.16539966
154	0xbc980aa5	-0.018559763
155	0xbe4b3c54	-0.19847232
156	0xbe514a37	-0.20438467
157	0x3e0a6e99	0.13518752
158	0xbda06646	-0.07832007
159	0xbce3e505	-0.027819166
160	0xbb6990a4	-0.003563919
161	0xbe7719e4	-0.2413097
162	0xbe655517	-0.2239574
163	0xbe8f15d5	-0.27946344
164	0xbc53b25c	-0.012920942
165	0x3b2257be	0.0024771537
166	0xbc13426e	-0.008988006
167	0xbe0a07bb	-0.13479511
168	0xbd25b3ee	-0.040454797
169	0x3d286946	0.04111602
170	0xbd3b8089	-0.045776878
171	0x3d5d80cb	0.054077905
172	0xbd90fda0	-0.07079625
173	0x3b890880	0.0041819215
174	0xbe83e7b4	-0.25762713
175	0x3ca96dc4	0.020682223
176	0xbdcca547	-0.09992462
177	0x3d020947	0.03174713
178	0xbe4bc6db	-0.19900076
179	0xbd5d0ecd	-0.053969193
180	0x3dde126e	0.10843359
181	0xbe62bd89	-0.22142614
182	0xbbc53084	-0.0060177464
183	0xbcb8a006	-0.022537243
184	0xbea01ec4	-0.31273472
185	0xbdfbeaee	-0.12300669
186	0x3dd90a81	0.105977066
187	0xbcf64f42	-0.03006709
188	0xbdca3ed5	-0.098752655
189	0xbd8f5e45	-0.07000402
190	0xbdfeb5d9	-0.124370284
191	0xbc9ea1f4	-0.019364335
192	0x3dcdd760	0.10050845
193	0x3cb59af0	0.022168607
194	0x3bfab584	0.007651033
195	0x3da7ba09	0.0818978
196	0x3d85872e	0.06519924
197	0x3cbf326b	0.02333947
198	0xbd1b2384	-0.037875667
199	0xbdc4dcac	-0.09612402
200	0xbda83bbd	-0.08214519
201	0x3d9bc476	0.07605831
202	0xbde1035a	-0.109869674
203	0xbda4f41c	-0.08054373
204	0xbdd3ae22	-0.103359476
205	0xbdb267b5	-0.08711187
206	0x3d84ac82	0.06478216
207	0xbc29dacd	-0.010367108
208	0xbd8d33e4	-0.06894663
209	0x3cc716d5	0.02430288
210	0xbd691642	-0.056905992
211	0x3d3a799e	0.04552614
212	0xbbff1899	-0.0077849147
213	0xbe1d2f65	-0.15350111
214	0x3d26aefd	0.040694226
215	0xbe3a68ed	-0.18204089
216	0xbdd771b6	-0.105197355
217	0xbdaec87c	-0.08534333
218	0x3e07f6f8	0.13277805
219	0xbdce46a3	-0.10072067
220	0xbe453f8c	-0.19262522
221	0x3ce52147	0.02796997
222	0xbe777f77	-0.24169718
223	0xbd6b5e47	-0.057462957
224	0xbd3c7c30	-0.046016872
225	0x3d168eec	0.036757395
226	0xbdf84c0b	-0.12123879
227	0xbdf0b6d9	-0.117536254
228	0xbd801804	-0.062545806
229	0xbdf32852	-0.11872925
230	0x3cb63a6b	0.022244653
231	0xbe862b7a	-0.26205045
232	0xbe85b16c	-0.26111925
233	0xbac66395	-0.0015135879
234	0xbe34caf4	-0.17655545
235	0xbe450582	-0.19240382
236	0xbdeb4de7	-0.11489468
237	0xbe3906dd	-0.18069024
238	0xbe03ff1d	-0.12890287
239	0xbccfd95b	-0.025372198
240	0xbe242cf5	-0.16032775
241	0xbe558179	-0.20850171
242	0x3da716a4	0.08158615
243	0xbe407dd3	-0.18797998
244	0xbe2cc64a	-0.16872516
245	0xbe609fc7	-0.2193595
246	0xbe2913f1	-0.16511513
247	0x3e16bbd6	0.14720091
248	0xbe46127e	-0.19342992
249	0xbcd95c98	-0.02653341
250	0xbdfa5ebe	-0.12225102
251	0xbe0741a4	-0.13208634
252	0xbc16af54	-0.009197075
253	0xbd61c68b	-0.055120986
254	0x3de1cd5d	0.11025498
255	0xbe1f8e00	-0.15581512

conv4.bias f4 [32]
0	0xbe66ca77	-0.22538172
1	0xbdef7ac7	-0.1169334
2	0xbe3b3be9	-0.18284573
3	0xbe47a5ec	-0.19496888
4	0x3c068a9f	0.008211761
5	0xbdffdef9	-0.124937005
6	0xbde6ef50	-0.11276114
7	0x3dae7218	0.085178554
8	0xbe4f12a7	-0.20221959
9	0xbe4220cb	-0.18957822
10	0x3d83b81b	0.064316
11	0xbe443f78	-0.19164836
12	0xbe2fae25	-0.17156275
13	0x3d7c5907	0.06160834
14	0xbe8f4fcd	-0.2799057
15	0x3da0e84e	0.078568086
16	0xbe600556	-0.21877035
17	0xbe14c213	-0.14527158
18	0xbd872f18	-0.06600779
19	0x3c8dea45	0.017323622
20	0xbd941a89	-0.07231624
21	0x3dc432ba	0.09579988
22	0xbe10dca4	-0.14146668
23	0xbe486d81	-0.19573022
24	0xbe011696	-0.12606272
25	0xbe785de7	-0.24254571
26	0xbd5aa0fe	-0.05337619
27	0xbe2bef16	-0.16790423
28	0xbe46fcdc	-0.19432396
29	0xbe6430ee	-0.2228429
30	0xbdac5e10	-0.084163785
31	0xbe813cfe	-0.25241846

fc.weight f4 [1, 1440]
0	0xbcf7941b	-0.03022199
1	0x3d8ff698	0.07029456
2	0xbd163970	-0.03667587
3	0x3e64a129	0.22327103
4	0xbc75d35e	-0.015004007
5	0x3d0d574b	0.034507077
6	0xbcb87ff7	-0.022521956
7	0x3e7ee227	0.24890958
8	0xbb2ec057	-0.0026664936
9	0x3ccee1c7	0.025254143
10	0xbe00df34	-0.12585145
11	0xbdd61ed0	-0.10455096
12	0xbc3e6828	-0.0116215125
13	0xbdb62f79	-0.088957734
14	0x3d1d758c	0.03844218
15	0x3d53b14b	0.05168275
16	0xbda86554	-0.08222452
17	0x3d65d217	0.05610856
18	0x3d594b3c	0.053050265
19	0x3c94978d	0.018138671
20	0xbdccc46d	-0.09998403
21	0x3e29e2b2	0.16590384
22	0xbd890244	-0.06689885
23	0xbc953bef	-0.018217055
24	0x3cfc193e	0.030773755
25	0x3dfa187c	0.12211701
26	0xbdba9d9b	-0.09112092
27	0x3c8b5196	0.017006677
28	0xbc9f9644	-0.019480832
29	0x3d62aff2	0.055343576
30	0xbe186007	-0.14880382
31	0xbd06d445	-0.03291728
32	0xbcfc00b2	-0.03076205
33	0xbd8eae79	-0.06966872
34	0xbd5f2868	-0.054481894
35	0x3c3f01d4	0.011658151
36	0xbd28afb2	-0.04118318
37	0xbd3709e5	-0.04468717
38	0xbd172237	-0.036897864
39	0xbcddde82	-0.027083639
40	0xbcddc76b	-0.027072629
41	0xbc330ebd	-0.010928807
42	0x3dc5c4ec	0.096567005
43	0xbddf868f	-0.10914337
44	0xbbe5ffee	-0.0070190346
45	0x3e3fe133	0.1873825
46	0xbe6b5b0b	-0.22983949
47	0x3e9074e2	0.28214175
48	0x3c096ce4	0.008387778
49	0x3e85310a	0.26013976
50	0xbe48c813	-0.19607572
51	0xbc9f36be	-0.019435283
52	0x3e940467	0.2890961
53	0xbdb5466a	-0.08851321
54	0xbdc445a6	-0.09583597
55	0xbf0381dc	-0.51370025
56	0x3d219770	0.039451063
57	0x3e3939fe	0.18088529
58	0x3e9852f6	0.29750794
59	0x3e502331	0.20325924
60	0x3d9ba400	0.0759964
61	0xbc31ecd5	-0.010859688
62	0x3d2ee1f5	0.04269596
63	0x3dc72b8c	0.09725103
64	0xbdcb9502	-0.0994053
65	0x3d50c7a9	0.05097166
66	0xbe1aeed7	-0.15130173
67	0xbf003521	-0.5008107
68	0xbe005a5c	-0.1253447
69	0x3e8a883c	0.27057064
70	0x3e46ff14	0.19433242
71	0x3c0ab35f	0.008465617
72	0xbc5988eb	-0.013277273
73	0x3dfa2e94	0.12215915
74	0x3db270b9	0.087129064
75	0xbddc1b72	-0.10747422
76	0x3e47ea22	0.19522908
77	0x3e3eac4f	0.18620418
78	0x3e616d2c	0.22014302
79	0xbe0ed6c2	-0.13949111
80	0xbe1b34be	-0.15156838
81	0xbd956377	-0.07294362
82	0xbd0fcd54	-0.035107926
83	0x3dbfdbae	0.093680725
84	0xbcdd1358	-0.026986763
85	0xbd602e10	-0.05473143
86	0x3d7dea7c	0.0619912
87	0x3e206449	0.15663256
88	0xbd8e07bc	-0.06935069
89	0xbcd347d7	-0.025791092
90	0xbe3ba160	-0.18323278
91	0x3e22eb72	0.15910128
92	0x3e3f68d8	0.18692338
93	0x3e84d25e	0.25941747
94	0x3de3951c	0.11112425
95	0x3de37c7c	0.11107728
96	0xbd2e4214	-0.042543486
97	0x3db6e739	0.08930821
98	0xbcd83057	-0.026390238
99	0xbdc41b06	-0.09575467
100	0x3e1994ad	0.14998122
101	0xbe2aaa37	-0.16666494
102	0x3e82990d	0.25507393
103	0x3e1b6042	0.15173438
104	0xbe3d6445	-0.18495281
105	0x3d06b99e	0.032891862
106	0xbe3903f4	-0.18067914
107	0xbe171e94	-0.14757758
108	0x3c5ca775	0.013467659
109	0x3d91c637	0.071178846
110	0x3e718b6b	0.2358834
111	0xbe238dd4	-0.15972072
112	0xbe85203d	-0.26001158
113	0x3e0f9d13	0.14024763
114	0xbdb4c8e7	-0.088273816
115	0xbe7aed49	-0.2450458
116	0x3b86530b	0.004099255
117	0xbc29ae54	-0.0103565045
118	0xbd730180	-0.059327602
119	0xbcee7ea7	-0.029113127
120	0x3ca1d9c3	0.019757157
121	0x3d305947	0.04305389
122	0xbce2d30c	-0.027688526
123	0x3d2eca4c	0.042673394
124	0x3e1f4ae4	0.15555912
125	0xbcf6f27e	-0.030144926
126	0x3d1c8dbe	0.038221113
127	0x3e035f51	0.12829329
128	0x3dc14b57	0.09438198
129	0xbdfeb40b	-0.12436684
130	0x3e007224	0.12543541
131	0xbd6e5cb9	-0.058193896
132	0x3e46a7aa	0.19399896
133	0x3e1170a6	0.14203128
134	0xbc4b41e5	-0.012405847
135	0x3dfa3c47	0.12218528
136	0x3e4c3b35	0.1994446
137	0x3cdca955	0.026936213
138	0x3be15087	0.0068760547
139	0xbcc3c37c	-0.023896925
140	0xbda643f9	-0.081184335
141	0xbe0432d7	-0.12910019
142	0x3e25392e	0.16135094
143	0x3e21b0bc	0.15790075
144	0xbe2d67cd	-0.16934128
145	0x3e15a17e	0.14612386
146	0x3ebe6559	0.37186697
147	0x3c392e95	0.01130261
148	0x3df3cd45	0.119043864
149	0xbdf4efeb	-0.11959823
150	0x3e2ca023	0.16857962
151	0xbe2d65c2	-0.16933349
152	0xbd7cc5f5	-0.061712224
153	0x3c9f3a09	0.019436853
154	0xbd40fe63	-0.047117602
155	0xbe149e90	-0.14513612
156	0x3cea2407	0.028581632
157	0xbbf04075	-0.0073319026
158	0x3cee17a4	0.029064007
159	0x3dc36f25	0.095426835
160	0x3da11a3c	0.07866332
161	0x3dc0617a	0.09393592
162	0x3df53dd9	0.11974687
163	0x3d94947c	0.07254884
164	0xbe0823b1	-0.13294865
165	0x3e26945c	0.16267532
166	0xbd38b802	-0.04509736
167	0xbd156fb9	-0.0364835
168	0x3d3160b4	0.043305114
169	0xbc8295e4	-0.015940614
170	0xbc2ae082	-0.010429503
171	0xbd80df04	-0.06292537
172	0x3b9c7849	0.0047750813
173	0x3ce167d5	0.027515331
174	0xbe3a5c4b	-0.1819927
175	0x3d87cb57	0.06630581
176	0x3bd4a7f5	0.0064897486
177	0x3dd141dc	0.1021764
178	0x3c0d7f9b	0.008636381
179	0xbd0bf2f1	-0.034167234
180	0x3e038150	0.12842298
181	0x3e92c04b	0.28662333
182	0x3e4865a5	0.19570024
183	0xbda6163e	-0.08109711
184	0xbe4c7136	-0.19965062
185	0xbe2d99f6	-0.16953263
186	0x3dffa844	0.12483266
187	0x3e8ff513	0.28116664
188	0xbcc8a1aa	-0.02449115
189	0xbda084d7	-0.07837837
190	0xbe6a3b55	-0.22874196
191	0x3ea19d3c	0.31565273
192	0x3dd918d7	0.10600441
193	0x3eb5f427	0.35537836
194	0xbd0e61bc	-0.034761176
195	0xbe1b1382	-0.1514416
196	0xbe7fbab2	-0.24973562
197	0xbd2494b5	-0.04018088
198	0x3e08099b	0.13284914
199	0xbb324500	-0.0027201772
200	0xbe70153c	-0.234456
201	0xbe84999c	-0.25898445
202	0xbdb0eb63	-0.086386465
203	0xbdba9af4	-0.09111586
204	0xbe2f69e2	-0.17130235
205	0x3dee7c2b	0.11644777
206	0x3e9c4a80	0.3052559
207	0xbdc912ad	-0.09818015
208	0x3da2e95e	0.079546675
209	0xbe2c4b40	-0.1682558
210	0x3e36e014	0.17858917
211	0xbd518980	-0.05115652
212	0xbd2a6bd5	-0.041606743
213	0x3b5f50d5	0.003407528
214	0x3c28561b	0.010274435
215	0xbdab066c	-0.08350834
216	0xbdae7d4b	-0.085199915
217	0xbdf1afdc	-0.11801121
218	0xbd2f1ef6	-0.042754136
219	0xbe866704	-0.2625047
220	0xbd115c7e	-0.035488598
221	0x3e2fa3d1	0.17152335
222	0x3e3a4fc7	0.18194495
223	0xbd00a4d8	-0.031407207
224	0xbd839599	-0.06425018
225	0xbe4c0eca	-0.19927517
226	0xbe4ec6bc	-0.20192999
227	0xbae144c0	-0.0017186627
228	0x3e02f19c	0.12787479
229	0x3eaafff6	0.33398408
230	0xbe67403c	-0.22583097
231	0xbd998e9a	-0.07497902
232	0x3d734dc4	0.059400335
233	0x3d06aac5	0.032877702
234	0x3e1f2142	0.1554003
235	0xbd09f2f9	-0.033678982
236	0x3e322df2	0.17400339
237	0x3e90287f	0.28155896
238	0xbcd46bd4	-0.025930323
239	0xbdb9a3ac	-0.09064421
240	0xbe7e1257	-0.24811684
241	0x3e25747c	0.16157717
242	0xbe123091	-0.14276339
243	0xbc9da915	-0.019245664
244	0xbe0e8620	-0.13918352
245	0xbe5d0481	-0.2158375
246	0xba9bc900	-0.0011885464
247	0xbda19ea4	-0.078915864
248	0x3c3e8bea	0.011630038
249	0xbdf82b5e	-0.12117647
250	0x3eb985c0	0.36234856
251	0x3da1e57b	0.07905098
252	0x3d05ff69	0.03271428
253	0x3d9d048c	0.07666883
254	0x3e9e5b28	0.30928922
255	0xbdcbca0b	-0.09950646
