model_round_1.pth (torch, 126796 bytes, 9 tensors)

conv1.weight f4 [16, 1, 16, 3]
00000000: 3571 55bd 841c 5e3d 6142 8c3d 97ba cd3c
00000010: 9404 13bd 3e78 883d eaf6 e3bd 894a 00bd
00000020: 5b5f 753d 7b56 363a 388c 823d 4a4b 253d
00000030: 0256 f13b 7208 733d 0666 093d 127a 0dbd
00000040: 80e8 233c eb58 2d3d 021a a1bc 95c0 5ebd
00000050: 41e2 c8bc 9bcb a93d ed24 5fbe 19d2 72bd
00000060: bfb5 8b3d 5b54 7dbe c677 8abd f103 bebd
00000070: 25d3 81be c20f 143c 15bf 28bd 13c5 30bd
00000080: 08db 86bd cda4 ed3c e2eb 81bd dd9f 67bd
00000090: 6a09 9a3d fb86 86bc 3cce b53c 759e e4bd
000000a0: d947 c6bd 7b2d a3bb b937 5ebd e3c0 223d
000000b0: 3e2d c83c 907f 7d3d e01f 1e3d 4b51 6e3d
000000c0: 54a7 67bd 1661 a73c b450 bf3d e901 b23a
000000d0: c0c7 88bc cafb b3bd 6713 21bb 4f93 e2bb
000000e0: 8301 4dbd bc8b 94bd 0fd3 6f3d 90c3 b5bd
000000f0: 38c6 c3bb 8c3e 863c 4df7 9dbc 84e4 67bc
00000100: 1720 61bd 8c67 51bb 8399 3bbd 3e17 1dbe
00000110: f3a7 cfbc e72b cf3c d359 02bc de7d 9a3d
00000120: e3a8 ac3d 3011 5b3e a5fe 083e 6ce2 523d
00000130: 5f51 203e 8872 f23d 43d8 e1bd fb33 5dbd
00000140: 4a5d f338 4f7c 003e f4ad 17be 9504 2bbd
00000150: 1fb7 bebb f9b6 89bc 43f6 5b3c f738 203e
00000160: afc2 19bd b92b b4bd ee38 5d3d 3f6b 8b3b
00000170: 41f0 57bd b34d ffbd f0b8 8b3d 0b36 90bd
00000180: ce53 17be 65c0 11be aaf4 1abc 5b6b 32bc
00000190: 5a8e f33d 08bf 8b3d 232d 8dbd c7d6 ddba
000001a0: 1158 9f3d bb85 fa3d 01e4 ed3d a2b4 7e3d
000001b0: 3c0e dcbd d3e5 09bd 6afe 14bd 8d14 a1bd
000001c0: 5ee6 813b bc93 c23d a6f1 ba3c bac5 523c
000001d0: d926 09be fa61 523d f5ec 83bd 4368 17be
000001e0: ea77 a7bd 0d89 813d af23 d8bd 5330 363d
000001f0: 2546 853d 4e92 1bbe 54c6 883b 0a21 e6bc
00000200: 565a 25bd 2079 c43d 6bd1 0b3d 8c33 6abe
00000210: dc5b debd a93b 05bd 2ed0 59be 4617 03be
00000220: f92e 01be 4c3f f8bd 6c40 14be 692b e5bc
00000230: 2fc2 5c3d 3f00 15be 21a9 7abd c4b0 6bbd
00000240: 922b 1bbd bb03 eabd 7975 6b3c d581 0ebe
00000250: 37cc 0dbe 17fd cdbd 7629 843d 5afc 283d
00000260: 17f2 18be 16f7 ba3d 15de dcbd 764f 08bd
00000270: e3dd 413d b43b 06bb 1388 ddbd 4917 dabd
00000280: 7103 38bd e79c a4bd ad61 173d 6808 c1bd
00000290: 7d2e 4ebe d5d6 a83d 836f 3dbe c72a 15be
000002a0: 513b 9cbb daeb a5bc fb98 acbc 2bab 883c
000002b0: c932 e6bd ea13 36be 9ab2 813d 9950 20bd
000002c0: c0f0 14be 3e1b 7a3d e446 6bbd 0492 59be
000002d0: 1bba 18bd e105 d3bd c142 4abe 78e3 593d
000002e0: 6b7a d4bd 9856 0bbd 2d97 003c 7ded ccbd
000002f0: e233 ecbc 83f2 9bbd 3414 fabd 1be5 bbbb
00000300: 1815 48bd e9a9 7bbd 6ab0 273d b924 453d
00000310: e429 913c 0dcf 29bd 60d2 b5bc 2f23 47bd
00000320: e1ea cc3c 354c fcbb e2fd 45bc 5398 843c
00000330: b313 093d 5313 ccbd 7781 63bc 8571 56bd
00000340: 0c8e 6abd 53ab 033c c7bb 6dbd c23c ec3c
00000350: 8172 b1bc cf00 bbbd 96d3 04be 139f b4bd
00000360: e8d7 0abd cc1c 95bd 8cea 3fbc 44f6 1bbd
00000370: 168c 8b3d ad06 e93d 73fc b8bd 9fb1 1f3d
00000380: 7754 d93d 4cfc 3b3d 03d2 a0bc d357 873d
00000390: db65 603d 544d 523d 349e 763d 15ac 603d
000003a0: cc73 1cbd 8464 9dba 5622 b9bd 109b 393d
000003b0: f804 0fbd 1523 d5bd 2c69 db3c 6f93 613b
000003c0: 4d05 41bd 8ae3 86bd 8fed 85bd f8cf 86bd
000003d0: 2b25 6bbc 9e9c efbd 4314 a7bb f851 1c3d
000003e0: 67a3 cebc 63ae 4ebd c346 2b3d 812e ebbd
000003f0: 4708 773d 6c12 93bd f269 24bd e292 0e3c
-0.052109916 0.054226413 0.06848598 0.025113387 -0.035893038 0.066635594 -0.111310795 -0.031321082
0.05990539 0.00069556356 0.06374401 0.040355004 0.0073649893 0.059334226 0.033544563 -0.034540243
0.010004163 0.042321127 -0.019665722 -0.05438288 -0.024521949 0.08290788 -0.2179143 -0.059282396
0.06821775 -0.2473921 -0.06761126 -0.092780955 -0.25356403 0.00903696 -0.041197855 -0.043156695
-0.06584746 0.029009247 -0.06343819 -0.056548942 0.07521327 -0.016421786 0.022193067 -0.11163036
-0.096816726 -0.004979787 -0.05425236 0.039734732 0.024435636 0.06188923 0.038604617 0.058182996
-0.05655606 0.020432036 0.09341565 0.0013580892 -0.01669681 -0.08788259 -0.0024578215 -0.006914533
-0.05005027 -0.07253215 0.05855089 -0.08875191 -0.0059745573 0.016387247 -0.019282961 -0.014153603
-0.054962244 -0.0031952588 -0.045800697 -0.15340897 -0.02534864 0.025289489 -0.007955986 0.075435385
0.0843065 0.21393275 0.13378389 0.051485464 0.1565604 0.11838251 -0.11027577 -0.05400465
0.000116045194 0.1254742 -0.14812452 -0.041752417 -0.0058201696 -0.016810881 0.013425413 0.1564673
-0.03753918 -0.08797402 0.05400937 0.004254728 -0.05271936 -0.12465992 0.068223834 -0.07041558
-0.14778063 -0.14233549 -0.0094577465 -0.010889853 0.11892386 0.06823546 -0.06893375 -0.001692497
0.07780469 0.12232538 0.11615754 0.062183984 -0.107449025 -0.033666443 -0.03637544 -0.07865248
0.0039642295 0.09500834 0.022820305 0.0128645245 -0.13393725 0.05136297 -0.0644168 -0.14785866
-0.08177169 0.063249685 -0.10553681 0.04447968 0.0650752 -0.1519253 0.004174033 -0.028091926
-0.040369354 0.09593415 0.034135263 -0.22871226 -0.108573645 -0.0325276 -0.2127082 -0.12801847
-0.12615575 -0.12121448 -0.144777 -0.027974801 0.053896125 -0.14550875 -0.06119645 -0.057541624
-0.03788335 -0.11426493 0.014371269 -0.13916714 -0.13847433 -0.10058039 0.064532205 0.041256286
-0.149361 0.09129159 -0.10784546 -0.033278905 0.04733075 -0.0020482363 -0.1081697 -0.106489725
-0.044925157 -0.08037739 0.036958385 -0.094254315 -0.20134921 0.08244101 -0.1849957 -0.145671
-0.0047678133 -0.020254064 -0.02106904 0.016683182 -0.11240155 -0.17781034 0.06332894 -0.039139364
-0.14544964 0.061061136 -0.057440653 -0.21247107 -0.03728686 -0.10303856 -0.19752027 0.053195447
-0.10374912 -0.03401813 0.007848543 -0.10006235 -0.028833333 -0.07614615 -0.12210885 -0.0057340986
-0.04884824 -0.061441336 0.040939726 0.048130725 0.01772017 -0.041457225 -0.022195041 -0.048617538
0.025014343 -0.0076995143 -0.012084456 0.016185915 0.033466052 -0.09964623 -0.013885847 -0.052354354
-0.057264373 0.008036452 -0.058040407 0.028837565 -0.021661045 -0.091310136 -0.12971339 -0.088194035
-0.03389731 -0.07280883 -0.011713635 -0.038076654 0.06813829 0.113782264 -0.09032526 0.038987752
0.106118135 0.045894906 -0.019631391 0.06608548 0.054784637 0.051343277 0.060209468 0.05485161
-0.03819637 -0.0012008105 -0.09039752 0.045313895 -0.034916848 -0.10407082 0.026783548 0.0034420153
-0.047124196 -0.065863684 -0.06539451 -0.06582636 -0.014352123 -0.11699794 -0.005098851 0.03816411
-0.0252244 -0.050459277 0.04181553 -0.11483479 0.06031063 -0.07181248 -0.0401401 0.008702012

conv1.bias f4 [16]
00000000: b284 853d 7b87 963a 73c7 d7bc 4532 3e3c
00000010: 0bb5 34bd b009 25bd 5bfb edbc 347f cf3a
00000020: c2c5 d33b eb24 353b c49c 4fbc 8cd6 aabc
00000030: 9ff5 efbc 3501 d6bc 199e 43bd b088 f73b
0.0651945 0.0011484468 -0.026340222 0.011608665 -0.04411797 -0.04029244 -0.02905052 0.0015830756
0.0064627836 0.0027640413 -0.012671653 -0.020854257 -0.029291926 -0.026123622 -0.047758196 0.007554136

conv2.weight f4 [16, 16, 3, 5]
00000000: 495f d3bc eb04 b23d c063 373d 6c08 fcbd
00000010: 3d36 05be 53c8 dc3c 241b 33bd 8bb8 ac3d
00000020: 6144 17be 70c4 963d 484c a9bd f692 afbd
00000030: d632 f0bc 2144 d1bd dbe9 86bc 7ca0 9abd
00000040: f290 4e3d 0fcd cebd 4c33 38be c92e 91be
00000050: 4154 3dbd ee45 d6bd 9785 8e3d f9f8 d7bc
00000060: c23f 38be 6ffa 563d e216 bd3d 5910 50b9
00000070: 4f36 2d3d 7bb2 35be 2faa 64be 032a d53d
00000080: f208 f23d 421d 59bd 5d1d 6e3c d74d afbd
00000090: 048a 953d 0707 0ebe bc85 82bd d69d 51bd
000000a0: 35b7 ffbc 77de a53d 10a3 13bd 871a 373e
000000b0: 81ba 763d d819 d2bd d4f4 d33c 4bb8 2f3d
000000c0: cca7 1b3b 05af 45be 97b8 01bd 625a 0a3e
000000d0: 012b 963d e9f8 e8bd 5c4e a13d d7e5 64be
000000e0: 6c55 a8bd 4b04 313c ef28 783d c7fa dbbc
000000f0: d4ec 9ebd 0ea7 bfbc fc24 e4bd b380 13bc
00000100: 6e8b ad3a ddb0 c13d ba44 cd3d b0e3 5d3d
00000110: 54cc 52bd 1bff cd3c a180 54bc 311a 03bd
00000120: 48b7 1fbd 6cf0 3ebe 0fc8 e4bd 106d d0bd
00000130: 1b3a eabc 5e82 103d 129c d6bc 8cfb 92bd
00000140: f4f9 9c3d 1448 bebd e938 913c 50f6 48bd
00000150: a197 e53d b846 a9bd 1581 943d eecb ccbc
00000160: 6604 643d da52 abbc 367a e2bd c04c 8d3d
00000170: f733 dbbc 9841 273e 6ac8 28be 0297 91bd
00000180: e738 babd 3862 a73d 0537 e2bd 99f0 00be
00000190: cbdd 453c 51eb bebb cb4e f439 bf9f dfbb
000001a0: 84a8 d3bd 3d4f 523d 25ec 8dbc 58a5 01bd
000001b0: 1ae5 833d 9b6a 6d3d 0158 b0bb c7e1 8a3c
000001c0: c966 12bd 2aa7 88bd 4841 5fbd 2c61 1b3e
000001d0: 57f7 0bbe 410f 87bd ec0f 603d 934f 43bd
000001e0: 4d55 43be fd0d f03d 35ea 65bd 4e18 adbd
000001f0: 6543 34be 1ab0 abbd 7bd7 833c 8ad1 ca3d
00000200: 10da 18bd 6ade 33be 49bf a03c d0c6 48bd
00000210: 6e2c 233c 581f cbbc 2bea 2bbe 46c3 99bd
00000220: 5480 013e acfd e83c fc92 c53d 060a 1dbe
00000230: 2685 373d cecd 3cbd 554b 29bd 0199 aebd
00000240: e589 e6bd 2e50 97bd c4c5 8ebd b1f7 e93c
00000250: 0c46 35be d512 48be b9c3 90bc 73c7 a53c
00000260: 959e 3c3d 1575 103d c076 06be 8c2a 97bd
00000270: 41e1 b4bd 38a1 51bd 7455 963c 11a8 743d
00000280: f639 d53d 3763 b13d 4277 f5bc 1188 dabd
00000290: 4134 3abd 4c81 d2bc ad4e 09be 6867 3fbe
000002a0: 5dda b8bd 1352 b93c 4b91 793d 030f 95bd
000002b0: 26fa 97bd bf3f b43d 646e a8bd 0e65 293d
000002c0: b068 0b3c e57a 60be 136f 213e 3487 08be
000002d0: 587c a7bb 4026 fdbd 430b c5b9 dc3b 4abd
000002e0: 6a7d 27be 16a4 ad3d d343 5dbb c4b4 2c3d
000002f0: 8cc6 a8bd b1c8 0bbe df18 93bd 95a4 633d
00000300: 6e11 2b3d f08a 4a3c 6383 83bd b9ef 14be
00000310: 9e6a 21bd 4b0d 47be 4652 8d3d 5d40 38bd
00000320: 205c 1d3d 7ae6 0b3e c625 89bd 9a77 ecbd
00000330: c5ea 453d 5458 01be cc29 ddbc 5b6c 56be
00000340: 03d3 bcbd 02d5 8bbd 1c36 19bc f872 d73c
00000350: aca5 ba3d 4990 a8bc 71eb d8bd 83f2 0f3b
00000360: 94cb 063e d04b 923d f4bc cbbd b6e0 033d
00000370: 2058 e93d 2d26 ea3d 843b e3bc 2dc6 113d
00000380: fbd4 22bc 941f ef3d ffe0 973d b531 4bbe
00000390: c5aa 4ebd 8865 f9bd 1619 883b 5439 b9bb
000003a0: 3dd1 ddbd 1f87 2e3d fea9 00be 4dc5 903d
000003b0: 9ee6 e0bd 995c debd 4ada 583e 51be 8bbc
000003c0: 9ad2 16be e253 9bbd d483 583d 176f 14bd
000003d0: cec3 8d3d fcaf 293d b46c 683c f937 b4bd
000003e0: 4a43 8dbd aa2d 4ebd 7d45 063d 0216 cdbd
000003f0: cc8e f33c a632 28bd 2b69 bebd 6d0b 2d3c
-0.025802271 0.08692344 0.044772863 -0.12306294 -0.13008972 0.02695099 -0.043727055 0.08433636
-0.14772178 0.07361686 -0.082665026 -0.085729524 -0.029321115 -0.10218073 -0.016468933 -0.07550141
0.0504312 -0.100977056 -0.17988318 -0.28356007 -0.04622293 -0.10462557 0.06959074 -0.026363837
-0.17993072 0.052484926 0.0923288 -0.00019842516 0.04228812 -0.17743866 -0.22330545 0.10408404
0.118181124 -0.053006418 0.014533368 -0.08559769 0.07301715 -0.13869868 -0.06373164 -0.051175915
-0.03121529 0.080990724 -0.03604418 0.17881213 0.060236458 -0.102588356 0.02587358 0.042900365
0.0023751138 -0.19305046 -0.03167018 0.13511041 0.07332421 -0.11375601 0.07876274 -0.22353302
-0.08219418 0.010804246 0.060585912 -0.026852978 -0.07760015 -0.023395088 -0.11139867 -0.009002852
0.0013240406 0.09457562 0.10022874 0.054172218 -0.051464394 0.025146058 -0.012970121 -0.0320074
-0.03899315 -0.18646401 -0.11170971 -0.10177052 -0.02859216 0.035280578 -0.026197467 -0.07176885
0.07664862 -0.092910916 0.017727332 -0.049063027 0.112105615 -0.08265442 0.07251183 -0.024999585
0.055668257 -0.02091353 -0.11058466 0.068994045 -0.026758177 0.16333616 -0.16482702 -0.071088806
-0.090928845 0.081730306 -0.110456504 -0.1259178 0.012076805 -0.0058263917 0.00046598012 -0.006824463
-0.10334876 0.0513451 -0.017324517 -0.031651825 0.06440182 0.057962995 -0.0053815846 0.016953362
-0.035742555 -0.06672509 -0.054505616 0.15173787 -0.13668571 -0.06594706 0.054702684 -0.04768331
-0.19075508 0.11721418 -0.05613156 -0.084519014 -0.17603834 -0.08383198 0.01609396 0.09903248
-0.037317336 -0.17565313 0.019622462 -0.049017727 0.009959323 -0.02479522 -0.16788547 -0.075079486
0.1264661 0.028441273 0.09647176 -0.15335855 0.044804715 -0.04609471 -0.041331608 -0.08525277
-0.1125677 -0.0738834 -0.069713145 0.028560491 -0.17702502 -0.19538434 -0.017671453 0.020236706
0.046049673 0.035267908 -0.13131237 -0.07381162 -0.08832026 -0.05117914 0.018351294 0.059730593
0.10411446 0.08661502 -0.029964093 -0.10670484 -0.04545999 -0.02569642 -0.13408919 -0.1869179
-0.090260245 0.022622144 0.060929578 -0.07278254 -0.07420759 0.08801221 -0.0822418 0.04135614
0.008508846 -0.2192188 0.15765028 -0.13332826 -0.0051112585 -0.12360811 -0.0003758316 -0.049373493
-0.16356435 0.084785625 -0.003376235 0.04216458 -0.08240995 -0.13650776 -0.07182478 0.05557688
0.04176467 0.012362227 -0.064215444 -0.14544572 -0.03940832 -0.19438665 0.06900458 -0.044983257
0.038417935 0.13662139 -0.06696658 -0.1154625 0.048319597 -0.12631351 -0.02699747 -0.20939772
-0.09219935 -0.068277374 -0.00935128 0.026299939 0.09113631 -0.020576613 -0.10591782 0.0021964617
0.13163596 0.07143366 -0.09948149 0.032196723 0.11393762 0.11433063 -0.02773834 0.035589386
-0.009938474 0.11675945 0.074159615 -0.1984318 -0.050455827 -0.12177569 0.004153381 -0.005652586
-0.10830925 0.04260933 -0.12564847 0.07068882 -0.10981487 -0.10857505 0.2117702 -0.017058523
-0.14728776 -0.07584359 0.052860096 -0.036238756 0.069221124 0.041427597 0.014186073 -0.087997384
-0.068976 -0.050336517 0.032781113 -0.10013963 0.029731177 -0.041063927 -0.09297403 0.010561806

conv2.bias f4 [16]
00000000: 8195 11bc d9e1 4fbc 2070 03bd 7234 60ba
00000010: 69a7 0dbc b0ae fbbb 2c93 1a3c fec2 25bd
00000020: 59fb fdbc 03f5 853a 87d1 84bc 69d2 a73c
00000030: f015 d5bc e76d 0cbd 492c d6bb d0d3 60bd
-0.008885742 -0.012688124 -0.032089353 -0.0008552737 -0.008645871 -0.0076807365 0.009434503 -0.040469162
-0.031003641 0.0010220114 -0.016213192 0.020486074 -0.026011437 -0.0342845 -0.006536041 -0.0548895

conv3.weight f4 [32, 16, 8, 3]
00000000: b6af 3fbd 612a b7bd 1a78 743d 08eb babd
00000010: 3243 e6bd 658e e0bb 014c 9fbd 9f50 79be
00000020: c8e5 183d 3e33 a7bd 3ff8 89bc 5441 22bd
00000030: 7146 1c3c c1ca 293d fce1 f23d 2b92 1b3d
00000040: 48b2 ce3d 8c0a 6e3d f90d 4abe db26 90bd
00000050: 8df8 7cbd 7913 9fbd 1fbe 96bd 573c 3fbe
00000060: e87c 3cbc 8d59 3bbc 7c40 8e3c 4a76 143c
00000070: 6680 60bc 515a d9bd e29a eaba 9c67 88bd
00000080: d820 b8bd c4ab 363d 1630 19bc 2114 32bc
00000090: 30b7 15bd 942a 44bd f486 38bb 1635 afbd
000000a0: a89e a5bc 6396 b33d 0983 84bd f87a 07bc
000000b0: eb24 873b 6c10 f0bb b824 f83c 0c2a 02bd
000000c0: f432 cf3c bf04 16bd 1ec4 1b3d a158 2d3d
000000d0: d351 c63c acdc 923d fa03 62bd 8fac 79bd
000000e0: 3dfa d8bb 4414 e2bc 4182 e13c 7e56 60bd
000000f0: 585b 033d bbd2 bd3c 7fff ae3c 753d 4f3c
00000100: 0943 323d 7a20 f4bc e036 663c 91c5 40bd
00000110: 5f5b 82bc dad7 18bd c9fb 8bbd b33d 443d
00000120: b30f c6bd acd3 c63d af7f 2e3c 4ba5 15be
00000130: f9e2 313d 596a d8bd d059 2fbe 4135 9c3d
00000140: 51a2 2c3d be22 5bbc 33e2 133e 60b1 04bd
00000150: 5b04 513d 1f42 c03d c4e5 123c 98b7 b4bd
00000160: 672c b4bd 5dd8 b3bd 75e7 44bd 4876 47bd
00000170: 2e00 d0bb f9e3 80bd c0c6 cbbd a8ad ecbc
00000180: 4057 5abd 7c60 10bd 0a4a d5bc 1b42 763d
00000190: 3e0a 42bd 0e0a 373e 2735 29bd 8ec4 c93c
000001a0: d7d7 0abd 17ba eabd 3046 b23d e91c c1bb
000001b0: 028f 11be 4aad bf3d 6e29 e03c 01b0 e3bd
000001c0: b015 c7bd 7289 d63c 6d98 903c d098 4abd
000001d0: 1ff6 05be e69d 6ebc dc9f 553d 23b3 f9bd
000001e0: 6761 94bd c962 3ebc 4fac 1f3c 1d7c eabd
000001f0: 8d24 543c 3dac 923c e5da 60bd 9846 813d
00000200: d6d0 c0bb ecbf 6fbd 30d7 993c b0be 6bbd
00000210: 141e 90bb becd a53c cc86 96bd 19ce 8bbd
00000220: ffd0 d4bd 7bb6 923d 10b4 2abd 6fe7 a2bd
00000230: e7f4 bf3b 716f 79bd fcd7 f7bd cab3 bbbc
00000240: 6779 81bc de33 9cbd 558c a23d 8baa fe3d
00000250: ba39 e4bc b1c1 e0bd 80dc 9bbc cbf3 e53c
00000260: 8d04 d2bd a092 333c 3ca3 d0bb 0191 74bd
00000270: 686c 5dbd 8630 93bd 2dbd 453d 359d 0cbb
00000280: e902 67bd 14c6 3bbc 2f59 bd3d 6b4b bd3d
00000290: c75d a8bd 03bc 9c3d 3712 ba3d c735 843d
000002a0: f28b 113d a8a6 48bd c35b 043d bcf9 6bbd
000002b0: 4c89 dfbd 69ab 1d3d 428d 72bb a80e 6cbd
000002c0: 9629 903b 2876 b3bd 46c0 8b3d 649a 32bd
000002d0: 096b 7bbd de03 4bbc 186c 373d d991 0dbe
000002e0: 7919 27bd 5f48 98bc 9872 4fbd c9a5 81bd
000002f0: 0285 c4bd 5564 48bd 772c fabc 7061 50bd
00000300: 1a81 553d 3985 be3b 8477 2a3d fa52 9e3d
00000310: 0231 353d 7756 9bbc 591a 94bd 342e 9bbb
00000320: 1733 9ebd 1b73 6dbd feed bc3d 11af b63b
00000330: adb3 0dbd 4319 d93d 6c70 ca3c 0b54 c238
00000340: 816a 3a3d a4a6 9e3c 1384 e1bd 67e2 9fbc
00000350: 1d04 20bd 92a2 ebbc 01b4 8b3d 9a89 c63c
00000360: ff87 a8bd 8c43 903d 9bb1 7abd 4ebe 09be
00000370: 0a07 933d ec8f 34bd 3afb 09be 8878 a1bc
00000380: 8055 e3bc d116 5ebe b8a6 893d 3f3e b43c
00000390: c24d 01be c05d 7d3d dda9 8c3b ea17 993d
000003a0: 6abb b8bc 3068 e3bc 2fd1 18bd 62ce 413c
000003b0: ce59 09bd 36f7 083d 83b1 9bbd feaa 41bd
000003c0: bd01 c4bd e71b 853a 1755 a3bc fd10 5dbd
000003d0: 5247 21bd 28a4 c73d 4ffc 78bd 1300 29bd
000003e0: 7254 aabc 7a2b 48be 1a81 a13c 4320 55bd
000003f0: e019 36be f99b 96bc ff98 91bd b88d f1bd
-0.04679843 -0.0894363 0.05968485 -0.0912686 -0.11243285 -0.0068529123 -0.077781685 -0.24347161
0.03732851 -0.081640705 -0.016842006 -0.039613083 0.009538279 0.041453127 0.11859509 0.037981194
0.10092598 0.058115527 -0.19731893 -0.07038661 -0.061760474 -0.07767386 -0.073604815 -0.18675362
-0.011504389 -0.011434925 0.017364733 0.009061405 -0.013702488 -0.106129296 -0.0017898942 -0.06660387
-0.089906394 0.044597402 -0.0093498435 -0.010869057 -0.036551654 -0.04789217 -0.002815661 -0.08555047
-0.020217255 0.08768918 -0.064703055 -0.008269064 0.004124274 -0.0073261764 0.030290946 -0.03177838
0.025292851 -0.03662562 0.03802883 0.04232085 0.024208939 0.07170996 -0.055179574 -0.06095558
-0.0066216276 -0.027597554 0.02752793 -0.054769985 0.032069534 0.023171773 0.021362064 0.01264893
0.04352096 -0.029800642 0.014051169 -0.047063414 -0.01591271 -0.037315227 -0.068351336 0.047910403
-0.09670963 0.09708342 0.010650559 -0.14613836 0.04342935 -0.10567159 -0.17124104 0.07627345
0.042146984 -0.013374982 0.14441757 -0.03239572 0.051029544 0.093876116 0.008965913 -0.0882408
-0.087975316 -0.087815024 -0.048072297 -0.048696786 -0.0063476777 -0.06293482 -0.09950018 -0.0288914
-0.053305864 -0.035248265 -0.026036281 0.060121637 -0.04737305 0.1787493 -0.041310456 0.024629857
-0.033897247 -0.11461275 0.087047935 -0.005893339 -0.1421471 0.09359224 0.027363505 -0.111175545
-0.097209334 0.026188586 0.017650807 -0.04946214 -0.13082169 -0.014564013 0.052154407 -0.12192371
-0.072451405 -0.011620232 0.009745671 -0.11449454 0.0129481675 0.017904395 -0.054896254 0.06312293
-0.00588427 -0.05853264 0.018779367 -0.0575549 -0.004398117 0.020239707 -0.07349929 -0.068264194
-0.10391425 0.07163712 -0.041675627 -0.07954299 0.005858052 -0.060897294 -0.121017426 -0.022912879
-0.01580496 -0.076270804 0.079369225 0.12434872 -0.027859557 -0.10974444 -0.019026041 0.028070351
-0.10254774 0.010960251 -0.0063671153 -0.0597086 -0.054058462 -0.071869895 0.048276115 -0.0021456007
-0.05639926 -0.0114608 0.09245526 0.092429005 -0.082210116 0.07653048 0.090855055 0.0645557
0.035533853 -0.04898706 0.032314073 -0.057611212 -0.10914859 0.038493548 -0.0037010466 -0.057631165
0.0043994887 -0.08762771 0.068237826 -0.04360427 -0.061381374 -0.012391059 0.04478082 -0.13825168
-0.040795777 -0.018589197 -0.050646394 -0.06330449 -0.09595682 -0.04892381 -0.03053878 -0.050874174
0.052125074 0.005814221 0.041617885 0.0773067 0.04423619 -0.018962128 -0.07231588 -0.0047357325
-0.07724588 -0.0579711 0.09225081 0.0055750688 -0.03459518 0.106005214 0.02471181 9.266295e-05
0.045511726 0.01936657 -0.11011519 -0.019517137 -0.039066423 -0.028764043 0.068214424 0.024235535
-0.08229064 0.070441335 -0.061204534 -0.13451502 0.07179077 -0.044082567 -0.13474742 -0.019710794
-0.02775073 -0.21688391 0.06721252 0.022002338 -0.12627319 0.061856985 0.00429271 0.07475264
-0.022550303 -0.027759641 -0.037308868 0.011828991 -0.03353291 0.033438884 -0.07602217 -0.04728221
-0.09570644 0.001015541 -0.019938035 -0.05397128 -0.039374657 0.09748107 -0.060787495 -0.041259836
-0.02079222 -0.19547835 0.01971488 -0.05203272 -0.17783308 -0.01838492 -0.0710926 -0.11794609

conv3.bias f4 [32]
00000000: 375d cb3b 422e 9dbc fc4e 863c 847f febc
00000010: 0b2a efbc 4b40 79bc f4c1 33bd 0d60 68bc
00000020: eb55 88bc 956d 55bd f918 9cbd a95b 5abd
00000030: c7ea 553a c4ed d8bb 6209 fb3a 9951 1bbd
00000040: f308 b9bb bb7f f2bb dadf 82bd 47e0 4cbd
00000050: f3d9 cfbc 76fc 59bc a8be 36bd 5651 9fbc
00000060: 4863 37bd 1374 e73b 5e5b 87bd 7e9e 273c
00000070: 2e4b 033c cd36 2ebd b80e f5bb 675b 80bd
0.0062061804 -0.019187097 0.016395085 -0.031066664 -0.029194852 -0.015213083 -0.04388614 -0.014183057
-0.016642531 -0.05210646 -0.07621951 -0.05331007 0.000816029 -0.0066201407 0.0019152577 -0.037919614
-0.005646819 -0.0074004806 -0.063903525 -0.050018575 -0.025372481 -0.01330482 -0.044615418 -0.019447964
-0.044772416 0.0070633977 -0.06609224 0.010230659 0.00801353 -0.04253273 -0.0074785613 -0.062674336

conv4.weight f4 [32, 32, 4, 3]
00000000: 7147 69be 28a6 0aba 2cc6 533d 71b7 ffbd
00000010: 6b0b b73c a0c1 7bbd 2637 963c ac76 8abd
00000020: 9846 f93b d19c 05bc 57b4 ebbd cf9a 563b
00000030: 6e60 9abd e12d 13bd a677 583d 7c97 1a3d
00000040: 51cb ba3d c5f4 c8bd 1cb3 463d c7e2 8e3d
00000050: 18e4 77bd 7042 90bd f567 a63d c6e7 283d
00000060: 2cd1 cc3c bdf2 17be d7f7 133d cb2d f9bc
00000070: ea6b d1bc e303 103c 8004 543c bec5 82bd
00000080: 0d28 a7bb 5394 ecbd f54a 16bc df6c 6c3c
00000090: 5224 843d ab63 babd e254 0dbe 8976 cabb
000000a0: 3dc4 e1bd b278 20be 0f1d 473c c08b 1fbe
000000b0: 1f3a eb3c 3627 a33c 16b9 233d c71d 103c
000000c0: 3d6c 5a3d 9217 023d ecc1 8fbd 4171 ecbc
000000d0: 2202 d13c c4d5 f8bc ed55 7fbd 79fa e33c
000000e0: 269f 833c 4e50 6dbd 06c9 8abd 5113 1fbd
000000f0: e988 923d 30e1 723d 70d1 eeb8 f8a4 39bc
00000100: b7d6 fabc 1ca6 f63c 00da 8a3d 4ae2 85bd
00000110: fbf8 09bb 7828 cf3d d595 d6bd 0956 adbb
00000120: 5972 a13d a919 d33c 565a be3d 8cff abbd
00000130: 1631 9d3d c05b 2f3b 24e0 19bd 4a6d 72bd
00000140: e8ae 47bd dcc2 e8ba d0ff 3b3d 599f 453d
00000150: 8c82 933d 7624 da3c 510f 26bc 8726 ee3c
00000160: 3c7c c9bd cf11 adbd fa1a 3dbe 906d e13c
00000170: 75bd b63b c665 8cbd a778 b6bd 971f a0bd
00000180: f7b7 cc3c 496c 0f3d dd54 e3bc 9da0 60bd
00000190: 936d 40bd c702 5ebd 57d8 13bc 52b9 5ebd
000001a0: ac83 11bd c76d 02be 60a1 a8bd 1dde d3bd
000001b0: 35d5 0f3d b532 873d 2a9f 39bd ee92 143d
000001c0: 80c8 ffbc 21b7 6bbc d71a 7b3d 288c 7c3d
000001d0: 3982 a9bd 4916 043d da60 803d 3df0 0a3d
000001e0: b6d7 723c 2eb8 153d a906 e8bc 3e35 7d3d
000001f0: 3fc4 49bb 0f5a b9bd ed10 6dbd 2164 87bd
00000200: e44c cebb a71a 47bc 72d8 933c 66d5 60bd
00000210: 5ac8 c8bd b220 e43c 838a 9b3a 989f 9dbc
00000220: f93e 88bd 147d dc3c 549c b8bd f59e 8e3d
00000230: 4f50 8c3d 7a59 bd3b ca26 28bd 7ecc b5bb
00000240: 3c2f ddbb fa61 d5bb f0e7 aebd d683 ed3d
00000250: b2a2 a0bd d49b e6bd bc09 34bd c494 fabc
00000260: 37dd 47bd eeab 2fbd 2a82 b8bd f904 e93c
00000270: 545c 3cbd 7196 c53c 4625 31bc af6b df3c
00000280: a9ec fbbd 98c8 3abd cdb4 58bd b7eb 843d
00000290: 63c9 ae3d 39ad 333d 9065 82bd b12e f63c
000002a0: 719e 17bc d24c b53c c9be a4bd fe7d ef3b
000002b0: e8f9 9fbc daeb 96bb b11b 9b3c b345 173d
000002c0: 14a8 85bd 2d56 db3c 95fe 63bd e736 583d
000002d0: 5caf 4cbb 525a 14be 4311 1e3d 4bec 53bc
000002e0: 6e9d 8b3c 1441 033c 241d ff3c 697a b6bc
000002f0: 6f4d 973d 9833 e73c 57eb 8dbd dfac ac3d
00000300: 4dc4 a6bd 9b12 8f3c 1602 01bd 27c6 673d
00000310: 4ee6 143d 9a7e a23c 2bb1 3f3c b40b 493d
00000320: 2706 adbd 9462 8b3d 3bb6 6c3d 159f e1bd
00000330: 8337 75ba 271e 95bd 29a6 ad3d 0127 ed3d
00000340: 3b61 ee3b f418 9f3d ba30 adbc ad03 64bd
00000350: e714 b43d c1bc 253d deba aa3c d2a6 94bd
00000360: b208 903c 0664 6fbd cb53 6c3d 01cd 8ebc
00000370: b5ea 2dbc 8a1f 20bd edb0 babc dca4 823d
00000380: e8da e6bc d4f7 a6bd 1222 6ebd 4bee afbd
00000390: 2275 893d 4282 993c cfa9 30be 4128 da3d
000003a0: 3179 2abe 344f b53d e004 28bc 3c0b 8ebc
000003b0: 6449 c33c 381e 0f3c 2a67 993d 42a2 ff3c
000003c0: 0fef 24bd d1cd 20be 17d6 84bd bdaa 043d
000003d0: e6c0 0abe 0006 d1bd 222d dc3d 3fc3 bfbd
000003e0: 4ef3 bb3b a8c8 103d 12b5 803d 7fbe 4e3d
000003f0: c7b5 d8bd 23c1 86bd eff1 bc3d be57 1abd
-0.22781159 -0.00052890414 0.051702663 -0.124861605 0.022344312 -0.061463952 0.018336844 -0.06760916
0.0076072924 -0.008155064 -0.115090065 0.0032746082 -0.07537924 -0.035932425 0.05284848 0.037742123
0.09120811 -0.09812311 0.048510656 0.06976848 -0.06052026 -0.07043922 0.08125297 0.04123666
0.025002085 -0.14838691 0.03612503 -0.030417344 -0.025564153 0.008789989 0.012940526 -0.063853726
-0.00510121 -0.11551728 -0.009173145 0.014430254 0.0645224 -0.091010414 -0.13801911 -0.0061786813
-0.110237576 -0.15671042 0.012152924 -0.15580654 0.028714238 0.019916158 0.039971434 0.008796162
0.05332588 0.03176076 -0.070194095 -0.028862597 0.025513712 -0.030375369 -0.062337805 0.027829396
0.016067099 -0.057937913 -0.067766234 -0.03883678 0.0715502 0.059296787 -0.00011387735 -0.0113308355
-0.030619962 0.030108504 0.067798615 -0.06537302 -0.0021052945 0.10115141 -0.10477797 -0.005289797
0.07883138 0.025769072 0.09294574 -0.08398351 0.07675378 0.0026757568 -0.037567273 -0.059186257
-0.048750788 -0.0017758268 0.04589826 0.04824767 0.07202634 0.026628714 -0.010135488 0.029071106
-0.09838149 -0.08450662 -0.18467322 0.027518064 0.0055767843 -0.06855349 -0.08909731 -0.07818525
0.024990065 0.03501538 -0.027750427 -0.054840673 -0.046979498 -0.054201867 -0.009023747 -0.054375954
-0.035525963 -0.12737189 -0.08233905 -0.10345099 0.03511544 0.066014685 -0.045317806 0.036272936
-0.031223536 -0.014386923 0.061304893 0.0616571 -0.08276791 0.032247815 0.06268473 0.033920515
0.014821937 0.0365526 -0.028323488 0.061818354 -0.0030787138 -0.090503804 -0.05787747 -0.06610895
-0.006295787 -0.0121523505 0.018047545 -0.054891013 -0.09803839 0.027847622 0.0011866841 -0.01924114
-0.06652636 0.02691511 -0.09014192 0.069639124 0.06851255 0.0057784887 -0.041052617 -0.005548059
-0.0067500155 -0.006511924 -0.08540332 0.11597411 -0.07843532 -0.112601906 -0.043954596 -0.030588515
-0.04879495 -0.042888574 -0.09009202 0.028444754 -0.04598649 0.024119588 -0.010812109 0.027273027
-0.12300999 -0.045601457 -0.0529068 0.064902715 0.08534505 0.04386637 -0.06367028 0.030051561
-0.009254084 0.022131357 -0.08044202 0.0073087206 -0.019528344 -0.0046057524 0.018934103 0.036931705
-0.06526199 0.02677449 -0.05566271 0.052786734 -0.0031232452 -0.1448758 0.03859068 -0.012934755
0.017042842 0.008011121 0.031141825 -0.022275167 0.07387816 0.028222844 -0.06929653 0.0843141
-0.0814291 0.017464926 -0.03149613 0.056585457 0.03635245 0.019835759 0.011699955 0.049083427
-0.08448439 0.06805912 0.057790976 -0.110166706 -0.000935428 -0.07281142 0.08478958 0.11579705
0.0072747744 0.07768431 -0.021141399 -0.055667568 0.08793049 0.040463213 0.020841058 -0.07258381
0.017582271 -0.058445 0.0576971 -0.017431738 -0.010615041 -0.039092578 -0.022789443 0.06379101
-0.028180555 -0.08152738 -0.05813796 -0.08590373 0.067117944 0.01873887 -0.17252277 0.10652209
-0.16647793 0.088529974 -0.010255069 -0.017339341 0.023838706 0.008735232 0.0749038 0.0312053
-0.040267047 -0.15703513 -0.06486147 0.03238939 -0.13550147 -0.102062225 0.10750796 -0.09363412
0.0057357913 0.03534761 0.062845364 0.05047464 -0.10581546 -0.06579807 0.09225833 -0.037681334

conv4.bias f4 [32]
00000000: 9e07 28bd 4bd5 3abd 80dd 81bd 59b4 98bd
00000010: 949f a23c bb1e 3ebd a0d2 1fbd 6827 783a
00000020: cdfa 32bd 5a3a c13c 0502 07bc c45d 4d3c
00000030: a7a2 16bd a2de 4f3d ef84 9c3c a93c aebc
00000040: 8cbe 27bd 392f e9bc 51c0 12bd 540d c43c
00000050: 20ea 0cbd ef26 35bc a035 2b3c 8498 3ebd
00000060: 233c 253d 4cc1 0fbd cd4e 4fbd d3d2 48bd
00000070: 13e4 15bd ab13 f138 d512 e2bc c413 f13c
-0.04102289 -0.04561357 -0.06341076 -0.074562736 0.019851483 -0.046416026 -0.039019227 0.0009466321
-0.043696214 0.023587395 -0.008240228 0.0125345625 -0.03677621 0.05074943 0.019106356 -0.02126916
-0.040953204 -0.0284649 -0.03582794 0.023932137 -0.034402966 -0.011056646 0.010449797 -0.04653217
0.040340554 -0.03509645 -0.05061226 -0.049029183 -0.03659446 0.00011495439 -0.02759687 0.02942837

fc.weight f4 [1, 1440]
00000000: fb70 a13c 84d5 3b3d fc73 26bd c689 06bd
00000010: 10f8 a33c 1297 8dbc 1313 0c3c cf7e bf3c
00000020: 46c5 e33c 7e2b 673b f920 c63c 69f5 1fbd
00000030: 5fd4 853c 6ffe 543d 8f52 76bc 8ee3 3d3d
00000040: 787b dfbc a89a 6cbd 876a 143d c41c 3dbd
00000050: 086b a73d 4205 183d 3cda 1cbe fa6d 953d
00000060: be98 943c ce25 043b 15ae a8bc 7298 783c
00000070: b4a3 20bd 921a f0bc c592 5cbc 0a18 1f3d
00000080: 936d 0abd 158b f6bc 7048 04bd 10b2 1abd
00000090: 99bd f33c 3fa8 e13c 7a0f 16bd e72c 0e3d
000000a0: 29fc 2f3c f4f1 4e3d 1430 6cbc 753d dd3c
000000b0: f388 5d3d 0f24 70bd 535f 963c 7eb9 3f3d
000000c0: a2b7 463d f7e2 0d3d 9e11 ccbb 50e5 18bd
000000d0: 49b9 2bbc fcb7 6dbd fac1 e2bb 496a 543d
000000e0: 0d27 5ebd 0ca3 ae3c 5236 61bc e622 e2bd
000000f0: 2a02 2ebd a126 7ebd a87e a43b d3b0 563d
00000100: 04e5 75bc a010 023d 5b77 ac3d 953e 8abb
00000110: 95ed 2d3d 4234 11bc 3824 e73c 9816 92bc
00000120: 68e1 93bd ccd6 f63c 0d4f a6bc 4715 423d
00000130: aece 843d d02b 07bc 6275 23bd 1512 39bd
00000140: 3615 d5bc 8e3b 283b 5a8f 973c ac5a 203c
00000150: c6fd a13d 558a 133c 1a34 5c3d aa3e a23c
00000160: 2cd1 523c 4276 40bc e7ec 31bd fcb4 693c
00000170: 22f2 d3bc 0f6d 343d 710e efbc de63 c53d
00000180: 81b9 2b3c cf55 303d a642 18bd 2826 df3c
00000190: 51fb c73b df74 4fbd f983 0fbc 5518 11bd
000001a0: b66c 003a 7982 7bbc 66cb 54bd 9d48 b23d
000001b0: e74d 753d af3b 21bd d7eb 613c ae17 97bd
000001c0: de6a ae3c 4082 b1bd e6b8 d43d 9c72 c5bc
000001d0: a7ae 83bc 1217 4d3b f87c aebc ef70 6e3d
000001e0: 6bec 173d 3306 753d 5acb 2f3d 1b0a 673b
000001f0: 04b9 5dbd e79d b73c ed1b 413d d36d 77bb
00000200: 706a 23bd a971 22bd 6cac 61bd b378 083d
00000210: 29c7 d0bb c4e4 22bc a42b c5bc fd74 f1bc
00000220: e67f 813d 2f5a a13d 3edf 9abc 04fc 003d
00000230: ceed 123d dc36 ddbc 9543 88bc b7b2 83bd
00000240: 98ce ca3b 7600 4fbd 71cb 003b 09b7 95bc
00000250: 3c63 f43c e748 3bbd 013e cbbc faba 24bd
00000260: 2eaf 683d a7b0 49bc 795a 5cbb 1b4f f13c
00000270: 6cbf 36bd c6c2 203d f93a 4bbd 1042 033d
00000280: c33e ed3a 5a7e 44bd e823 2b3c b32e 053d
00000290: e7c1 bcbc c7b0 9d3c 4b6d 323c 905f c23c
000002a0: d138 133d c848 93bc fe08 8e3c 5510 853d
000002b0: e4cb 2b3d 632a 113d 34b3 3e3d f750 8a3d
000002c0: 0df7 e03c e2b0 4bbd 81ce 273c c425 d83c
000002d0: 3311 5bbd 67e2 143d 487f 04bc ebdd 00bd
000002e0: 6d2e f83c 163a 853c 5ea0 473d 32f3 123d
000002f0: 5bac fa3c d715 8ebd 6043 abbd 3abb e7bc
00000300: 5518 863c c917 623d f17b 863d 03dc 93bd
00000310: cd0a 173c 249d 3bbd def7 213d ae99 703c
00000320: a4aa 2ebc c91e 443d 6747 1abd 4a5a a7bd
00000330: d127 b6bc 692f 35bd cef7 d4bd 5431 07bd
00000340: 7213 d43c ee15 773d 6e2b 1e3d 04be 193d
00000350: f12b 8c3c 6322 28bd 635c 6dbd 755d 95bc
00000360: e9b1 68bd 478b 943d 27a2 493d 5c95 f53b
00000370: 6390 1bbd 645e a4bc 74ba 8b3a 82e7 81bc
00000380: 5a72 c93c a784 e4bc d7b4 8fbd eda3 ba3d
00000390: 0d14 27bc 1ea2 c03c f082 9a3c eba8 033d
000003a0: b67a a2bd ffb4 ed3b 8582 c839 a7e4 55bc
000003b0: 6c52 563d defa 953c 9d58 683d 5a55 47bc
000003c0: c7c0 763d 8db0 bfbc af93 263d 972b 8fbc
000003d0: af9d 643d 84e0 96bc e9b7 19bc 0cd1 533c
000003e0: a79d 16bd 5e86 803d bb2d 00bc 5236 a5bc
000003f0: 6f07 263d b2c1 88ba 1647 943b 9979 3bbd
0.019707194 0.04585792 -0.040637955 -0.032846235 0.020015746 -0.01728395 0.0085494695 0.023375897
0.027804028 0.0035273726 0.024185644 -0.0390524 0.016336618 0.05200046 -0.015034332 0.04635959
-0.027280554 -0.05776468 0.036234405 -0.04617001 0.081747115 0.03711439 -0.15317625 0.07296367
0.01813924 0.0020164135 -0.020590821 0.015173065 -0.03921862 -0.029309545 -0.013462727 0.038841285
-0.033795904 -0.030095616 -0.032295644 -0.03776747 0.029753493 0.027546046 -0.036635853 0.03471079
0.010741272 0.050523713 -0.01441576 0.027006844 0.054085683 -0.05862814 0.018356001 0.04680776
0.04851497 0.03464028 -0.006227686 -0.037328064 -0.010481187 -0.05803679 -0.0069200965 0.051859174
-0.05423646 0.021317981 -0.013745861 -0.110418126 -0.042482533 -0.06204856 0.0050199814 0.052414726
-0.015008215 0.031754136 0.08421203 -0.004218886 0.042462904 -0.008862557 0.028215513 -0.01783304
-0.07220727 0.03013172 -0.020301366 0.047383573 0.064847335 -0.008250192 -0.039906867 -0.04518326
-0.02601109 0.0025670263 0.018500973 0.009787243 0.079097316 0.009005149 0.053760625 0.019805271
0.012867253 -0.011746945 -0.04343882 0.014264341 -0.025872294 0.04404932 -0.02918169 0.09638189
0.010481239 0.043050583 -0.037172936 0.027239874 0.0061029573 -0.050648566 -0.008759492 -0.035423595
0.00048990117 -0.015350931 -0.05195179 0.08705256 0.059888747 -0.03936356 0.013789139 -0.073775634
0.021291193 -0.08667421 0.10386829 -0.024102502 -0.016074492 0.0031294269 -0.021299824 0.05821317
0.0370907 0.059820365 0.04291854 0.0035253826 -0.054131523 0.02241416 0.047145773 -0.003775467
-0.03989643 -0.039659176 -0.055096075 0.033318233 -0.006371398 -0.009942237 -0.024068661 -0.02947473
0.06323223 0.07878529 -0.018905278 0.03149034 0.03587132 -0.027003698 -0.016633788 -0.064305715
0.0061891787 -0.05053755 0.001965251 -0.018275755 0.029832475 -0.045723822 -0.02480984 -0.040217377
0.05680769 -0.012310184 -0.0033623262 0.029456666 -0.044616148 0.03924825 -0.049616788 0.032045424
0.001810037 -0.04797206 0.010445572 0.03251524 -0.023041679 0.019249333 0.010890315 0.023727208
0.035942856 -0.01797904 0.017338272 0.06497256 0.041942492 0.035440814 0.04655762 0.06753724
0.027461553 -0.049729235 0.010242105 0.026385196 -0.0534832 0.036348727 -0.008086987 -0.031461637
0.030295575 0.01626305 0.048736922 0.03587646 0.030599764 -0.06937759 -0.0836246 -0.028287519
0.016369024 0.055198465 0.06566609 -0.07219698 0.009218884 -0.045804158 0.039543025 0.014685078
-0.010660801 0.04788092 -0.03766575 -0.08171518 -0.022235783 -0.044234667 -0.103988275 -0.033006027
0.025888178 0.06032365 0.038615637 0.03753473 0.017110797 -0.04104842 -0.057949435 -0.01823304
-0.056810293 0.072531275 0.049226906 0.0074946117 -0.037979495 -0.02006454 0.0010660426 -0.015857462
0.02459066 -0.027895285 -0.07016914 0.091132976 -0.010197652 0.023514803 0.018861264 0.032143515
-0.079335615 0.0072542424 0.00038244217 -0.013055003 0.052324697 0.0183081 0.056725133 -0.0121663455
0.06024244 -0.023399616 0.040668186 -0.01747684 0.05581444 -0.018417604 -0.0093822265 0.012928259
-0.036771443 0.062756285 -0.007823403 -0.020167504 0.040534433 -0.0010433702 0.0045250757 -0.04577026
