model_round_8.pth (torch, 126796 bytes, 9 tensors)

conv1.weight f4 [16, 1, 16, 3]
0	0xbf90e298	-1.1319151
1	0x3e5d04c5	0.2158385
2	0x3f84c9de	1.0374105
3	0xbf772e28	-0.96554804
4	0x3e8353c1	0.25649837
5	0x3e5ea0aa	0.21740976
6	0xbf707463	-0.9392759
7	0xbe307fcb	-0.17236249
8	0xbe399fb0	-0.18127322
9	0xbef7e33c	-0.48415554
10	0xbef83da9	-0.48484543
11	0x3f262279	0.6489635
12	0xbeef345c	-0.46719635
13	0xbcf4a7cc	-0.029865168
14	0x3e8d345d	0.27579013
15	0x3dbbcf29	0.09170372
16	0xbe8949db	-0.2681416
17	0xbd55d4c2	-0.052204855
18	0x3eb9d037	0.36291668
19	0xbe5b02d7	-0.21387802
20	0x3ed90c4a	0.42392188
21	0x3d9986d1	0.07496417
22	0xbfc5cf74	-1.5453935
23	0x3e56b219	0.20966376
24	0x3eb8a105	0.36060348
25	0xbfcfe3c3	-1.6241382
26	0xbdc008dc	-0.0937669
27	0xbd823a78	-0.06358808
28	0xbf9c4d15	-1.2211024
29	0xbf5b4b20	-0.85661507
30	0x3f281c61	0.656683
31	0xbea722cc	-0.32643735
32	0x3df3b57a	0.11899848
33	0x3ec12484	0.37723172
34	0xbed70f17	-0.420037
35	0x3f0108a2	0.504038
36	0x3f60fe83	0.87888354
37	0x3f492f5d	0.78587896
38	0x3dc591aa	0.09646924
39	0xbed66712	-0.4187551
40	0x3d223fbd	0.039611567
41	0xbf7e4d24	-0.9933646
42	0x3ee93876	0.4555089
43	0x3cf51c0a	0.029920597
44	0x3ef3b915	0.47602144
45	0xbf339c52	-0.701604
46	0xbf088a62	-0.53336155
47	0xbf245552	-0.6419269
48	0x3e9bac6a	0.3040498
49	0xbe314b7a	-0.17313948
50	0x3eaddf2f	0.33959338
51	0x3ec72e66	0.38902587
52	0xbf492b7e	-0.7858199
53	0xbf2395c0	-0.63900375
54	0x3f8203cd	1.015741
55	0xbeedbb75	-0.4643208
56	0xbc2e791e	-0.010648994
57	0xbf624eaa	-0.8840128
58	0xbdbcf8ec	-0.092271656
59	0x3ed5cf43	0.4175969
60	0xbdca2015	-0.098694004
61	0xbe18e36b	-0.14930503
62	0x3da131a9	0.078708
63	0x3e8ea632	0.27861172
64	0xbe6e4350	-0.23267865
65	0xbecbba14	-0.39790404
66	0x3f739960	0.95155907
67	0xbe801d0e	-0.25022167
68	0xbf24d563	-0.643881
69	0xbff1b7d7	-1.8884228
70	0xbf1e1205	-0.61746246
71	0xbec0de28	-0.37669492
72	0xbeae3f63	-0.34032735
73	0xbedbab3f	-0.42904088
74	0xbf006992	-0.5016109
75	0x3ed84a1c	0.4224404
76	0xbe38f698	-0.18062818
77	0xbd792435	-0.060825545
78	0x3ef17939	0.47162798
79	0xbe9e9e60	-0.30980206
80	0xbec16d71	-0.3777881
81	0xbf902590	-1.1261463
82	0x3efcd7fb	0.4938353
83	0xbee5523e	-0.44789308
84	0x3ee9f31c	0.4569329
85	0x3e770122	0.24121526
86	0xbf077a17	-0.5292067
87	0x3ef2bfca	0.47411948
88	0xbe5152b4	-0.20441705
89	0xbf6e2438	-0.93024015
90	0x3d9dae48	0.07699257
91	0xbe9cc9c1	-0.30622676
92	0xbf6aa90c	-0.91664195
93	0xbfc01048	-1.5004969
94	0x3fa58c1f	1.2933387
95	0xbe1d32de	-0.15351436
96	0xbf6e07b7	-0.9298052
97	0xbf8e97f7	-1.1140126
98	0x3e96a9d5	0.29426447
99	0xbe635c35	-0.22203143
100	0x3f196c32	0.5993072
101	0xbea2770d	-0.31731454
102	0xbe9f3207	-0.31092855
103	0x3ea45d84	0.32102597
104	0xbe1e60ad	-0.15466566
105	0xbee8b12e	-0.45447677
106	0x3e99e330	0.30056143
107	0xbf044761	-0.51671416
108	0xbe933462	-0.28750902
109	0x3f037877	0.5135569
110	0xbf042d24	-0.5163138
111	0xbf0ab20d	-0.54177934
112	0x3e9e38c1	0.30902675
113	0xbefd4fa7	-0.49474832
114	0xbf676323	-0.90385646
115	0xbe8e4f29	-0.2779477
116	0xbea8472a	-0.32866794
117	0xbdb452f5	-0.08804885
118	0x3e73cebc	0.23809332
119	0xbf143677	-0.57895607
120	0x3d643292	0.05571229
121	0x3dafa1de	0.085757956
122	0xbf0e9609	-0.55697685
123	0x3d240e31	0.040052596
124	0x3ebf463b	0.3735827
125	0xbec78957	-0.3897197
126	0x3eaac973	0.3335682
127	0x3f3d3bf9	0.73919636
128	0xbe108c1a	-0.14115945
129	0xbe9eff63	-0.3105422
130	0x3ea7869e	0.32719892
131	0xbda977eb	-0.08274826
132	0xbddf91f2	-0.10916509
133	0xbb0c6a25	-0.0021425572
134	0xbc234673	-0.009965527
135	0x3a2dc9b3	0.0006629482
136	0x3e1ac9a2	0.1511598
137	0xbd501ac1	-0.050806765
138	0x3bba6891	0.005688735
139	0x3f2f0ede	0.6838206
140	0x3ec3b70d	0.38225594
141	0x3f5bc2ed	0.8584431
142	0xbe19c6fe	-0.15017316
143	0xbefbf2dd	-0.49208727
144	0xbee99bc8	-0.45626664
145	0x3e17828b	0.14795892
146	0xbe2382cb	-0.15967862
147	0x3ecbdad8	0.39815402
148	0xbf4137d1	-0.75475794
149	0xbd86adb7	-0.06576102
150	0xbd0c0740	-0.0341866
151	0xbdfb4d4c	-0.122706026
152	0xbeaed250	-0.3414483
153	0xbe6465e9	-0.223045
154	0xbed89ac7	-0.42305586
155	0xbedd175c	-0.43181884
156	0xbeb20607	-0.34770223
157	0x3e4e6132	0.20154265
158	0x3e4c38ac	0.19943494
159	0xbf44b2ad	-0.7683514
160	0xbecfa83d	-0.40558043
161	0xbeb8dcdf	-0.3610601
162	0xbeb139f7	-0.34614536
163	0xbf306e9e	-0.6891879
164	0xbf0a4445	-0.5401042
165	0x3e5bbd8a	0.21459022
166	0xbf79f266	-0.97635496
167	0x3da6f746	0.081526324
168	0x3eaa1c9d	0.33224955
169	0xbf78f15b	-0.9724328
170	0xbe74ab84	-0.23893553
171	0xbf6f0a5d	-0.9337519
172	0x3b373672	0.0027956036
173	0x3e4c5ca5	0.19957216
174	0xbd7c5032	-0.061599918
175	0xbd791130	-0.060807407
176	0xbebaa98b	-0.36457476
177	0x3daed90b	0.085374914
178	0xbf49de43	-0.7885477
179	0xbeff216b	-0.49830183
180	0x3f2b8972	0.670066
181	0xbdc7f236	-0.09762995
182	0x3ce2db63	0.027692502
183	0xbfbc1337	-1.4693364
184	0x3f55219f	0.83254427
185	0x3e70d149	0.23517336
186	0x3eebbae4	0.46041024
187	0x3fc2f116	1.5229824
188	0xbda93abd	-0.082631566
189	0xbdbb0e5c	-0.09133598
190	0x3fb16b72	1.3860915
191	0x3e2b69ef	0.16739629
192	0xbe217e9e	-0.15770957
193	0x3e8184a3	0.25296506
194	0xbe28e9e4	-0.16495472
195	0xbebf4d51	-0.37363675
196	0xbc561dae	-0.0130686
197	0xbdc48a94	-0.09596744
198	0xbf5123dd	-0.8169535
199	0x3df741c3	0.1207309
200	0xbde044b3	-0.10950603
201	0x3b7bb60d	0.0038408071
202	0x3ec76f9e	0.38952345
203	0xbeed0567	-0.46293184
204	0xbea8f136	-0.3299653
205	0xbdf7386b	-0.12071308
206	0xbe39bd7d	-0.1813869
207	0x3e464cd9	0.19365253
208	0x3e662a60	0.22477102
209	0xbddf2d02	-0.108972564
210	0x3e32fe0d	0.17479725
211	0xbe78c52d	-0.24293967
212	0x3dca7680	0.09885883
213	0xbe1d175e	-0.15340945
214	0xbd557029	-0.052108917
215	0x3eaf3885	0.34222808
216	0x3c8405a7	0.016115976
217	0x3e5894f2	0.21150568
218	0xbf2021ff	-0.62551874
219	0xbc38afba	-0.011272365
220	0x3e67a753	0.22622423
221	0xbd7fe7b5	-0.062476832
222	0xbf04dd68	-0.5190034
223	0xbe34a045	-0.17639263
224	0x3db16376	0.08661549
225	0xbd3647b5	-0.04450198
226	0x3e83c357	0.2573497
227	0x3ef6732c	0.48134744
228	0xbedf97d1	-0.43670514
229	0x3f19b9ba	0.6004902
230	0xbe88508a	-0.26623946
231	0x3f943d46	1.1581199
232	0x3fcd8ab2	1.6057951
233	0x3e99cf82	0.30041128
234	0xbf9fc3c0	-1.2481613
235	0xbe9b0902	-0.3028031
236	0x3dda7a62	0.10667874
237	0xbfb67eae	-1.425741
238	0xbe54851f	-0.20753907
239	0x3f3f2e0b	0.7467963
240	0xbfb4bc26	-1.4119918
241	0xbe4cc717	-0.19997822
242	0xbe58f7b0	-0.21188235
243	0x3dbb6948	0.0915094
244	0x3f029135	0.5100282
245	0xbdbdbc6a	-0.09264453
246	0x3ecd52bd	0.40102187
247	0x3f048a14	0.5177319
248	0x3f0b7938	0.5448184
249	0x3ec5cea9	0.38634232
250	0x3e867b59	0.26265982
251	0x3dc3c43c	0.09558913
252	0xbb9e6cdd	-0.004834755
253	0xbe0325bd	-0.12807365
254	0xbf0bc0dc	-0.54591155
255	0xbe83d1de	-0.25746053

conv1.bias f4 [16]
0	0x3db3499a	0.08754273
1	0x3f20c9ab	0.6280772
2	0xbeb1f49d	-0.34756938
3	0x3f4d7e7c	0.80271125
4	0xbf4f4651	-0.8096667
5	0xbe391457	-0.18074165
6	0xbe81a2db	-0.2531956
7	0xbd2a2e49	-0.041548047
8	0xbf25fdb7	-0.64840263
9	0x3e069b2a	0.13145128
10	0xbd0e810c	-0.034791037
11	0xbe032962	-0.12808755
12	0xbe0bc41b	-0.13649027
13	0x3af7e3d4	0.0018912503
14	0x3ebea34f	0.3723397
15	0xbef5c886	-0.4800455

conv2.weight f4 [16, 16, 3, 5]
0	0xbe32a668	-0.17446291
1	0xbdd6c60a	-0.10486992
2	0xbf63aacc	-0.8893249
3	0xbf704117	-0.9384932
4	0xbf8f0a25	-1.1174971
5	0xbf1c1131	-0.6096373
6	0xbf6d8eb3	-0.92795867
7	0xbe5c7c34	-0.21531755
8	0xbf89fde2	-1.0780604
9	0xbe87c61f	-0.26518342
10	0xbf8526a3	-1.0402416
11	0x3ea286bc	0.3174342
12	0xbe998d80	-0.29990768
13	0xbf4e0586	-0.8047718
14	0xbf4b0ac9	-0.7931333
15	0x3df7c8ad	0.12098823
16	0xbed4764d	-0.41496506
17	0xbf90c4fd	-1.1310116
18	0xbf3045f5	-0.68856746
19	0xbf51a7f2	-0.8189689
20	0xbed2c043	-0.4116231
21	0x3d47a348	0.0487397
22	0xbf11aa0c	-0.56900096
23	0xbf060898	-0.52356863
24	0xbf045d58	-0.5170493
25	0x3e20fae2	0.15720704
26	0xbe8f2d87	-0.27964422
27	0xbe3535fd	-0.17696376
28	0xbec72010	-0.3889165
29	0xbec83ec2	-0.3911038
30	0xbeded420	-0.43521214
31	0xbece4597	-0.40287468
32	0xbf2f245a	-0.68414843
33	0xbf7b0105	-0.9804843
34	0xbe2bf1a1	-0.16791393
35	0xbd3bf9d1	-0.04589254
36	0x3ec46829	0.38360718
37	0xbe5eb005	-0.21746834
38	0xbee73adc	-0.45162094
39	0xbde420e0	-0.11139083
40	0xbe61f0e9	-0.22064556
41	0xbe2a1aa5	-0.16611727
42	0xbf3ca020	-0.7368183
43	0x3eaa2d8b	0.33237872
44	0x3ef2361b	0.47306904
45	0x3e223f63	0.15844493
46	0xbea500c5	-0.3222715
47	0xbef08884	-0.46979153
48	0xbe91f70f	-0.28508803
49	0xbd96e415	-0.07367722
50	0xbefe9367	-0.49721834
51	0x3e951b00	0.29122162
52	0xbf39a5b5	-0.72518474
53	0x3e8e8c64	0.27841485
54	0x3ec183c4	0.37795842
55	0x3f6d50f3	0.92701644
56	0xbebe09e5	-0.37116924
57	0xbe632aa6	-0.22184238
58	0x3d0e721e	0.0347768
59	0x3e674433	0.2258461
60	0xbf7f28f0	-0.9967184
61	0xbedee094	-0.43530715
62	0xbeba32b1	-0.363668
63	0xbf24c4fb	-0.6436307
64	0xbddea528	-0.10871345
65	0xbd0a0595	-0.03369673
66	0xbe105859	-0.14096202
67	0x3dff2c99	0.12459678
68	0x3ecb5591	0.3971372
69	0xbdd48030	-0.10376012
70	0xbf3b0453	-0.73053473
71	0x3cf977fc	0.03045272
72	0xbd434149	-0.047669683
73	0xbd1f5d35	-0.03890725
74	0xbed31a02	-0.4123078
75	0xbf356495	-0.708566
76	0x3e89953d	0.26871672
77	0xbe64c561	-0.22340919
78	0xbf35d9bc	-0.7103536
79	0x3ec0f5c9	0.3768752
80	0xbf7d0937	-0.98842186
81	0x3dba43e0	0.090949774
82	0x3f68074a	0.9063612
83	0xbeea7b1c	-0.4579705
84	0xbe957fde	-0.29199117
85	0xbd36fcdf	-0.04467475
86	0xbea1acaf	-0.3157706
87	0x3de4baec	0.11168465
88	0x3e33aaf1	0.17545678
89	0x3e3aedb5	0.1825474
90	0xbead4481	-0.33841327
91	0x3c275392	0.010212796
92	0xbe53510e	-0.20636389
93	0xc001cb71	-2.028042
94	0x3d737ec3	0.05944706
95	0xbfaa6de7	-1.331479
96	0x3f334050	0.7002001
97	0x3f2024be	0.62556064
98	0xbf64da57	-0.8939566
99	0xbf12f285	-0.57401305
100	0xbedba7a7	-0.42901346
101	0xbf9a6380	-1.2061615
102	0xbf2509f8	-0.64468336
103	0x3da18d65	0.07888297
104	0xbf5df0cc	-0.8669555
105	0x3d8e24af	0.069405906
106	0xbeb82acf	-0.3597016
107	0xbfbfb75d	-1.4977833
108	0x3eeded6a	0.46470195
109	0xbfd8bd02	-1.6932681
110	0x3e5a3922	0.21310857
111	0xbe31c2ab	-0.17359416
112	0x3e295803	0.1653748
113	0xbe43ff48	-0.19140351
114	0xbf69f495	-0.9138883
115	0xbf6414fa	-0.8909451
116	0xbf271f17	-0.65281814
117	0x3e44b63a	0.19210139
118	0xbea32dc0	-0.31870842
119	0xbd53c99f	-0.051705953
120	0x3ef07d43	0.46970567
121	0x3e2c2d2c	0.16814107
122	0xbe461bcb	-0.1934654
123	0x3c802970	0.015644759
124	0xbeab8535	-0.33500066
125	0x3dc49263	0.095982336
126	0xbf84b12b	-1.0366567
127	0x3df0f5d9	0.11765642
128	0x3d1a1edb	0.037627082
129	0xbf61aeb2	-0.8815719
130	0xbe8fdd05	-0.28098312
131	0xbf505f30	-0.81395245
132	0xbcda9f91	-0.026687415
133	0xbe0f43ad	-0.1399066
134	0xbf627a06	-0.88467443
135	0xbe76fad1	-0.24119116
136	0xbf1155c7	-0.5677151
137	0xbeb436f8	-0.35198188
138	0xbf580ed7	-0.84397644
139	0xbcc8d3c6	-0.024515044
140	0xbde6ad97	-0.112635784
141	0xbf39f061	-0.72632414
142	0x3ce5698d	0.028004432
143	0xbf5ef3e5	-0.87090904
144	0xbe54e7f9	-0.20791616
145	0xbf8a9725	-1.0827376
146	0xbb847d75	-0.004043276
147	0x3f13e800	0.5777588
148	0xbf0b3cfe	-0.5438994
149	0xbeccbef4	-0.39989436
150	0xbf866652	-1.0499976
151	0xbdbc6220	-0.09198403
152	0xbeb7e577	-0.35917255
153	0xbeb72df8	-0.3577726
154	0x3df02ff5	0.11727897
155	0x3f04db2e	0.5189694
156	0x3edb7a90	0.42866945
157	0xbf418d36	-0.75606096
158	0xbd5e6a12	-0.054300375
159	0xbf10ca84	-0.56559014
160	0xbebab0b1	-0.3646293
161	0xbf131ee6	-0.5746902
162	0xbcd1e120	-0.025620043
163	0x3e02a059	0.1275648
164	0x3f19b518	0.6004195
165	0xbeab55ae	-0.33463806
166	0x3db7c112	0.08972372
167	0xbe53989b	-0.20663683
168	0xbd41f4e4	-0.047352687
169	0x3e548e6a	0.20757452
170	0xbf78a315	-0.97123843
171	0x3c62dd40	0.013846695
172	0x3f0406ae	0.5157269
173	0xbe604ed2	-0.21905068
174	0xbe173aae	-0.14768478
175	0xbf6654b6	-0.8997301
176	0xbe694a3c	-0.22782224
177	0x3d192c45	0.037395734
178	0xbf09cb90	-0.53826237
179	0xbd436bd6	-0.047710262
180	0xbf89d30d	-1.0767533
181	0x3ecf5685	0.40495697
182	0x3f095a65	0.53653556
183	0xbf80eeb2	-1.0072844
184	0xbe800bd7	-0.25009033
185	0xbfd815a9	-1.688161
186	0xbefd3c50	-0.49460077
187	0x3f04fd8a	0.5194937
188	0x3d76f822	0.06029523
189	0x3c94fa31	0.018185707
190	0xbfa8c824	-1.3186078
191	0xbe764c95	-0.24052651
192	0xbeed4f1b	-0.46349415
193	0xbe54ba82	-0.20774272
194	0x3bafc548	0.005364094
195	0xbcceb0ca	-0.025230784
196	0xbeaba14d	-0.335215
197	0xbf120686	-0.57041204
198	0xbe8a7608	-0.27043176
199	0xbe77ffb8	-0.24218643
200	0x3d98920d	0.07449732
201	0x3ec0456a	0.3755296
202	0xbf07a8ee	-0.5299214
203	0xbee5aaa4	-0.4485675
204	0x3e9255bf	0.28581044
205	0x3e27e086	0.16394243
206	0xbd570d70	-0.05250305
207	0xbe8076b4	-0.25090563
208	0x3e0d7b53	0.13816576
209	0xbe86b645	-0.26310936
210	0xbfa4e892	-1.2883475
211	0xbdc38dbf	-0.0954852
212	0xbcdb9e97	-0.02680902
213	0xbf54c4bb	-0.83112687
214	0xbdb7807c	-0.08960053
215	0xbe9ce5a0	-0.3064394
216	0xbf573c75	-0.84076625
217	0xbde3925c	-0.111119
218	0xbdb0f450	-0.08640349
219	0xbf0a70c3	-0.5407831
220	0xbba7e227	-0.005123395
221	0xbf1ff7ed	-0.6248768
222	0xbef676eb	-0.48137602
223	0xbdaa1421	-0.083046205
224	0xbe03de2d	-0.12877722
225	0xbeaed174	-0.34144175
226	0xbed8bb65	-0.4233047
227	0xbd821b92	-0.06352915
228	0x3dd8c72d	0.10584865
229	0xbf234693	-0.6377956
230	0xbf21b970	-0.6317358
231	0xbeede981	-0.46467212
232	0x3ec81c7d	0.39084235
233	0xbe711a32	-0.23545149
234	0xbf0c46f0	-0.5479574
235	0xbedb6230	-0.4284835
236	0x3e0ae44e	0.13563654
237	0x3d87e37f	0.06635188
238	0xbe92a6b2	-0.28642803
239	0xbee6ae81	-0.4505501
240	0x3e0022b3	0.12513237
241	0xbc82ed28	-0.015982226
242	0xbf6fcbc2	-0.93670285
243	0xbec5d6ba	-0.38640386
244	0xbf2c76cb	-0.67368764
245	0xbedc2a24	-0.430009
246	0xbef2d798	-0.4743011
247	0xbfaed2cf	-1.3658084
248	0xbf839861	-1.0280877
249	0x3e06aff5	0.1315306
250	0xbf387d9e	-0.72066677
251	0xbf6e0164	-0.9297087
252	0xbf6e2a8d	-0.9303368
253	0xbf601a27	-0.87539905
254	0xbda606a2	-0.08106734
255	0xbe8faaeb	-0.28060088

conv2.bias f4 [16]
0	0x3e92a43f	0.28640935
1	0xbebfb6ee	-0.37444252
2	0xbdc0da6d	-0.094166614
3	0xbf8dc4bd	-1.1075665
4	0xbe3761d5	-0.17908414
5	0x3d5209fe	0.05127906
6	0xbec0107f	-0.37512586
7	0xbf2116f6	-0.6292566
8	0xbe4b2adc	-0.19840568
9	0xbcbedd6a	-0.023298938
10	0xbf54f48d	-0.83185655
11	0xbf15ac03	-0.58465594
12	0xbf6fcc48	-0.93671083
13	0xbf3b07e9	-0.73058945
14	0xbcc7be0f	-0.02438262
15	0xbec1a814	-0.37823546

conv3.weight f4 [32, 16, 8, 3]
0	0xbed4987f	-0.41522595
1	0x3d646efa	0.055769898
2	0x3d05db6c	0.03267996
3	0xbee31237	-0.44349834
4	0xbf17c703	-0.5928804
5	0xbe1359c4	-0.14389712
6	0xbf114d7a	-0.56758845
7	0xbd5818d4	-0.052758053
8	0xbd9102c5	-0.07080606
9	0xbf2b4837	-0.66907066
10	0xbe7f823e	-0.24952027
11	0xbf1af010	-0.60522556
12	0xbf19f714	-0.60142636
13	0xbe231d1c	-0.15929073
14	0x3e38562a	0.18001619
15	0x3e29b4a4	0.16572815
16	0xbe047af3	-0.12937526
17	0xbdc903bb	-0.09815165
18	0x3e88acb5	0.26694265
19	0xbf10f7b3	-0.5662796
20	0xbdf1e3a7	-0.11810999
21	0x3dad77eb	0.08470138
22	0xbe58ac3e	-0.21159455
23	0xbdbfd2ba	-0.09366365
24	0x3f3e7ea4	0.7441199
25	0x3ba9d3db	0.005182726
26	0x3dbac817	0.09120195
27	0x3e682fbc	0.22674459
28	0x3b9d1b1c	0.0047944915
29	0xbe1d69b8	-0.1537236
30	0xbe9b3ea3	-0.30321226
31	0xbdd8e74e	-0.10590993
32	0x3b8f2ba0	0.004369214
33	0xbef5547b	-0.47916016
34	0xbd3b8553	-0.045781445
35	0xbf5f44fa	-0.87214625
36	0xbee791a3	-0.452283
37	0xbea8bc38	-0.329561
38	0xbf048115	-0.51759464
39	0xbe8f558c	-0.27994955
40	0x3e5546bc	0.20827764
41	0xbebe3698	-0.37151027
42	0xbe6612e4	-0.22468144
43	0xbe1fb6c7	-0.15597068
44	0x3edea462	0.4348479
45	0x3e1af4cd	0.15132447
46	0xbda543b2	-0.080695525
47	0x3e825ad4	0.2545992
48	0xbe307dc1	-0.17235471
49	0xbebf3e72	-0.3735233
50	0xbdd2bfc9	-0.10290486
51	0xbec1f97a	-0.37885648
52	0x3e9d7c94	0.30759108
53	0xbd8fdd43	-0.07024624
54	0x3d9dd72f	0.07707059
55	0xbe8ed56d	-0.27897206
56	0x3e296130	0.1654098
57	0xbe89c236	-0.26905984
58	0xbecbd55c	-0.39811218
59	0xbea8c114	-0.32959807
60	0xbe71411e	-0.23559996
61	0x3c821d36	0.01588307
62	0xbe258d6e	-0.16167232
63	0xbf120a59	-0.5704704
64	0x3e6cabe1	0.23112442
65	0x3d22fb85	0.03979065
66	0xbeb61442	-0.3556233
67	0x3e8be01f	0.27319428
68	0xbdb1ecaf	-0.08687722
69	0xbc2c784f	-0.010526731
70	0xbda07e34	-0.07836571
71	0xbf2389e1	-0.6388226
72	0xbee308f0	-0.44342756
73	0xbf3303f3	-0.699279
74	0xbf47de83	-0.780739
75	0xbede4202	-0.43409735
76	0xbef47f6a	-0.4775346
77	0xbec4d7ec	-0.38445985
78	0xbd885532	-0.06656875
79	0xbf3bcc28	-0.7335839
80	0x3f1d48e6	0.6143936
81	0xbf540c50	-0.8283129
82	0xbf2aa52f	-0.666583
83	0xbf3c0918	-0.73451376
84	0xbec58a6c	-0.3858217
85	0xbf409482	-0.75226605
86	0xbec37f5c	-0.38183105
87	0xbf8897d1	-1.0671331
88	0xbc3e9ef6	-0.011634579
89	0xbec1cccf	-0.3785157
90	0xbee9d942	-0.45673567
91	0xbdd8038b	-0.10547551
92	0xbf0aa991	-0.5416499
93	0xbf43b298	-0.7644439
94	0xbf291535	-0.66047984
95	0xbdc224c9	-0.094796725
96	0xbeb79ce1	-0.35861877
97	0xbcc9d068	-0.024635509
98	0xbea7b951	-0.32758573
99	0xbea77422	-0.3270579
100	0xbf365bcf	-0.7123384
101	0x3dc882cb	0.09790572
102	0xbe25056d	-0.16115351
103	0x3ce0abc2	0.02742565
104	0xbe0d2fec	-0.13787812
105	0x3c307756	0.010770639
106	0xbeca8f50	-0.39562464
107	0xbe65a996	-0.22427973
108	0xbe637fe7	-0.2221676
109	0xbeb2b86c	-0.34906328
110	0xbebcaa47	-0.3684866
111	0x3bb47912	0.005507597
112	0xbe12dacd	-0.14341278
113	0xbea70b18	-0.3262565
114	0x3dcc2003	0.09967043
115	0x3d99d6ab	0.07511648
116	0xbe189046	-0.14898786
117	0xbd3185e3	-0.043340575
118	0x3d77a88a	0.060463466
119	0xbdc166e0	-0.0944345
120	0xbf3e8592	-0.7442256
121	0xbdd08050	-0.10180724
122	0xbf9bb073	-1.2163223
123	0xbea5e103	-0.32398233
124	0x3f2db0bf	0.6784782
125	0x3e046c81	0.12932016
126	0xbd3a1e17	-0.045438852
127	0xbee8d26b	-0.45473036
128	0xbee1a57d	-0.4407157
129	0xbf89d192	-1.0767081
130	0xbdab38a3	-0.08360412
131	0xbcc2892e	-0.023747053
132	0xbe148e06	-0.14507303
133	0xbe2f1a87	-0.17099963
134	0x3d91987b	0.071091615
135	0x3d21ee01	0.03953362
136	0x3be62be2	0.007024274
137	0xbdccefec	-0.10006699
138	0xbf73f5ff	-0.95297235
139	0x3e2490e9	0.16070904
140	0xbe42de19	-0.19030036
141	0x3d7f99cc	0.06240253
142	0x3decfa33	0.11571159
143	0xbf279eb0	-0.6547651
144	0xbe09e56e	-0.13466427
145	0xbe9a4fde	-0.3013906
146	0xbee68007	-0.45019552
147	0x3f0f1fc0	0.5590782
148	0xbec44ea9	-0.38341263
149	0xb87f092b	-6.0805276e-05
150	0xbed4bbb0	-0.41549444
151	0xbee8fce6	-0.45505446
152	0xbe969213	-0.2940832
153	0xbe9af6e4	-0.30266488
154	0xbed6633e	-0.4187259
155	0xbf1f57f5	-0.62243587
156	0xbec996a1	-0.39372733
157	0xbe8564ed	-0.26053563
158	0xbf0ef9db	-0.5585
159	0x3c8f317f	0.017479656
160	0xbec2025e	-0.3789243
161	0xbeba028f	-0.36330077
162	0x3e61d385	0.22053345
163	0xbec3d3ee	-0.38247627
164	0xbf081eb1	-0.5317183
165	0xbf030802	-0.51184094
166	0xbea7dd3c	-0.32785976
167	0xbe83ab57	-0.2571666
168	0x3e4de53c	0.20106977
169	0x3df75606	0.120769545
170	0xbee015bf	-0.4376659
171	0xbe670618	-0.22560918
172	0xbed5ce0f	-0.41758773
173	0xbf25c22a	-0.64749396
174	0xbf00dfb1	-0.50341326
175	0xbdda2c7f	-0.10653018
176	0xbeb5a530	-0.3547759
177	0xbecbe502	-0.39823157
178	0xbeac8a8d	-0.33699456
179	0xbdfcf3ad	-0.12351165
180	0xbe889cf7	-0.26682255
181	0xbefe3b35	-0.49654546
182	0xbdf8777f	-0.12132167
183	0x3e467b4c	0.19382972
184	0x3d1f7d57	0.038937893
185	0xbe2ff047	-0.17181502
186	0x3b5a8495	0.0033343185
187	0x3dca47cb	0.09876975
188	0xbe711ef7	-0.23546968
189	0xbf969488	-1.1764078
190	0xbe8bf480	-0.27334976
191	0xbed0b1e0	-0.40760708
192	0xbe7f219b	-0.24915163
193	0xbe8ef087	-0.27917883
194	0xbe2d1f63	-0.16906504
195	0x3e65d159	0.22443141
196	0xbe9f345d	-0.31094638
197	0xbe4e55a7	-0.20149861
198	0xbee4ba31	-0.44673303
199	0xbe3e9b7d	-0.18614002
200	0xbe758e2f	-0.2398002
201	0x3e203939	0.15646829
202	0xbeafeb73	-0.3435932
203	0xbe7d74f1	-0.24751641
204	0xbd62fa0a	-0.055414237
205	0xbe61e05f	-0.22058247
206	0xbf4bcd58	-0.79610205
207	0xbd3cf1f6	-0.04612919
208	0x3e1a7608	0.15084088
209	0xbe85a7e3	-0.2610465
210	0xbe8e7254	-0.278216
211	0xbeb7f935	-0.35932317
212	0xbf9873b8	-1.1910315
213	0xbd3d41b8	-0.046205252
214	0xbe027efe	-0.12743756
215	0xbed112a1	-0.40834525
216	0x3de49bd1	0.11162532
217	0xbe415dde	-0.18883464
218	0xbe437469	-0.19087376
219	0xbf0f3ff9	-0.5595699
220	0xbefbff86	-0.49218386
221	0xbe8ef71e	-0.2792291
222	0xbf4cb653	-0.79965705
223	0xbf503efd	-0.8134611
224	0x3df228d3	0.11824193
225	0x3eb07381	0.34463122
226	0x3e40c7f6	0.18826279
227	0x3d195fbb	0.03744481
228	0x3e281160	0.16412878
229	0x3e1b9145	0.15192135
230	0x3f1f2cbe	0.62177646
231	0xbe784342	-0.24244407
232	0xbf8ae651	-1.0851537
233	0xbe8bc4d3	-0.27298602
234	0xbe198858	-0.14993417
235	0xbc76801e	-0.015045194
236	0xbe95c132	-0.2924896
237	0xbe6352b3	-0.22199516
238	0xbe3ec87e	-0.18631169
239	0xbd6115e5	-0.05495252
240	0xbf27e6a0	-0.6558628
241	0xbe68c87a	-0.22732726
242	0xbf82e26d	-1.022535
243	0xbeb3468b	-0.35014758
244	0xbf37849f	-0.7168674
245	0xbd00b9ae	-0.031427078
246	0xbe99c729	-0.3003476
247	0xbe9363a2	-0.2878695
248	0xbf650d1d	-0.89473134
249	0x3e4fa134	0.20276338
250	0xbd8ccd6c	-0.068751186
251	0xbe51c465	-0.20485075
252	0xbdda4db5	-0.10659353
253	0xbdb9f19d	-0.09079287
254	0xbf4740a5	-0.77833015
255	0xbf286a60	-0.65787315

conv3.bias f4 [32]
0	0xbf0b207f	-0.5434646
1	0x3dffb418	0.12485522
2	0xbf0a1fc6	-0.5395473
3	0xbec94325	-0.3930904
4	0xbf55fc6d	-0.83588296
5	0xbf4e5673	-0.8060066
6	0xbfaa71fa	-1.3316033
7	0xbf423f3a	-0.75877726
8	0x3ec6bd62	0.38816363
9	0xbcf8d4cd	-0.030374909
10	0x3f2acb85	0.66716796
11	0xbe8ac56b	-0.27103743
12	0xbefbe7ba	-0.4920023
13	0xbed8e3fc	-0.42361438
14	0xbf4c775e	-0.7986964
15	0xbfe1d8d0	-1.7644291
16	0x3f624891	0.8839198
17	0xbf966e7d	-1.1752468
18	0xbdcb2a21	-0.09920145
19	0xbf21ea56	-0.63248193
20	0x3f66a6ed	0.9009846
21	0xbeaaf8cc	-0.33392942
22	0xbe81fb3a	-0.25386983
23	0x3d3ee981	0.046609405
24	0xbee96888	-0.45587564
25	0xbfb3ddd4	-1.4052072
26	0xbf0e10ef	-0.5549459
27	0xbf647fb2	-0.8925735
28	0x3f3701f9	0.71487385
29	0xbf106e44	-0.5641825
30	0xbf1c99d8	-0.61172247
31	0x3f45ead5	0.7731145

conv4.weight f4 [32, 32, 4, 3]
0	0xbdabc497	-0.08387106
1	0xbe61959d	-0.22029729
2	0x3e0940fe	0.13403699
3	0xbed084c0	-0.4072628
4	0xbc5959bd	-0.013266024
5	0xbec9050f	-0.39261672
6	0xbea08665	-0.31352535
7	0xbe683edb	-0.22680227
8	0xbe8bd6c6	-0.27312297
9	0xbeb5128a	-0.35365707
10	0xbe05c557	-0.1306356
11	0xbcb8f228	-0.022576407
12	0xbe357136	-0.17718968
13	0xbb7ec032	-0.0038871882
14	0xbc83ea3b	-0.0161029
15	0x3d4c2684	0.04984142
16	0xbd1eceb3	-0.038771342
17	0xbe0a594d	-0.13510628
18	0xbe8c0217	-0.27345344
19	0xbceae091	-0.028671535
20	0xbe9d73a2	-0.30752283
21	0xbd9a718a	-0.07541187
22	0xbe76f6be	-0.24117562
23	0xbede2037	-0.43383953
24	0xbeaae248	-0.33375764
25	0x3c1f50b4	0.009723831
26	0xbd1cd35c	-0.038287506
27	0xbe737c4c	-0.23777884
28	0xbdf441a3	-0.11926582
29	0xbe0990fc	-0.13434213
30	0xbd94ca5b	-0.07265159
31	0xbebcb42f	-0.3685622
32	0xbdf2ba8d	-0.11851988
33	0xbb1c26b4	-0.002382678
34	0xbe2897d0	-0.16464162
35	0xbe35f8ad	-0.17770644
36	0xbf02250e	-0.5083779
37	0x3bc04628	0.0058677383
38	0x3e29c7f4	0.16580182
39	0xbb93dec9	-0.004512642
40	0xbeba65bc	-0.36405742
41	0x3e28e2f0	0.1649282
42	0xbe1cceb0	-0.1531322
43	0x3ddbaf1c	0.10726759
44	0xbe48d861	-0.19613792
45	0x3d99bda2	0.07506873
46	0xbee1fbf9	-0.44137552
47	0x3dcad77d	0.099043824
48	0x3e97619f	0.29566666
49	0xbea9ab47	-0.33138487
50	0xbe20b327	-0.15693341
51	0xbd0fc806	-0.035102867
52	0xbd88977c	-0.06669518
53	0xbe8aa2f9	-0.27077463
54	0xbd8c8e4b	-0.06863078
55	0xbe8ffe70	-0.28123808
56	0xbcd1ac61	-0.025594892
57	0xbd9d5859	-0.076828666
58	0xbed97cb1	-0.42477944
59	0xbeaccdbc	-0.33750713
60	0xbe8c8738	-0.27446914
61	0xbe0dd464	-0.13850552
62	0x3e68000b	0.22656266
63	0xbe0c6c2b	-0.13713138
64	0xbd743aca	-0.059626378
65	0xbe7122ec	-0.23548478
66	0x3e0eac68	0.13932955
67	0xbea1474f	-0.31499717
68	0x3cb94776	0.022617083
69	0xbea97701	-0.33098605
70	0xbe1a4e9d	-0.15069051
71	0x3c50514a	0.012714693
72	0xbeb11ab2	-0.3459068
73	0xbe5271a8	-0.20551169
74	0xbeae63a7	-0.34060404
75	0xbea88242	-0.3291188
76	0xbdebc260	-0.115116835
77	0xbdd76156	-0.10516612
78	0xbe8097eb	-0.25115904
79	0xbe3fec94	-0.18742591
80	0xbd92d03f	-0.07168626
81	0xbe9b58a7	-0.30341074
82	0x3d510225	0.051027436
83	0xbcd4a30e	-0.025956657
84	0xbe6c60e1	-0.23083831
85	0xbe6b8746	-0.23000821
86	0xbdbbdf3d	-0.09173439
87	0xbddbc4d3	-0.107309006
88	0xbeb6ac9d	-0.35678568
89	0xbeac2e9e	-0.33629316
90	0xbe754109	-0.2395059
91	0xbdbb14c2	-0.091348186
92	0xbe0341f8	-0.12818134
93	0xbebb5b68	-0.36593175
94	0x3e1ddbc9	0.15415873
95	0xbe4ae4a5	-0.19813783
96	0x3e3b0091	0.18261935
97	0x3e10a81e	0.14126632
98	0xbebf65f0	-0.3738246
99	0xbc2f667e	-0.010705588
100	0xbeaba283	-0.33522424
101	0xbee63815	-0.44964662
102	0xbd8033c4	-0.062598735
103	0xbe550abb	-0.20804875
104	0xbd2c079a	-0.041999437
105	0xbedf650b	-0.43631777
106	0xbd4e1922	-0.050316937
107	0xbe51c074	-0.20483571
108	0xbdb57120	-0.088594675
109	0xbda631dd	-0.081149794
110	0xbe95381d	-0.29144374
111	0xbe9869ed	-0.29768315
112	0xbe4a723b	-0.19770138
113	0x3b3604e8	0.002777392
114	0xbe764a86	-0.24051866
115	0xbde29162	-0.11062886
116	0xbe1c3a3b	-0.15256588
117	0xbe0fe848	-0.14053452
118	0xbe1da7ac	-0.15395993
119	0xbc81ecf8	-0.015860066
120	0x3e515644	0.20443064
121	0xbdebf020	-0.115204096
122	0x3d2baa2c	0.041910335
123	0xbe0a08cc	-0.13479918
124	0x3dbfb166	0.09360008
125	0xbe637362	-0.22211984
126	0xbec6c30f	-0.38820693
127	0xbe3dd354	-0.18537647
128	0xbf00bdae	-0.5028943
129	0xbd0a4ee6	-0.03376665
130	0xbe9ad608	-0.30241418
131	0xbeaa468a	-0.33256942
132	0xbd8791b4	-0.066195875
133	0x3d32f644	0.04369189
134	0x3e2a2b0e	0.16617987
135	0xbe8380d3	-0.25684223
136	0xbe898eb3	-0.26866683
137	0xbe82dc83	-0.25558862
138	0xbe4d7964	-0.20065838
139	0xbdb3c3b0	-0.08777559
140	0xbe5f7de4	-0.21825367
141	0xbf010264	-0.5039427
142	0xbe74ea33	-0.23917465
143	0x3e4a0250	0.19727445
144	0xbe40847e	-0.18800542
145	0xbeced590	-0.4039731
146	0x3d7b01fa	0.061281182
147	0xbe74053c	-0.23830122
148	0xbdd9251a	-0.1060278
149	0xbe12a401	-0.14320375
150	0xbe824d33	-0.25449523
151	0xbeac3b2c	-0.33638895
152	0xbb364e5a	-0.0027817697
153	0xbd759435	-0.059955794
154	0xbdc4b557	-0.096049
155	0xbef9c46c	-0.4878267
156	0xbed22188	-0.41041207
157	0xbbe50568	-0.00698917
158	0xbe327150	-0.17426038
159	0xbdd46a6f	-0.10371863
160	0xbe21d1b1	-0.15802647
161	0xbdb94f70	-0.090483546
162	0xbdc9dfa7	-0.098571114
163	0xbe95b97b	-0.29243073
164	0xbe80ebfc	-0.25180042
165	0xbc9993c7	-0.018747224
166	0xbd87ea87	-0.066365294
167	0xbe79e2ad	-0.24402876
168	0xbe86d70b	-0.2633594
169	0xbe8c189c	-0.27362525
170	0xbe3740ee	-0.17895862
171	0xbe146568	-0.14491808
172	0x3deb4415	0.11487595
173	0x3e0b8eb7	0.1362866
174	0xbe314956	-0.17313132
175	0xbe19d838	-0.15023887
176	0xbe419797	-0.18905483
177	0xbe18c094	-0.14917213
178	0xbe9b78e1	-0.3036566
179	0x3c8993c9	0.016794102
180	0x3d54cc6a	0.051952757
181	0xbe1d36a9	-0.15352882
182	0x3bc0f9ef	0.0058891694
183	0xbe94dde4	-0.2907554
184	0xbed1b72b	-0.4096006
185	0xbee56e58	-0.44810748
186	0x3e1186a0	0.14211512
187	0xbe37a4fa	-0.17934027
188	0xbeaf2369	-0.34206703
189	0xbed99ee4	-0.42504036
190	0xbea4282b	-0.32061896
191	0xbed3612e	-0.4128508
192	0x3d3a7a7f	0.045526978
193	0x3c83d5c4	0.016093142
194	0xbdb4ee66	-0.088345334
195	0xbe1a336c	-0.15058678
196	0xbc891be7	-0.016736938
197	0x3e20f22b	0.1571738
198	0x3d374c15	0.04475029
199	0xbe07d631	-0.13265301
200	0xbcd6ddf9	-0.026228892
201	0xbdcb92e3	-0.09940126
202	0x3db5b3c0	0.08872175
203	0xbebcdee5	-0.36888805
204	0xbde79e90	-0.1130954
205	0xbe295482	-0.16536143
206	0xbdbf2152	-0.09332527
207	0xbe9207c8	-0.28521562
208	0xbee2c037	-0.44287273
209	0xbef23956	-0.4730937
210	0xbeb26e89	-0.34849957
211	0xbea36a0a	-0.3191684
212	0xbdf45b15	-0.11931435
213	0xbcb7fd24	-0.022459574
214	0xbe49dcfa	-0.19713202
215	0xbf087a8e	-0.53312004
216	0xbe75b78e	-0.23995802
217	0xbdbbbadf	-0.09166502
218	0x3e295026	0.1653448
219	0xbd39ab28	-0.045329243
220	0xbe4b0078	-0.19824398
221	0xbcf71127	-0.030159546
222	0xbe9a08ac	-0.3008474
223	0xbe639068	-0.22223055
224	0xbe4654cb	-0.19368283
225	0xbdff0d58	-0.12453717
226	0xbed29e68	-0.4113648
227	0xbe240ecc	-0.1602127
228	0xbc14ad81	-0.00907457
229	0xbd01a379	-0.03165004
230	0xbda40e5f	-0.080105536
231	0xbe9cc236	-0.3061692
232	0xbe7573c6	-0.23969945
233	0xbe4df7e6	-0.20114097
234	0xbe85de98	-0.26146388
235	0xbe44389c	-0.1916222
236	0xbdbf05de	-0.09327291
237	0xbe97488c	-0.29547536
238	0xbe67b6ac	-0.22628278
239	0xbda86810	-0.08222973
240	0xbeb9464e	-0.3618645
241	0xbe866415	-0.26248232
242	0xbc555c5f	-0.013022511
243	0xbed22d7b	-0.41050324
244	0xbead226f	-0.33815333
245	0xbecf5032	-0.40490872
246	0xbec4bcb0	-0.38425207
247	0x3d4e1ed0	0.050322354
248	0xbc7f166f	-0.015569313
249	0x3d4fd7fc	0.050743088
250	0xbea8692c	-0.3289274
251	0xbe745644	-0.23861033
252	0xbe36075a	-0.17776242
253	0xbd41ae74	-0.047285512
254	0xbab342f6	-0.0013676572
255	0xbef69518	-0.48160625

conv4.bias f4 [32]
0	0xbece8efc	-0.40343463
1	0xbe98a694	-0.2981459
2	0xbed2a58a	-0.4114192
3	0xbee96dd9	-0.4559162
4	0xbe4824df	-0.19545315
5	0xbeddaec2	-0.43297392
6	0xbecd9387	-0.40151617
7	0x3d813a75	0.06309978
8	0xbe9ce02b	-0.30639777
9	0xbe8e8119	-0.2783287
10	0x3e6feaca	0.23429409
11	0xbea1ffd1	-0.31640485
12	0xbe3321d6	-0.17493376
13	0x3e56e9c5	0.20987613
14	0xbf0e7dcc	-0.556607
15	0x3dfd3352	0.12363304
16	0xbed45b31	-0.41475824
17	0xbeec91d5	-0.4620501
18	0xbe2692bc	-0.16266912
19	0xbe48f13b	-0.19623272
20	0xbdcab001	-0.09896851
21	0x3d281100	0.041031837
22	0xbe9ec648	-0.31010652
23	0xbedee263	-0.43532094
24	0xbe83930b	-0.25698122
25	0xbf042275	-0.5161508
26	0x3c5cd581	0.013478638
27	0xbe8d9ad5	-0.2765719
28	0xbede9358	-0.4347179
29	0xbf09e8a2	-0.53870595
30	0xbe5eaf1b	-0.21746485
31	0xbee27738	-0.44231582

fc.weight f4 [1, 1440]
0	0xbe72d249	-0.2371303
1	0x3d0ae5d1	0.033910576
2	0x3e543e75	0.2072695
3	0x3e7df732	0.24801329
4	0x3d327976	0.043572865
5	0x3df5cec9	0.12002332
6	0xbea17347	-0.31533262
7	0x3ef743fc	0.48294055
8	0xbd9ef15b	-0.07760879
9	0x3e583734	0.21114808
10	0xbe60d5bc	-0.21956533
11	0xbe339102	-0.17535785
12	0xbe2cdf61	-0.16882087
13	0xbe11c40e	-0.14234945
14	0xbd0ac887	-0.033882644
15	0xbd601f21	-0.054717187
16	0xbd399ee7	-0.045317557
17	0xbe4edcfc	-0.20201486
18	0xbcac72f5	-0.02105091
19	0x3e8097c9	0.25115803
20	0xbe4df81a	-0.20114174
21	0x3e48af64	0.19598156
22	0xbe18446b	-0.1486985
23	0xbdae7466	-0.08518295
24	0x3e45868c	0.19289607
25	0x3e5e93c8	0.21736062
26	0xbe1b3a57	-0.15158974
27	0xbcd18353	-0.025575316
28	0x3e035175	0.12824042
29	0x3dbb9381	0.091589935
30	0xbe46907b	-0.19391052
31	0xbe10fcae	-0.1415889
32	0xbd893e2f	-0.06701314
33	0xbdbf2b54	-0.09334436
34	0xbe38f0b4	-0.18060571
35	0x3d01909c	0.03163205
36	0xbe4d64e7	-0.20058022
37	0xbd244f0e	-0.040114455
38	0x3d10f7ea	0.03539268
39	0x3cf3f53f	0.029780028
40	0x3d42cf70	0.04756111
41	0x3e0a2d75	0.13493903
42	0x3c779573	0.015111315
43	0xbde9959c	-0.11405489
44	0xbdc31e0b	-0.095272146
45	0x3d63c02e	0.0556032
46	0xbea0e57d	-0.31425086
47	0x3eb7fd58	0.35935473
48	0xbea2af38	-0.31774306
49	0x3e6fc1d1	0.23413779
50	0xbe978802	-0.29595953
51	0x3eb479e0	0.35249233
52	0x3ea844c6	0.3286497
53	0xbd3beaf3	-0.045878362
54	0xbe5dd196	-0.21661982
55	0xbe3ee1d6	-0.18640837
56	0x3e81ef0f	0.253777
57	0x3e83983b	0.2570208
58	0x3e69f6eb	0.22848098
59	0x3e1f209c	0.15539783
60	0x3e7410a1	0.23834468
61	0xbe1e2e58	-0.15447366
62	0x3e129a35	0.14316638
63	0xbda1671f	-0.07880997
64	0x3d90b6ab	0.07066091
65	0x3dd070cf	0.101777665
66	0xbe24365b	-0.1603636
67	0xbbfea9f3	-0.0077717244
68	0xbe6c6c85	-0.23088272
69	0xbe6a8f26	-0.2290617
70	0xbbfa3d33	-0.00763669
71	0xbe9aca19	-0.30232313
72	0x3ea8d9ec	0.3297876
73	0xbdacb228	-0.08432418
74	0x3f2de7b9	0.67931706
75	0xbec1105d	-0.37707797
76	0x3ce548bf	0.02798879
77	0xbc921c91	-0.017835887
78	0x3e4f6daf	0.20256685
79	0xbec2a22d	-0.38014355
80	0x3d5d27f5	0.053993184
81	0xbdbc82ab	-0.092046104
82	0x3d359c26	0.044338368
83	0xbdb3ebc0	-0.087852
84	0xbe501599	-0.20320739
85	0xbd4d1fd2	-0.050079174
86	0x3ebcb841	0.36859325
87	0xbdcd9aca	-0.10039289
88	0x3de41c89	0.11138255
89	0x3e28503f	0.16436861
90	0xbd3f136e	-0.04664939
91	0x3e96e42d	0.2947096
92	0x3ed10a7d	0.40828314
93	0x3e8c1031	0.27356103
94	0xbd8ba1b4	-0.06817952
95	0x3eac51a0	0.33656025
96	0xbe390b43	-0.18070702
97	0x3f0b9d20	0.5453663
98	0x3e9d6a94	0.30745375
99	0xbe4e641b	-0.20155375
100	0x3e341cc9	0.17589106
101	0x3b990df8	0.0046708547
102	0x3e9bd8eb	0.30438933
103	0x3d9e2aa6	0.07722978
104	0xbe7e715b	-0.24847929
105	0x3e9a2396	0.30105275
106	0xbe94cea5	-0.29063907
107	0x3cdf4cbe	0.027258273
108	0xbd8d44d9	-0.06897897
109	0x3e690957	0.22757469
110	0x3e9f2dab	0.3108953
111	0x3de33c55	0.11095492
112	0xbe816ecc	-0.25279844
113	0x3cf76687	0.030200256
114	0x3d9fdbf3	0.07805624
115	0xbeade551	-0.33964017
116	0xbe1c7490	-0.1527884
117	0x3e0db2f4	0.13837796
118	0xbd5e6dd1	-0.054303948
119	0x3d82aaa1	0.06380201
120	0xbdd04bda	-0.101707175
121	0x3ddf6d77	0.10909551
122	0x3e1c8b2a	0.15287462
123	0x3e7c73ea	0.24653593
124	0x3dd82555	0.105539955
125	0xbd07fd6e	-0.033200674
126	0x3d1c36ff	0.038138386
127	0x3c13a9de	0.009012667
128	0xbc68375f	-0.014173358
129	0x3d80e77c	0.06294152
130	0x3e83757f	0.2567558
131	0x3e38ae0d	0.18035145
132	0x3e721d65	0.23644026
133	0xbe6ef66f	-0.23336194
134	0xbc6e34eb	-0.014538984
135	0x3e3c078c	0.18362254
136	0x3e6246ac	0.22097272
137	0x3ebb3854	0.36566412
138	0x3e9eb1c6	0.30995005
139	0xbe81f283	-0.25380334
140	0xbe970202	-0.2949372
141	0xbb7b4972	-0.0038343337
142	0x3efca2c1	0.4934292
143	0x3f02e6f4	0.51133657
144	0x3b8889fe	0.0041668406
145	0xbdb4561d	-0.08805487
146	0x3ea95756	0.33074445
147	0x3e9e56a3	0.30925474
148	0xbe5519ca	-0.20810619
149	0xbe080d33	-0.13286285
150	0xbd1474d3	-0.036244225
151	0x3e6caf0b	0.23113649
152	0x3e81ec09	0.25375393
153	0x3c729470	0.014805898
154	0xbea56a9d	-0.32307902
155	0xbe68854f	-0.22707103
156	0x3e3cbea6	0.18432102
157	0xbdb4417b	-0.08801552
158	0xbe861b9b	-0.26192936
159	0x3e6733b8	0.22578323
160	0x3e3b3061	0.18280174
161	0xbce573f1	-0.028009387
162	0x3ea2a4e8	0.31766438
163	0x3ec40f19	0.3829277
164	0xbe8d5805	-0.27606216
165	0x3dce77e9	0.10081465
166	0x3cca7b28	0.024716929
167	0x3e665e06	0.22496805
168	0x3da5ca55	0.080952324
169	0xbe0bc18e	-0.13648054
170	0x3db96977	0.09053319
171	0xbe2d0382	-0.1689587
172	0xbe2e1372	-0.16999605
173	0xbe86c9bd	-0.2632579
174	0xbdff9e1f	-0.12481331
175	0xbdb7db59	-0.08977384
176	0x3ec5ee05	0.38658157
177	0x3e28a093	0.16467504
178	0xbe051be2	-0.12998918
179	0xbdecbbb8	-0.11559242
180	0x3f223551	0.63362604
181	0x3f13f07d	0.5778883
182	0x3eb86761	0.36016372
183	0xbeb3deaa	-0.35130817
184	0xbe7bf624	-0.24605614
185	0xbe97e52d	-0.29667035
186	0x3ef04a77	0.46931812
187	0x3eaa3c13	0.33248958
188	0xbe2f1e87	-0.17101489
189	0x3d08e644	0.033422723
190	0xbe4d7072	-0.20062426
191	0x3e784f0b	0.24248902
192	0x3e0f1e7d	0.13976474
193	0x3dbc4104	0.09192088
194	0xbd86357e	-0.065531716
195	0xbe84e992	-0.2595945
196	0xbd3d608f	-0.046234664
197	0xbd96a0b5	-0.07354871
198	0x3e8b52a5	0.2721149
199	0xbe8e398b	-0.27778277
200	0xbe67d8d7	-0.22641312
201	0xbdbecfd8	-0.09316987
202	0xbc3ba949	-0.011453935
203	0x3e16327f	0.146677
204	0xbcf31deb	-0.029677352
205	0xbe3395cf	-0.17537616
206	0x3e2de9dc	0.16983742
207	0x3a8ffdfd	0.0010985729
208	0xbd934c3f	-0.07192277
209	0xbea0dd71	-0.31418946
210	0x3e501c15	0.20323212
211	0x3d4091ee	0.04701417
212	0x3cb21a67	0.021741105
213	0x3e831ccf	0.25607917
214	0x3ca4f6d4	0.020137228
215	0xbd476b53	-0.048686337
216	0xbda9380d	-0.08262644
217	0x3de0a280	0.109684944
218	0x3e04a77c	0.12954515
219	0x3e9a72df	0.30165765
220	0x3d0e69f1	0.034769002
221	0x3e0b593b	0.13608257
222	0xbd929a6d	-0.07158361
223	0xbe41c73f	-0.18923663
224	0xbe0b9422	-0.13630727
225	0xbedb2822	-0.42804056
226	0xbe7acf74	-0.244932
227	0x3ea2994e	0.31757587
228	0x3e97ecef	0.29672953
229	0x3eac7622	0.33683878
230	0xbe925947	-0.28583738
231	0xbe0aca0a	-0.13553634
232	0xbe86ad9a	-0.26304322
233	0x3e39f154	0.18158466
234	0x3d92372d	0.0713943
235	0x3c272267	0.010201073
236	0x3e1dd885	0.15414627
237	0x3e809388	0.25112557
238	0xbda202ed	-0.07910714
239	0xbe97ead4	-0.29671347
240	0xbe603527	-0.21895276
241	0x3e84e99b	0.25959477
242	0xbd1414e6	-0.036152743
243	0xbe1f96c7	-0.1558486
244	0xbe70b4db	-0.23506491
245	0xbe08f4df	-0.13374661
246	0xbe511420	-0.20417833
247	0xbe0e1518	-0.13875234
248	0x3e7e8ac6	0.24857625
249	0xbe5209f3	-0.20511608
250	0x3ebd637d	0.36989966
251	0xbc0b2de4	-0.008494828
252	0xbdcc592f	-0.09977948
253	0x3c9a29b6	0.018818717
254	0x3e6339e2	0.2219005
255	0xbce6e096	-0.028183263
