model_round_3.pth (torch, 126796 bytes, 9 tensors)

conv1.weight f4 [16, 1, 16, 3]
000000 d6 58 48 bd 70 74 d1 3d 84 0d be 3d 28 7f 32 3d
       -0.048912846 0.10227287 0.09279922 0.043578297
000010 45 c5 6e bc d3 15 ce 3d 7e fe c5 bd cd fa 09 3c
       -0.0145734 0.100627564 -0.09667681 0.008421612
000020 f6 4e c8 3d 4b f6 e1 3c 0e 4c 9a 3d 1c 5f 80 3d
       0.097806856 0.027583262 0.075340375 0.06268141
000030 24 c8 db 3c 89 21 c4 3d 7d 45 ba 3c 62 a3 8c bc
       0.026828833 0.09576709 0.022738213 -0.01716775
000040 89 a4 3d 3d dd 6f 68 3d 28 46 58 3d fd 89 c4 bc
       0.04629949 0.056747306 0.05280128 -0.02399158
000050 66 38 89 3c 40 10 64 3e 92 07 21 bf 9b a0 2f be
       0.016750526 0.22271824 -0.62902176 -0.1715111
000060 df 5b 1d 3e 6d a4 20 bf 0c 00 f7 bd 97 19 86 bd
       0.15367077 -0.62750894 -0.12060556 -0.065478496
000070 7e b3 fc be 1d df 45 3c 63 e6 81 bb c9 a1 73 be
       -0.49355692 0.01207712 -0.003964232 -0.23792185
000080 f6 a1 08 be 8d 86 d0 3d 52 cd 03 be 03 c3 8a bd
       -0.13343033 0.101819135 -0.12871292 -0.06775477
000090 17 50 21 3e 92 60 a7 3d e7 7a 87 3d f2 08 3e be
       0.15753208 0.08172716 0.06615239 -0.185581
0000a0 10 eb d3 bd 97 7b ad bd 6e b0 43 bd b9 e7 3a 3d
       -0.10347569 -0.084708385 -0.04777568 0.045631144
0000b0 52 de b1 3d 95 38 9e 3d 83 43 4f 3e 4a 0f 3f 3e
       0.08684982 0.07725636 0.20240597 0.18658176
0000c0 2e 2c c3 bd e1 79 33 bd 24 ce 6d 3c bc e2 6f bd
       -0.09529911 -0.043817405 0.01451448 -0.05856584
0000d0 b6 35 a8 bb 2d 32 5e bd 8c 34 86 bd 61 fa 2d bd
       -0.005133356 -0.05424707 -0.06552991 -0.042475108
0000e0 6d 7f 75 bd 64 7c 46 be b3 4b c2 3c 19 9f 44 bd
       -0.059935976 -0.19383389 0.023717737 -0.04800329
0000f0 23 9c a7 bd 65 01 86 bc eb d5 33 38 e5 a6 d5 bd
       -0.081840776 -0.016358087 4.2876152e-05 -0.10432223
000100 97 18 9e bd fa c3 d0 3b 10 ca 01 be 35 da 46 be
       -0.07719534 0.0063710185 -0.12674737 -0.19419177
000110 34 73 66 bd 01 11 a1 bc 30 a5 7b bd 74 87 83 3d
       -0.05626221 -0.019661428 -0.061436832 0.0642232
000120 a7 b9 67 3d 51 c2 01 3f 73 ab ad 3e 9a 1b a5 3d
       0.056573536 0.5068713 0.33919868 0.08061905
000130 54 e6 a9 3e d3 67 01 3e c6 55 72 be df 76 ad be
       0.3318354 0.12637262 -0.23665532 -0.33879754
000140 5c 13 d5 bd 61 f9 dc 3d be 95 c6 be b0 79 e2 bc
       -0.10404083 0.10789753 -0.3878612 -0.027645916
000150 e9 8e 48 3d 14 e8 26 be 8d e4 98 bd c1 54 94 3e
       0.048964415 -0.16299468 -0.074654676 0.28970912
000160 1f 99 13 be b2 be 23 be c2 91 a0 bc a3 6a 9f bd
       -0.1441388 -0.15990713 -0.019600753 -0.07784011
000170 06 07 35 bb f8 b1 3f be 6b 52 f7 3c c7 be 5f be
       -0.0027622594 -0.18720233 0.030190667 -0.2185012
000180 3d 05 0c be 83 e0 fd bd 1c 61 08 3d 83 99 44 3c
       -0.13673873 -0.12396338 0.033295736 0.011999491
000190 60 34 25 3e 6b 45 41 3e 3f f9 95 bd 6a ee 62 bc
       0.1613326 0.18874137 -0.073229305 -0.013850788
0001a0 38 a8 f9 3d a3 9a ce 3d d3 83 d1 3d d6 14 15 3e
       0.12190288 0.10088088 0.102302216 0.1455873
0001b0 ad 23 18 be 5b 01 f4 bd 84 c8 e6 3b 3f 79 b7 bd
       -0.14857359 -0.11914321 0.0070429463 -0.08958673
0001c0 d3 6f e0 3c 9b 92 88 3e c8 60 27 3d 42 ef 56 ba
       0.027397072 0.2667435 0.040863782 -0.00081991043
0001d0 7c 12 50 be ff 3a 34 bc 6a 98 8d be 2a e9 c2 be
       -0.20319551 -0.011000394 -0.27655345 -0.38068515
0001e0 95 f2 38 3b 89 0f b8 3d 5e 71 e5 bd b2 24 04 3d
       0.0028220762 0.08987338 -0.11203264 0.032261558
0001f0 ea 89 b4 3d 47 d0 07 be a8 37 e8 bd c9 96 13 bd
       0.088153675 -0.13263045 -0.113387406 -0.03603247
000200 d0 2d 84 bd e4 2b 95 3d 9b 7b c6 bd af 16 e2 be
       -0.064540505 0.07283762 -0.096915446 -0.4415793
000210 c4 f8 4a be 0b f6 33 be 4b 48 a2 be 52 d3 20 bd
       -0.19821459 -0.17574327 -0.3169578 -0.03926403
000220 39 99 f9 bd c6 f1 3a be 58 4f 5d bc 1c b3 18 3c
       -0.12187428 -0.18256292 -0.013507687 0.009320047
000230 9a 79 37 3d d8 01 45 be 4e be 86 bd 98 07 6e bd
       0.044793703 -0.19238985 -0.065792665 -0.05811271
000240 90 2f 0c be d6 d3 5e be 20 05 c3 bd fd 54 52 be
       -0.13690019 -0.21760496 -0.09522462 -0.20540233
000250 b6 b1 be be 01 ad be be b7 e8 f1 3d 3c 19 83 3c
       -0.37244958 -0.37241367 0.11811965 0.016003244
000260 dc 70 51 be 1b 4e 54 3e b9 0e be bc a2 00 1c be
       -0.20453209 0.2073292 -0.02320038 -0.15234616
000270 85 a5 df 3d f4 49 98 3d e2 85 3b be 03 5b 98 3b
       0.10920242 0.074359804 -0.18312791 0.0046495213
000280 7c b2 c0 bc b8 fa 08 be 2a 41 03 3e 9d cc 96 bd
       -0.023522608 -0.13376892 0.12817827 -0.07363246
000290 62 43 6e be 36 da 2b 3e a0 94 15 be 17 3b 20 be
       -0.23267892 0.1678246 -0.14607477 -0.15647541
0002a0 34 51 02 3d 2a 59 9a 3c 81 be 07 bd a0 cd c2 3d
       0.031815723 0.018841345 -0.033140663 0.09511876
0002b0 8e c1 f2 bd 30 e0 32 be 78 6f ed 3d 9c cf bc bc
       -0.11853324 -0.17468333 0.115935266 -0.023048215
0002c0 60 8c e1 bd c9 fe 08 3e 07 b9 70 3d 6d 1e e7 bd
       -0.110131025 0.13378443 0.058770206 -0.112851
0002d0 b0 1a 74 bd d6 10 2e bc 1c 03 2c be 6a 1b ac bd
       -0.059595764 -0.010624131 -0.16798061 -0.08403666
0002e0 ad 82 77 be 5d 3e 6b 3d 2d dd 80 bd 25 19 e4 be
       -0.24170943 0.05743252 -0.06292186 -0.44550434
0002f0 22 43 a3 3d 2b 7b 76 be 1a db c9 be 45 98 ff 3c
       0.07971789 -0.24070422 -0.39424974 0.031200537
000300 f6 e9 81 bd a7 00 22 be 00 1b e7 bd 1a a3 28 bd
       -0.06343453 -0.15820561 -0.11284447 -0.04117117
000310 a0 1d 7b 3d b2 86 8f bd f6 00 28 be 95 f5 68 bd
       0.06130755 -0.07008113 -0.16406617 -0.05687483
000320 b5 6e 86 3c ac 97 71 bb e8 c5 7f bd 1a 46 52 3c
       0.016410211 -0.0036864085 -0.062444597 0.012834096
000330 ed 1c 59 bd 3a 1e e0 bd e6 1c 93 bb f6 81 16 be
       -0.0530061 -0.10943265 -0.004489529 -0.14698014
000340 af e2 d1 bd 4f 2b 91 3c 06 41 4c be a2 49 fb bd
       -0.102483146 0.017720846 -0.1994668 -0.12269904
000350 98 fb ad bd d7 43 60 be 95 39 c0 be f1 1f 0b be
       -0.08495253 -0.21900879 -0.37543932 -0.13586403
000360 68 a0 18 be 2e 71 9b be c7 f7 4a bc 5d 1a 2c be
       -0.1490494 -0.30359787 -0.012388176 -0.16806932
000370 87 9d 9a 3d 80 7a 62 3e 3d b0 54 be 1b 3e 0f 3e
       0.07549577 0.22117043 -0.20770355 0.13988535
000380 44 9f 42 3e 09 c2 33 bc 45 41 82 be 0a 14 5f bd
       0.19006068 -0.010971555 -0.25440422 -0.05446247
000390 10 fa ce 3c 11 3b 16 be da 58 78 3d 40 64 9b 3c
       0.025265723 -0.1467097 0.06063161 0.018968701
0003a0 33 23 e4 bd df 06 a8 3d 94 37 64 bd bf c6 24 3e
       -0.11139526 0.082044356 -0.055717066 0.1609144
0003b0 fe a5 9f bb 38 90 db bd 4d a1 97 be b1 21 da bd
       -0.0048720827 -0.10720867 -0.2961525 -0.106509574
0003c0 3c 45 70 bd ee 3e b5 bd 63 d3 93 bd e9 99 18 be
       -0.058659777 -0.088498935 -0.07218053 -0.14902462
0003d0 bb 76 97 bd 2d 47 35 be 60 ac 2e be c8 f7 2c bd
       -0.07395693 -0.17702933 -0.17057943 -0.04222849
0003e0 de 13 b2 bd 8e 7f 34 be 56 26 6e bc 26 66 22 be
       -0.086951956 -0.17626783 -0.014535507 -0.15859279
0003f0 cb 1b 5c bc 3b 92 a6 bd 43 06 c6 bd 7e 4d 98 bd
       -0.013434361 -0.0813336 -0.09669163 -0.074366555

conv1.bias f4 [16]
000000 20 c3 38 3e 07 74 12 bd 2e b2 c0 bc a7 3a 74 bd
       0.18043184 -0.035755184 -0.023522463 -0.059626248
000010 64 e5 55 bd bf 9b 3a bd 8a e0 b9 bd 59 4d 8b bd
       -0.052220717 -0.045558687 -0.090760306 -0.06801862
000020 40 38 9f 3d ca 0b 28 bd f3 52 18 bd 37 46 c7 bd
       0.07774401 -0.041026868 -0.03718848 -0.09730189
000030 d4 fa be bc 5a 44 28 bd cd 77 8a bd c8 cd a4 3c
       -0.023312964 -0.04108081 -0.067611314 0.020117655

conv2.weight f4 [16, 16, 3, 5]
000000 21 f1 fe bd b9 83 19 3e 82 39 44 3e ae 6c 6e be
       -0.124483354 0.14991654 0.19162562 -0.23283646
000010 1e e7 08 be 13 0e 1a 3c fe f4 9e bd ea 1b 33 3e
       -0.13369414 0.00940277 -0.07761572 0.17491117
000020 f9 c1 cb be 8d dd 91 3c 81 ba 09 be c7 08 12 be
       -0.39796427 0.017805839 -0.13450052 -0.14261161
000030 bf a2 91 3d 49 00 95 be d2 63 e6 bb a4 87 0a 3c
       0.071111195 -0.2910178 -0.0070309425 0.008455191
000040 11 89 b7 3d 88 ac 87 be 36 96 f7 bd 2c 52 40 be
       0.0896169 -0.26498818 -0.12089197 -0.18781346
000050 63 73 af 3d 3f 8b 69 bd ff 63 a4 3c 21 22 51 3d
       0.0856693 -0.05701756 0.020067213 0.05105794
000060 ab 60 6a be 1d 22 89 3d f5 8f 09 3e 76 90 9f be
       -0.22888438 0.0669596 0.13433821 -0.31164902
000070 b2 48 05 3e 4a 2e 47 be 84 b2 d9 bd 62 24 17 3d
       0.13016012 -0.19451252 -0.10629752 0.03689993
000080 0b 95 ff 3d 20 ce 0e be 2c b6 8c 3c cf b9 90 3c
       0.124795996 -0.13945818 0.01717671 0.017666725
000090 63 eb 6f 3c fb af 37 be 9e cb 44 be ce ce b1 bd
       0.014643523 -0.17938225 -0.19218299 -0.08682023
0000a0 f3 ea 69 3c 87 be 12 3d 02 49 5d be 9c c8 2d 3e
       0.014277208 0.035826232 -0.21609882 0.16971058
0000b0 e2 4e ab 3c b0 46 25 bd 17 f1 02 3d d6 00 c9 3b
       0.020911638 -0.040350616 0.031968202 0.006134133
0000c0 14 26 1d bc ed 7a 90 bd f3 af ca bd 9b dd 66 3e
       -0.009591598 -0.07054696 -0.09896841 0.22545473
0000d0 4e 47 44 3b 6d 74 28 be f3 e6 b8 3d d1 66 aa be
       0.0029949727 -0.16450663 0.09028425 -0.33281568
0000e0 db 0e 62 bd 0c 2e d1 bd b9 b3 0f 3e 62 8f eb 3c
       -0.05518995 -0.10213861 0.14033403 0.028754894
0000f0 66 4c 1b 3d a7 72 6e be 0d 69 61 be 87 d6 92 3c
       0.037914656 -0.23285924 -0.2201273 0.01792456
000100 f7 09 a3 3d 36 d1 38 3e f0 9d 17 3e 1a 51 73 3d
       0.07960885 0.18048558 0.14806342 0.059403516
000110 d8 97 cc bd f7 42 05 3d ed 8f 37 bd 14 13 5f be
       -0.099898994 0.032534566 -0.044814993 -0.21784621
000120 63 ba f2 bd 93 c9 9f be 8e 3d 92 bd cd 23 14 be
       -0.11851957 -0.31208476 -0.07140647 -0.14466782
000130 bf 30 8c bd 92 e8 0b 3d 87 81 08 be de 15 4e bb
       -0.06845235 0.034157343 -0.13330661 -0.003144614
000140 30 a0 d9 3a f8 a1 bc bd e9 db 82 bd 9f 6b b1 bc
       0.0016603526 -0.092105806 -0.06389601 -0.021657763
000150 cf 40 14 bc ec 37 b7 bc b8 50 a9 3b 4a 2a a6 bd
       -0.009048655 -0.022365533 0.005167093 -0.08113535
000160 24 13 d8 3d 68 72 22 be e2 1d 47 be eb fb 91 be
       0.10550526 -0.15863955 -0.19444993 -0.2851251
000170 a8 ea 4e 3c c0 4f 11 3d 76 59 18 be 06 ac ef 3c
       0.012629189 0.035476446 -0.14877877 0.029256832
000180 6f 53 9d be 81 a5 19 3e 63 a8 95 be 23 f5 78 be
       -0.30727717 0.15004541 -0.2923003 -0.24312262
000190 cb 23 04 3e ae 68 19 be 0c e6 06 3d bd e3 41 be
       0.12904279 -0.14981338 0.032934234 -0.18934532
0001a0 49 6d 63 be f6 4b 83 3d 0f cc fd 3c 73 be 9c 3c
       -0.22209658 0.06410973 0.030981092 0.019133782
0001b0 12 01 dd 3c 75 66 b5 3d 61 d1 81 bd 23 81 90 bc
       0.02697805 0.08857433 -0.06338764 -0.017639702
0001c0 84 e4 95 bd d8 d2 49 3c c2 c3 37 bc 79 0e 0a 3e
       -0.073189765 0.0123183355 -0.011216106 0.13482083
0001d0 54 3f a6 bd 94 8d c2 bd d3 cb c2 3d e2 d1 3c 3c
       -0.08117548 -0.0949966 0.09511533 0.011524649
0001e0 28 0a 31 bd 2b 93 c1 3c 6b 8e b9 3d 9d 0f ad be
       -0.043222576 0.023629745 0.09060367 -0.33800974
0001f0 b6 48 be bd 70 a7 91 3d 86 7d 86 3d 37 44 28 3e
       -0.09291212 0.07112014 0.065669104 0.16432272
000200 42 7c d6 bd 92 27 47 be 67 1d 82 3d d8 dc 59 be
       -0.10472919 -0.19448689 0.06353264 -0.21275651
000210 c6 71 dd bc 35 0c 8c bd ac e0 80 be 4f 4c c1 bd
       -0.02703179 -0.06838266 -0.2517141 -0.09438383
000220 ec e7 93 3c 35 ba 18 bd 63 31 47 bd 8b f8 83 be
       0.018054925 -0.037286956 -0.048631083 -0.2577556
000230 8e 3e 03 3e 12 51 19 be 33 19 a8 be 7a 69 4e be
       0.12816831 -0.14972332 -0.32831725 -0.20157424
000240 16 41 56 bb 07 06 99 3d 03 55 8d bd 3c 24 9c bc
       -0.0032692603 0.07471853 -0.0690098 -0.019060247
000250 2d 59 31 be b7 23 61 be 92 59 31 3d d8 11 83 3c
       -0.17319174 -0.2198628 0.04329831 0.01599972
000260 6b f2 96 3c 62 a9 3e 3d 42 84 5e bd ad 19 6c 3d
       0.01842614 0.046548255 -0.05432535 0.057641674
000270 bc d1 cf bd 51 bc 9c bb 37 48 37 bd 40 ed 2d 3e
       -0.101474255 -0.0047831913 -0.044746604 0.16985035
000280 55 8d c8 3d 27 ab fa 3c d0 fb 8c bd 07 f4 aa be
       0.09792582 0.03059919 -0.06883967 -0.33389303
000290 68 97 3c be 69 e8 81 3d ba 09 94 3d 69 dc 31 be
       -0.18417132 0.06343157 0.07228418 -0.17369236
0002a0 7e 70 8b be b3 50 37 bd d3 a3 38 bd 64 58 dc bc
       -0.27234262 -0.044754695 -0.04507811 -0.026897617
0002b0 b7 6d 51 be 5a 3b 92 3d bb 87 3c be c6 36 06 be
       -0.20452009 0.07140227 -0.18411152 -0.13106832
0002c0 7a 34 a3 3d 45 af e4 be 30 1b 2c 3e 9f 69 52 be
       0.079689935 -0.4466497 0.16807246 -0.20548104
0002d0 df a7 11 3e fc 98 00 bd b3 4f 2e bd 61 62 64 be
       0.14224194 -0.031395897 -0.042556476 -0.22303154
0002e0 30 b6 18 bc 02 26 08 3e 21 1d 04 3e f4 97 12 3e
       -0.009320781 0.13295749 0.12901737 0.14315778
0002f0 3a ac e6 bd 79 25 96 3d 43 f1 18 bd 93 41 f3 3d
       -0.11263318 0.07331366 -0.03733946 0.11877742
000300 1e d2 af 3d 01 17 6e bd 0b 50 a8 3c 1c b2 01 3d
       0.085849985 -0.058127407 0.02054598 0.031664
000310 2c a4 9a bd 71 99 81 be ca 08 85 3e d0 9c f8 3d
       -0.075508446 -0.2531238 0.25983268 0.121392846
000320 24 ea 94 3d fe b3 18 3d 55 34 48 be d4 0c 8d bd
       0.07271221 0.03728103 -0.19551213 -0.068872124
000330 4a 3a 86 3d 09 b8 5b 3c f1 81 a5 bb 29 98 53 be
       0.065540865 0.013410577 -0.0050508906 -0.20663513
000340 3f a0 1f 3d c4 f4 cd bd 09 b1 71 3b fb 3f c0 3b
       0.038971182 -0.10056451 0.0036879203 0.005867002
000350 11 cf f7 3d a2 de ac bd 60 cb f4 bc 4b 50 ed bb
       0.12100042 -0.08440901 -0.029882133 -0.0072422377
000360 07 71 86 3e a1 ff b5 bc 58 d8 3d be f0 c9 ab bd
       0.26258108 -0.02221662 -0.1853956 -0.08388126
000370 bf 28 46 3e 5a ac 85 3e 2d f4 a5 bd fb eb a3 bd
       0.19351481 0.26108056 -0.081032135 -0.08003994
000380 25 2a 58 bd 4c d2 5c 3e 03 2e 58 3e 35 69 b7 be
       -0.052774567 0.21564597 0.21111302 -0.35822454
000390 a5 02 b6 bd 98 8f d4 bd d3 d9 26 3d c1 9c cc 3c
       -0.08887223 -0.10378951 0.040735077 0.02497709
0003a0 97 30 75 be 48 6f ee 3d 5a 06 d3 bd d6 c0 7f 3d
       -0.23944317 0.11642319 -0.10303946 0.062439762
0003b0 c4 48 33 be 61 8f cf bd 43 28 ac 3e 22 03 99 3c
       -0.17508227 -0.10134769 0.33624467 0.018678252
0003c0 20 df 0d be 89 5a 04 be 1e 12 84 bc d0 89 0c be
       -0.13854647 -0.12925161 -0.01612192 -0.13724446
0003d0 16 bc 01 3e 02 c0 1e bd ce 2a 2a be 97 7f a8 be
       0.12669405 -0.03875733 -0.16617891 -0.32909843
0003e0 fd b9 ac be 58 c9 a0 bd 3d 5c 0c be 04 c6 e4 be
       -0.33735648 -0.07850903 -0.13707061 -0.44682324
0003f0 e2 53 6e be 9f a9 68 be 33 96 c6 bd 98 20 04 3e
       -0.23274186 -0.22720955 -0.09696617 0.12903059

conv2.bias f4 [16]
000000 9f b8 08 bd ea 0b cd bd 03 b9 95 bd c9 3e 6d 3c
       -0.033379193 -0.10012038 -0.07310679 0.014480301
000010 da 51 a4 3b 37 0d b5 bd c6 b5 93 3d a6 13 85 bd
       0.0050146403 -0.08840411 0.07212405 -0.06497888
000020 60 38 9e bd a7 c6 2c 3b 84 6b 12 3c 37 15 53 3d
       -0.077255964 0.0026363523 0.008936767 0.051533904
000030 89 66 64 bb 89 e6 5f bd ac ef 86 bd ba 00 3a be
       -0.0034851155 -0.054663215 -0.065886825 -0.1816434

conv3.weight f4 [32, 16, 8, 3]
000000 c6 c9 02 be 24 d3 8a 3d eb 38 3e 3c 50 63 2c bd
       -0.12772283 0.06778553 0.01161025 -0.0420869
000010 cd 73 cb 3c d6 1c 11 be e4 62 d4 bc 24 db 59 be
       0.024835492 -0.14171156 -0.025926061 -0.21275002
000020 6a f8 88 3c 60 cf 30 be a3 9b 68 bd e9 d3 0f 3d
       0.016720016 -0.17266607 -0.05678905 0.035114203
000030 1f 31 11 be 3f dd b7 bd 42 89 1c 3e 28 c8 d0 3c
       -0.14178894 -0.08977746 0.15286735 0.025486067
000040 ee f1 4f 3d 4a 2b 6a 3d 70 cb 83 be 31 34 23 bc
       0.05076783 0.05717019 -0.25741148 -0.009961174
000050 d4 4f db bd 9a a6 00 be 18 eb ea bd 37 74 64 be
       -0.107085854 -0.12563553 -0.11470622 -0.22309957
000060 f8 98 21 be 81 c1 22 3e 39 2d 55 3d 62 c4 f5 bc
       -0.15781009 0.15894128 0.05204508 -0.03000087
000070 95 f5 cd 3d a2 3f 81 bd a6 40 e3 3a 8f f1 17 be
       0.10056607 -0.06310965 0.0017337992 -0.14838241
000080 58 a3 1f be 58 d7 19 3d 6e d4 35 bd 41 52 c3 bc
       -0.15589654 0.037558883 -0.04439204 -0.023842933
000090 8c ba b3 bd e5 59 fc bd 7d 9d 1d bd ac 08 48 be
       -0.08775815 -0.123218335 -0.03848027 -0.19534558
0000a0 e7 4b 4f bc 6c 87 88 3d f9 4d 8a bc 94 a7 d1 ba
       -0.012652374 0.06666455 -0.016882883 -0.0015995377
0000b0 88 7a 53 bc a3 88 2d bd ca 08 23 3e ed b4 43 3c
       -0.012907632 -0.042366635 0.15921322 0.011944992
0000c0 d7 8e ca 3d 56 ec 66 3d b9 4d 00 be 45 55 a1 3d
       0.09890526 0.05637773 -0.12529649 0.07877592
0000d0 5c 2b a2 3d 17 58 3e 3d 14 d2 ce bd 09 62 f1 bd
       0.079184264 0.046470728 -0.10098663 -0.11786277
0000e0 7d 4c cb bd 6f 5e 60 3c 5e c0 91 3d 41 52 b4 bc
       -0.09926698 0.01369439 0.07116769 -0.022011878
0000f0 5b 6e 19 bd ee 46 86 3d e0 c4 6f bd 11 09 04 3b
       -0.03745876 0.065564975 -0.058537364 0.0020147006
000100 44 f6 f2 3c e7 32 6a bd ff f9 91 3c 58 a3 df bd
       0.029658444 -0.05717745 0.017819403 -0.10919827
000110 dd 04 66 3b 0e 88 13 3d e0 b1 14 be bd e9 76 bc
       0.0035098114 0.036018424 -0.14520979 -0.015070376
000120 a3 fb 8c be 41 92 1e 3e 09 70 43 bc c4 98 3d be
       -0.27535734 0.15485479 -0.011928567 -0.18515307
000130 6b 61 1e bd 1c 2e 43 be 7a 44 82 be 1e fb fb bc
       -0.038667124 -0.19060558 -0.25442868 -0.03075939
000140 76 17 22 bb 17 8e 0b bc 0d b2 2f 3e cf ae 0c be
       -0.0024733222 -0.008517764 0.17157765 -0.13738559
000150 cf e7 a4 3d 7d ae b2 3d 38 1f d7 3d ed 6c c1 bd
       0.080520265 0.08724687 0.105040014 -0.09444604
000160 a1 1f 7b be a0 d7 2e be d9 b6 9c 3d 2f 48 47 bd
       -0.24523784 -0.17074442 0.07652063 -0.048652824
000170 96 87 a5 bb 90 20 4e be a2 9c 60 be 3e 21 b7 bc
       -0.0050515635 -0.20129609 -0.2193475 -0.022354718
000180 36 11 85 bd a8 ea ef bd ba 51 24 bd 26 e1 30 bc
       -0.06497423 -0.11714679 -0.040117003 -0.010795867
000190 b2 29 76 be 50 85 68 3e d9 ce d5 bd f0 50 7e be
       -0.24039343 0.22707105 -0.10439844 -0.24835563
0001a0 31 4f a5 3d db df 5b be f9 e7 7c be 3f e8 6a 3d
       0.08071745 -0.21472113 -0.24697866 0.057350393
0001b0 29 fc 6e be 4e 6f 08 bd d5 aa cb 3d 1f 56 f0 bd
       -0.23338379 -0.033309273 0.09944693 -0.11735176
0001c0 28 f6 34 be 28 db 9f 3d 50 1a cf 3b 21 24 63 be
       -0.17672026 0.078054726 0.0063202754 -0.22181751
0001d0 9f 9d 09 be 1f 48 cc bd d7 3e 69 3c 42 c3 5f bd
       -0.13439034 -0.099746935 0.014236174 -0.05462957
0001e0 3e 74 28 bd 0d 35 08 3e de 9b f9 bc 85 49 5f be
       -0.041126482 0.13301487 -0.030469831 -0.21805389
0001f0 60 34 b8 3c 07 b9 94 3c 2d b3 17 bd e0 18 bd 3d
       0.022485912 0.018154634 -0.03703611 0.0923326
000200 9d 3d e2 3b b7 42 df bd 45 c8 0e bd 5a 8c 67 bd
       0.0069043175 -0.10901397 -0.03485896 -0.056530334
000210 11 60 a6 bd fc 2c 8c 3b 08 df 5c 3d 86 cc c0 bd
       -0.08123792 0.0042778235 0.053923637 -0.0941401
000220 ff 7a 83 bc ea d5 14 3e 20 e4 21 3c ee 08 12 bd
       -0.01604986 0.14534727 0.009881049 -0.035653047
000230 4c 58 97 3d 15 44 b2 bd 8e 66 06 be c2 44 f2 bc
       0.07389888 -0.08704392 -0.13125059 -0.029573802
000240 65 fe 91 bd b1 aa f7 bd 05 d1 81 3d 8a b6 ef 3c
       -0.071286 -0.12093104 0.063386954 0.029261846
000250 89 42 a0 bd 7e 59 9d bd 08 37 99 bc ef 57 5f 3d
       -0.078251906 -0.07683085 -0.018702999 0.05452722
000260 02 46 70 be a4 ad ee bb 29 41 b7 3b 23 31 61 be
       -0.23464206 -0.007283883 0.0055924845 -0.219914
000270 08 3a f3 bc 1e c1 ec bd a1 e1 20 bd 68 e2 92 bd
       -0.029690757 -0.11560272 -0.039277676 -0.0717209
000280 5c 32 37 bd de 43 6d 3c 5e 7b d6 bd 32 f9 33 3e
       -0.04472576 0.014481513 -0.10472749 0.17575529
000290 3c ea 93 bd 12 62 19 bd cb b6 99 3d 39 14 3f 3e
       -0.07222411 -0.037447043 0.07505568 0.18660058
0002a0 f6 04 08 bc 82 63 98 3d f3 b2 19 3e 17 71 e1 bd
       -0.008301964 0.074408546 0.1500967 -0.11007898
0002b0 df fa 46 bd 24 c3 09 3d 6c 58 dc bc 55 ed a4 bd
       -0.048579093 0.033633366 -0.026897632 -0.0805308
0002c0 d6 2e c3 3d 08 d3 15 be ca b1 b7 3d ad f2 e0 bd
       0.095304176 -0.14631283 0.089694574 -0.10983787
0002d0 26 21 2c ba bf 7d 51 bd 29 b2 36 bd 86 50 bf 3c
       -0.0006566219 -0.05114531 -0.0446035 0.023353826
0002e0 a8 60 3d be b5 14 d4 b8 2c 7f 11 bd 1d 49 bb be
       -0.18493903 -0.00010112805 -0.03552167 -0.36579219
0002f0 10 6e 0c be cb fb 3f be 10 22 04 be 88 4a 31 bd
       -0.1371386 -0.18748395 -0.12903619 -0.04328397
000300 7d 8f f6 3c 99 de a4 3d 11 31 a6 3d e7 a0 57 3d
       0.030097717 0.0805027 0.081148274 0.052643683
000310 e2 f5 c7 3d 99 1c ec 3c 7a a1 c5 3c be e1 b4 3c
       0.09763695 0.02882223 0.02412485 0.022080299
000320 1c ff 92 bd fb 25 46 bd f5 ab 13 3e ee 0e eb 3c
       -0.071775645 -0.048376065 0.14421065 0.028693642
000330 7e 44 5e bc a8 4f 79 bd 2e 6f 9f 3d 2a 54 b1 3d
       -0.0135661345 -0.06086698 0.07784878 0.08658631
000340 41 ad ee bb ae 66 fe 3c bb 4f 30 be 6f 5a e6 bd
       -0.007283837 0.03105482 -0.17217915 -0.112477176
000350 46 63 56 bd 97 08 bc bd 3e 4b 91 3d ff 5a f7 3d
       -0.05234077 -0.09181326 0.070944294 0.12077903
000360 18 3f 13 bd 77 f8 b1 3d 0c 03 e2 bb 4f fd 1f be
       -0.035948843 0.08689969 -0.006897336 -0.15623973
000370 62 01 bc 3d 56 6c 7d 3d 7a ee 03 be 34 3e 0e be
       0.09179951 0.061870895 -0.1288394 -0.13890916
000380 15 37 65 bd d9 56 87 be 61 42 9b 3d 60 dc 36 bc
       -0.055960733 -0.26433447 0.0758102 -0.01116094
000390 86 b0 74 be 14 d2 6a 39 25 ea b0 3d ac ac 7c bb
       -0.23895463 0.00022394239 0.086384095 -0.003855507
0003a0 ac 5a 84 be 7e 1b 78 bd 42 61 a4 bd ab e0 80 3d
       -0.25850427 -0.060573094 -0.08026363 0.06292852
0003b0 e2 40 be bd c9 a7 d0 3b 41 67 2f be 3e 2f b9 bd
       -0.09289719 0.006367658 -0.17129232 -0.09042214
0003c0 78 b5 c4 bd 35 0a 47 3c 73 6d 0c 3d 24 f2 e1 bd
       -0.09604925 0.01214843 0.034284066 -0.11032513
0003d0 d3 76 8e be 96 5c 25 3e 8b ae 8c bd 80 2f 1d be
       -0.2782503 0.161486 -0.06869229 -0.15350151
0003e0 98 4b 9c bd 36 f2 14 be 6c e2 47 be 14 56 11 be
       -0.07631606 -0.14545521 -0.19519967 -0.14192992
0003f0 1b b5 98 be c4 65 46 be 5e 0e c6 bd 22 bb 31 be
       -0.29825673 -0.19374758 -0.09670709 -0.17356542

conv3.bias f4 [32]
000000 df b7 04 be 05 b5 85 39 7c f8 c8 bd f4 92 24 be
       -0.12960766 0.00025502607 -0.0981302 -0.16071683
000010 5c 7d e9 bd ff 32 87 bd 39 c4 06 be 3a 5a ba bd
       -0.114008635 -0.066015236 -0.1316079 -0.090992406
000020 aa 35 24 bd 97 c8 f0 bd 13 47 1a be 15 e4 f5 bd
       -0.04009024 -0.117570095 -0.15066175 -0.12006394
000030 2c 88 2c bc 3e b3 a4 bd dd be 28 3c 05 c9 a8 bd
       -0.010530513 -0.08042 0.010299412 -0.082414664
000040 21 1d b8 3d 93 b8 9e bd 66 7f 25 be 23 61 2d be
       0.08989931 -0.077500485 -0.1616188 -0.16931586
000050 eb 86 5e be 19 98 4a bd 4f 3c 22 bd 3f 6d fb bd
       -0.21731155 -0.049461458 -0.039608296 -0.122766964
000060 fb 87 f9 bd a0 c1 13 bc 05 b1 ee bd 35 50 78 3d
       -0.12184139 -0.009018332 -0.116548575 0.060623366
000070 bb 4a de bb bc 59 bf bd 5c 15 28 bc 4d f1 14 be
       -0.006783811 -0.09343287 -0.010258999 -0.14545174

conv4.weight f4 [32, 32, 4, 3]
000000 57 02 74 be ad af ec bc 55 d2 8b 3d 4f 09 1b be
       -0.23829018 -0.028892362 0.06827227 -0.1514027
000010 9d ea 3b bd 51 05 0a bd 0a 2f ab bd bf 83 d6 bd
       -0.04587804 -0.033696476 -0.08358581 -0.10474347
000020 98 64 95 bc 94 67 5f bb de 8d 59 be 3b f6 01 3d
       -0.018236443 -0.0034088837 -0.21245524 0.031728964
000030 36 87 c2 bd a9 3c 56 bd 3f 9e 44 3d 39 34 05 3e
       -0.09498446 -0.052303944 0.048002478 0.13008203
000040 f9 fc 89 3d 77 4e 5b bd 6f 75 b0 bc 4a 8f 59 3d
       0.06737704 -0.053541627 -0.021540372 0.053115167
000050 0b 08 93 bd 21 95 03 bd 3b 1a 8a 3d e7 b3 b6 3c
       -0.071792684 -0.032124642 0.06743284 0.022302581
000060 c9 14 a4 bd 7f 61 4a be ec 9c be bb 1a c9 8a bd
       -0.08011777 -0.19763754 -0.0058170464 -0.06776638
000070 24 65 8c bd 74 a7 aa bd d2 e3 95 bd 51 57 76 bd
       -0.068552285 -0.083327204 -0.07318844 -0.060141865
000080 df de d4 bd 32 81 64 be b3 da c8 bd 1f 2d ea bd
       -0.10394072 -0.22314909 -0.098073386 -0.114343874
000090 ae 0c 72 3c 5e 53 80 bc ed 6f 5c be ea fe 30 bd
       0.014773531 -0.015664753 -0.21527071 -0.043211855
0000a0 c0 a9 27 be 08 7a 58 be 7b 2d 17 3d 0d 64 ef bd
       -0.16373348 -0.21140301 0.036908608 -0.11689005
0000b0 69 e2 b2 3d 84 ae 28 3b 54 77 59 3d c3 32 04 3c
       0.087345906 0.0025738785 0.053092316 0.008068743
0000c0 e4 d0 8c 3d a3 1d f3 3c ec c1 8f bd fb a0 cf bb
       0.0687578 0.029677218 -0.070194095 -0.006336329
0000d0 cb 8b 0b 3d fa c9 3b bd a7 5e d1 bd 79 fa e3 3c
       0.034068864 -0.045846917 -0.102231316 0.027829396
0000e0 b8 2d 07 3d cc 69 84 bd d2 44 b0 bd 51 13 1f bd
       0.033002585 -0.06465492 -0.086068764 -0.03883678
0000f0 ce e3 8a 3d 17 c1 72 3d 71 d1 ee b8 8b 51 23 3c
       0.067817315 0.059266176 -0.00011387736 0.009968172
000100 b7 d6 fa bc 1b a6 f6 3c 00 da 8a 3d 4a e2 85 bd
       -0.030619962 0.030108502 0.067798615 -0.06537302
000110 fc f8 09 bb 78 28 cf 3d 69 0c d0 bd 08 56 ad bb
       -0.0021052947 0.10115141 -0.10158617 -0.0052897967
000120 e2 c8 fb 3c e9 aa 3d bc dc 84 b4 3c 5b 42 a6 bd
       0.030735437 -0.011576393 0.022036009 -0.08118125
000130 d8 fc 16 3d 47 b8 91 bd ea 31 aa bc 53 23 e5 bd
       0.036862224 -0.07115226 -0.020775754 -0.11188378
000140 ab 6a be bc cc 0a 56 bd 52 b1 a0 3d 96 31 d5 3d
       -0.023244223 -0.05225639 0.07846321 0.104098484
000150 ca c1 c2 3c f4 a0 b9 bc cc d0 a7 bc 02 7e 2b 3d
       0.023774046 -0.022659756 -0.020485304 0.041868217
000160 e2 4e ff bd e4 88 d6 bd b3 9f 46 be 34 3e 25 bc
       -0.124662176 -0.104753286 -0.19396858 -0.010085631
000170 c4 ed a8 3b 36 b6 a2 3c d7 08 fe bd 19 39 01 be
       0.005155297 0.019862276 -0.1240403 -0.12619437
000180 78 6b 82 3c 49 6d 73 bc 6e 1b 9d 3d ff 27 3c bd
       0.015920386 -0.014857599 0.076712474 -0.04593658
000190 17 03 06 bd 3c e7 4a 3d 47 79 51 bb 91 99 8a bc
       -0.03271779 0.04953693 -0.0031963156 -0.01691893
0001a0 56 01 d3 39 71 d5 2d be 0c 58 29 bd 9e 52 02 be
       0.00040246052 -0.16975953 -0.041343734 -0.12726828
0001b0 63 11 b4 3c b5 32 87 3d 2a 9f 39 bd 0d 7a bf 3c
       0.021980947 0.066014685 -0.045317806 0.023373628
0001c0 82 c8 ff bc 22 b7 6b bc d8 1a 7b 3d 29 8c 7c 3d
       -0.03122354 -0.014386924 0.061304897 0.061657105
0001d0 39 82 a9 bd 48 16 04 3d da 60 80 3d 3d f0 0a 3d
       -0.08276791 0.03224781 0.06268473 0.033920515
0001e0 b7 d7 72 3c 2e b8 15 3d a9 06 e8 bc 3d 35 7d 3d
       0.014821938 0.0365526 -0.028323488 0.06181835
0001f0 3f c4 49 bb 10 5a b9 bd ee 10 6d bd 21 64 87 bd
       -0.0030787138 -0.09050381 -0.057877474 -0.06610895
000200 e5 4c ce bb a8 1a 47 bc 72 d8 93 3c 65 d5 60 bd
       -0.0062957876 -0.012152351 0.018047545 -0.05489101
000210 45 58 99 bd 65 1f d7 39 66 1b 35 bd cd f1 a4 3d
       -0.07487539 0.00041031386 -0.044215582 0.08053932
000220 18 6d 21 be 5b 16 b8 3c df aa 87 bd bd e3 50 3d
       -0.15764272 0.022471597 -0.06624388 0.05099844
000230 06 02 ce 3d ba 56 4f 3d 4d c7 74 3d 76 10 e2 bc
       0.1005898 0.05061982 0.05976038 -0.02759574
000240 a7 09 03 bd b8 50 96 3d 6a af b4 bd 47 75 8e 3d
       -0.031991627 0.07339615 -0.0882252 0.06955963
000250 c4 d5 b6 bc cf 67 5d be 04 b0 96 bd a3 49 20 bc
       -0.022318728 -0.21621631 -0.07357791 -0.009783181
000260 07 80 32 be cf d7 6b bd 97 bd 0d be a2 fe 5c 3c
       -0.17431651 -0.057578858 -0.13841854 0.013488444
000270 9b ad 80 bd 51 f6 1b bd 91 34 8a bb c0 c4 b3 3a
       -0.062831126 -0.038076703 -0.004217692 0.0013715252
000280 79 64 07 be 80 b8 9c bd b9 3c f4 bc 17 94 7c 3d
       -0.13221921 -0.07652378 -0.029814111 0.061664667
000290 d6 73 74 3d c2 04 35 3d ba b0 0e bd b3 3b 5c 3d
       0.059680782 0.04419399 -0.03483651 0.05376787
0002a0 72 ab e2 3d 15 b5 34 bd 0c 66 86 bd c1 4a 98 3d
       0.11067857 -0.044118006 -0.06562433 0.07436133
0002b0 a1 8a 42 bd 20 a0 35 3d ca 42 08 3d 22 9c 37 3d
       -0.047495488 0.04434216 0.03326682 0.044826634
0002c0 eb 16 92 bd 45 b1 a3 bd f1 7a f4 bd 6d 61 f3 3d
       -0.071332775 -0.07992796 -0.11937512 0.11883817
0002d0 2d 30 9f bd b6 39 0c be 1c 07 26 3d 49 88 e3 bd
       -0.07772861 -0.1369389 0.040534124 -0.11109979
0002e0 eb b2 48 3d 11 0c fd 3a 21 39 34 bd 24 48 90 36
       0.048998754 0.0019305964 -0.043999795 4.2999327e-06
0002f0 4d 4f b2 3d 0f 11 33 bd a9 8c dc bd 82 97 a0 3d
       0.08706532 -0.04371744 -0.10769016 0.07841398
000300 42 29 34 be 9a 34 dd b9 0a b0 89 bd 35 9c 19 bd
       -0.17593864 -0.00042191596 -0.0672303 -0.037502486
000310 e4 ad 30 bd 7e d0 07 3d 5d 6d 25 bd 4f d5 97 3d
       -0.043134585 0.033157818 -0.0403875 0.07413732
000320 eb 36 2f bd 91 8c 66 3d ee 6a a8 3d f9 6a 1c be
       -0.042776983 0.0562864 0.0822352 -0.15275182
000330 54 24 97 3d ec d2 33 bd 19 fc ce 3d 86 41 cd 3d
       0.07379976 -0.043902323 0.101066776 0.10022263
000340 2d 59 f9 3c 5e 51 0e 3d c8 3a 90 38 4c 17 c5 bd
       0.03043803 0.034745567 6.877404e-05 -0.09623584
000350 a8 97 d8 3d 6e da 96 3d 5d 52 2f 3d c9 72 06 be
       0.10575801 0.07365881 0.042803157 -0.13129725
000360 88 aa 22 3c 05 64 6f bd ca 53 6c 3d 01 cd 8e bc
       0.009928353 -0.058444995 0.057697095 -0.017431738
000370 b5 ea 2d bc 8a 1f 20 bd ee b0 ba bc dc a4 82 3d
       -0.010615041 -0.039092578 -0.022789445 0.06379101
000380 e8 da e6 bc d4 f7 a6 bd 11 22 6e bd 4c ee af bd
       -0.028180555 -0.08152738 -0.058137957 -0.085903734
000390 b4 44 96 3d ac 4f ab bb d0 a9 30 be 8a 7e a0 3d
       0.07337323 -0.0052280035 -0.17252278 0.078366354
0003a0 77 b3 3b be eb 5b b1 3d f9 cb b2 bc b3 cf 37 bd
       -0.18330179 0.0866011 -0.021825777 -0.04487581
0003b0 96 d0 c9 3c 6c 6d ef 3c 2a 67 99 3d 99 36 12 3d
       0.024635594 0.029226981 0.0749038 0.0356966
0003c0 b8 53 8a bd 06 fc 13 bd d9 c3 9c bd 28 18 56 3d
       -0.06754249 -0.03612902 -0.076545425 0.05226913
0003d0 95 d4 f1 bd 76 f7 d5 bd b7 32 8a 3d 09 a2 10 be
       -0.11808125 -0.1044759 0.06747954 -0.14124312
0003e0 9e c1 b1 bb aa eb 5c 3d 8b cb 96 3d ec 31 23 3d
       -0.0054246923 0.053935684 0.073630415 0.03984253
0003f0 9d 7f d2 bd 42 4a 8e bd c7 a7 03 3e 99 41 3a bc
       -0.102782466 -0.06947757 0.1285697 -0.011368179

conv4.bias f4 [32]
000000 74 57 d6 bd 43 59 e1 bd 62 78 fc bd dc fc 13 be
       -0.10465899 -0.110033534 -0.12327649 -0.14451927
000010 d2 f8 0c bb 48 82 c8 bd 91 b6 90 bd cb 86 60 bd
       -0.0021510613 -0.09790474 -0.07066072 -0.05481605
000020 2b 2b ff bd 4e d3 60 bd 22 8f d3 bd 38 37 b8 bd
       -0.124594055 -0.054889016 -0.10330035 -0.08994907
000030 79 ec f5 bd 5e cc 10 3d 26 ec 4d 3d 49 6c 53 bd
       -0.12007994 0.03535115 0.050274037 -0.05161694
000040 3d 65 d3 bd cf 37 c2 bd b7 85 d1 bd 18 6a 1a 3c
       -0.10322044 -0.09483301 -0.10230582 0.009424709
000050 46 74 ac bd 20 ba d6 bc d5 43 b4 bc 73 9e 6d bd
       -0.08420615 -0.026211798 -0.022005001 -0.058012437
000060 ea 65 8e 3d 01 77 d3 bd aa db c0 bd ba 60 01 be
       0.06953032 -0.103254326 -0.094168976 -0.12634555
000070 d4 00 03 be f6 bb 18 be 06 6b a5 bd e6 6e fe 3c
       -0.12793285 -0.14915451 -0.08077054 0.03105874

fc.weight f4 [1, 1440]
000000 57 d0 c8 3c 5e ff ae 3c ed 01 86 bd 9f f8 16 bd
       0.024513407 0.021362003 -0.06543336 -0.036858197
000010 bb 87 c5 bc 24 b7 81 bd f7 4d 12 bc 48 0d d9 3c
       -0.024112573 -0.063337594 -0.008929721 0.02649559
000020 95 a6 03 bc 0e aa 81 bd f0 08 32 3c 50 22 8b bd
       -0.008035322 -0.063312635 0.010866389 -0.06793654
000030 de 20 38 3d b3 a5 3e 3d ff f8 7b bd 55 b5 62 3d
       0.04495322 0.04654474 -0.061516758 0.055348713
000040 5b f1 41 bd da 58 e1 bb 5e 37 46 3d 6c 5f ba bd
       -0.047349315 -0.006877047 0.048392646 -0.091002315
000050 f6 c5 b1 3d f3 03 c4 3c 80 3f c2 bd 9b 15 27 3d
       0.08680336 0.023927664 -0.09484768 0.04079209
000060 dc bc 4d bd ce 25 04 3b aa ae da bc e1 02 b9 3c
       -0.05022894 0.0020164135 -0.026694614 0.02258438
000070 c9 7a f2 bc 27 f6 cc bc 84 83 25 bd 9d af c1 3d
       -0.029599564 -0.025019718 -0.040408626 0.09457324
000080 e8 a1 70 bd 70 4b 35 bd de 05 39 bd 21 97 3e 3b
       -0.058748156 -0.044261396 -0.04517161 0.002908178
000090 8e eb 4e 3c 41 a8 40 3d 1b 79 59 bc 0b 16 ab bb
       0.012629403 0.04703546 -0.013273503 -0.0052211336
0000a0 fb 0a 90 bc af fd e5 3b 62 d1 32 bd e3 72 00 3d
       -0.01758336 0.007018767 -0.043656714 0.031359565
0000b0 70 00 0d 3d 0f 24 70 bd 53 5f 96 3c 7f b9 3f 3d
       0.034424245 -0.05862814 0.018356001 0.046807762
0000c0 55 4c 07 3d 3a 97 35 bc 9b 52 a9 3c bd ae be bc
       0.03303178 -0.0110834185 0.020669272 -0.023276681
0000d0 7a b4 23 3b aa f4 67 bd fa c1 e2 bb 49 6a 54 3d
       0.0024979399 -0.056629814 -0.0069200965 0.051859174
0000e0 0c 27 5e bd 0b a3 ae 3c 50 36 61 bc e7 22 e2 bd
       -0.054236457 0.02131798 -0.013745859 -0.11041813
0000f0 29 02 2e bd a1 26 7e bd 8c 07 07 bc 81 3c 5f 3d
       -0.04248253 -0.06204856 -0.008241545 0.05450106
000100 04 e5 75 bc a0 10 02 3d 5c 77 ac 3d 95 3e 8a bb
       -0.015008215 0.031754136 0.084212035 -0.004218886
000110 97 ed 2d 3d 42 34 11 bc 37 24 e7 3c 98 16 92 bc
       0.04246291 -0.008862557 0.02821551 -0.01783304
000120 68 e1 93 bd cb d6 f6 3c 0c 4f a6 bc 48 15 42 3d
       -0.07220727 0.030131718 -0.020301364 0.047383577
000130 ae ce 84 3d d0 2b 07 bc 62 75 23 bd 15 12 39 bd
       0.064847335 -0.008250192 -0.039906867 -0.04518326
000140 35 15 d5 bc 8e 3b 28 3b 5a 8f 97 3c ac 5a 20 3c
       -0.026011089 0.0025670263 0.018500973 0.009787243
000150 c6 fd a1 3d 55 8a 13 3c 1a 34 5c 3d aa 3e a2 3c
       0.079097316 0.009005149 0.053760625 0.019805271
000160 2b d1 52 3c 40 76 40 bc 7c cd 48 bd 9e 5e 14 3d
       0.012867252 -0.011746943 -0.04902409 0.036223046
000170 24 37 4f bd dc 20 db 3c 33 fc c9 bc c4 b5 9a 3d
       -0.050589696 0.026749067 -0.02465639 0.075542
000180 02 ac 0a bc f3 b5 a4 3c 94 37 fb bc d0 9f 37 3c
       -0.008463861 0.020106291 -0.03066615 0.011207536
000190 7c 3d 70 3c e0 74 4f bd f9 83 0f bc 55 18 11 bd
       0.0146630965 -0.05064857 -0.008759492 -0.035423595
0001a0 b6 6c 00 3a 89 7e f3 bc 69 68 17 bd dc 78 56 3d
       0.00048990117 -0.029723423 -0.036964808 0.052361354
0001b0 cd e3 26 3d b8 59 56 bd c5 e6 e5 3c c2 61 d2 bd
       0.04074459 -0.052331656 0.028064141 -0.10272552
0001c0 bb 44 17 3d a3 55 ba bd 33 cc c1 3d 9c 72 c5 bc
       0.03693078 -0.09098365 0.09462776 -0.024102502
0001d0 a7 a5 b7 bc 4b 1c c7 bc c2 71 db bc af 06 30 3d
       -0.022417856 -0.024305483 -0.026787642 0.042975124
0001e0 86 c1 bf 3c 4d 69 49 3d 2e 7e 97 3c f4 8d a2 bc
       0.023407709 0.04917269 0.018492784 -0.01984308
0001f0 1d 3c 8e bd 6b 41 31 3c 91 d6 f5 3c c9 5e 99 bc
       -0.069450594 0.0108188195 0.03000954 -0.018721955
000200 fe f2 90 bd 76 6c 75 bd 68 c1 94 bd 35 f9 a2 3c
       -0.07077597 -0.05991789 -0.07263452 0.019894222
000210 b3 cf b3 bc f9 bc 59 3b d3 5d 3f bd 15 ff ec bc
       -0.021949625 0.0033224209 -0.046720337 -0.028930226
000220 25 0b 81 3d 66 db f5 3d 82 d3 6a 3d ed 33 69 3c
       0.06300954 0.120047376 0.057330616 0.0142335715
000230 84 a5 47 3d ca 49 85 bd ef 8f 88 3d 8f 1e 0b be
       0.048741832 -0.06508215 0.06668078 -0.13585876
000240 01 6c 34 3a 67 f9 ce bd 22 5f de 3c 85 49 ff 3c
       0.0006882549 -0.101061635 0.027144972 0.031162987
000250 bb 0f aa 3c 41 0d 18 bd 80 ab 5f bd 58 00 d3 bd
       0.020759454 -0.037122015 -0.054606915 -0.103028
000260 55 8d aa 3d fb cf 05 3e 93 78 3f bc 48 02 70 3d
       0.08327738 0.1306762 -0.011686462 0.058595926
000270 1f 1d 9b bc 22 bf e8 3c 5b c9 17 3d f5 8e c6 3c
       -0.018934784 0.028411452 0.037057262 0.02423809
000280 f0 8a b2 3c d0 4d 89 3c e7 23 2b 3c b3 2e 05 3d
       0.021794766 0.016760737 0.0104455715 0.03251524
000290 e6 c1 bc bc c7 b0 9d 3c 62 91 a0 3b 26 f3 ce bb
       -0.023041677 0.019249333 0.0049001435 -0.0063156066
0002a0 d6 66 7a 3c 25 38 18 bb d9 8d 12 3d 55 10 85 3d
       0.015283307 -0.0023226824 0.035779808 0.06497256
0002b0 e3 cb 2b 3d 63 2a 11 3d 3f cd fc 3c 37 25 bd 3d
       0.04194249 0.035440814 0.030859588 0.09235614
0002c0 30 27 4a 3c 8a 48 75 bd b0 54 fe 3c fa 4b 85 3d
       0.012338445 -0.05988363 0.031046242 0.06508632
0002d0 ec c2 34 bd e6 0b 9e bb 2c 68 07 3c 53 80 87 3d
       -0.044131204 -0.0048231957 0.008264583 0.06616273
0002e0 12 07 20 3c 55 0f 31 be 9f 21 aa 3b 4a 0b 6e 3d
       0.009767311 -0.17291005 0.005191996 0.058116235
0002f0 26 23 24 bd 11 57 06 be 07 3b 83 3c 4e 16 8f bc
       -0.040072583 -0.1311915 0.016019357 -0.01746669
000300 74 e8 09 be 73 6e 1d bc 2b 40 89 bc 12 58 8a bd
       -0.1346758 -0.009608853 -0.01675423 -0.06755079
000310 64 bc d4 3d 7b 01 53 bd f2 c9 1e 3e 82 3e 0a 3e
       0.10387495 -0.051515084 0.15506724 0.13500407
000320 a8 74 3b 3d af 3d b5 3d bb 4e 15 3d 96 b0 5e be
       0.04576555 0.08849656 0.036452036 -0.2174705
000330 99 f7 33 be 3d df 03 be 46 5a a7 bd e9 e3 77 bd
       -0.1757492 -0.12878127 -0.08171515 -0.060520086
000340 17 03 5c bc 36 2c 48 3d a0 0b 8c bc dc 8f 31 3d
       -0.013428471 0.048870288 -0.017095387 0.043350086
000350 45 78 1f bd 09 14 19 bc 11 a8 3d be 14 de 86 bd
       -0.038933057 -0.009343156 -0.18521143 -0.06585327
000360 50 88 99 bd 4e d2 3b 3e 04 27 5c 3d 22 c2 d3 3d
       -0.07496703 0.18341944 0.053748146 0.10339762
000370 27 a4 a5 bd 53 bc 1c bb 16 c6 b1 3c 1a aa 5a 3b
       -0.0808795 -0.002391596 0.0217009 0.0033365549
000380 6f a6 93 3c f3 e7 8e bc 0a c9 5f bd f0 9a b0 3d
       0.018023698 -0.017444586 -0.054635085 0.08623302
000390 c6 8e 0a bd 6a 13 64 3c 7a 38 81 bb 61 ce 9b 3c
       -0.033827566 0.013920644 -0.0039435 0.019019308
0003a0 0b ef a6 bd 3b ab 8a 3c b9 82 b0 bb c7 e0 b8 bc
       -0.081510626 0.016927352 -0.005386677 -0.02256812
0003b0 fd c3 9a 3d 4a 0a ab bc b1 cb 5e 3d c2 03 d9 bc
       0.07556913 -0.02087893 0.054393474 -0.02649105
0003c0 3b 9b 0a 3d 36 aa 10 bc fa fd 5d 3d da 5f 81 bc
       0.033839446 -0.008829644 0.05419729 -0.015792776
0003d0 ab a0 4c 3d da 2d 7e bd b0 25 42 bc 66 f6 2c 3c
       0.049957912 -0.062055446 -0.011849806 0.010556793
0003e0 3b 51 11 bd b8 47 48 3d b8 ab 91 bc a1 b1 c2 bc
       -0.035477858 0.04889652 -0.017782077 -0.02376634
0003f0 64 1d 57 3c 58 67 10 bc 02 fe 72 bd 2c 12 01 bd
       0.013129566 -0.008813702 -0.059324272 -0.03151147
