model_round_6.pth (torch, 126796 bytes, 9 tensors)

conv1.weight f4 [16, 1, 16, 3]
-1.0377771 0.18326038 0.8744449 -0.8537747 0.17896698 0.19486886 -0.666505 -0.15218093
-0.17780636 -0.35818994 -0.3258637 0.5830089 -0.37171453 -0.08884705 0.29246688 0.13218392
-0.33078495 -0.022064019 0.35308304 -0.29225698 0.41627035 -0.030459171 -1.3539783 0.18806055
0.35664475 -1.3823879 -0.05347133 -0.07125428 -0.98045886 -0.76358193 0.5883613 -0.19185306
0.12203494 0.32267877 -0.41560698 0.37450686 0.78332436 0.79276294 0.17357984 -0.41905773
0.035567835 -0.88832426 0.41337973 0.068303525 0.3493133 -0.5966498 -0.23325197 -0.70738244
0.26401436 -0.20866169 0.19156002 0.34077466 -0.54523736 -0.70124406 0.91530895 -0.3087554
-0.2798818 -0.69107836 -0.011720271 0.30339184 -0.09780216 -0.12868166 -0.040947724 0.27185017
-0.14908096 -0.31956145 0.83946425 -0.20277868 -0.6949962 -1.7345506 -0.5322543 -0.32229987
-0.29840302 -0.40900108 -0.4698922 0.33394027 -0.15851839 -0.10655674 0.39290163 -0.2849924
-0.34134823 -1.0787022 0.408061 -0.37299126 0.47202462 0.1833387 -0.62857926 0.44312322
-0.26221526 -0.93451583 0.08782764 -0.33091548 -0.6809997 -1.225732 1.225574 -0.01767085
-0.40749782 -0.59078455 0.036590863 -0.20285544 0.47473356 -0.022042412 -0.05418224 0.28369802
-0.07316475 -0.38351247 0.12044113 -0.31813037 -0.2536321 0.40542072 -0.28903002 -0.46293887
0.21776158 -0.485951 -0.82092994 -0.33621097 -0.40784645 -0.039706595 0.21845318 -0.542962
-0.0024879707 0.0831007 -0.5209084 0.039899744 0.30934218 -0.269509 0.32605687 0.6676663
-0.23639071 -0.19855061 0.33913356 -0.11569493 -0.058339212 -0.014445134 -0.026461719 0.085845225
0.14272892 -0.004160864 0.0026798015 0.6226603 0.28980824 0.7084268 -0.11002879 -0.34227008
-0.39572886 0.020863261 -0.07438493 0.33216044 -0.78972447 -0.20446336 0.020053832 -0.2885057
0.0140626 -0.09771944 -0.22868244 -0.28660735 -0.33516315 0.2942206 0.11051781 -0.5771258
-0.44766313 -0.12314867 -0.27860835 -0.6564338 -0.5373339 0.19208588 -0.9961233 0.09739775
0.32275388 -0.8379448 -0.111082554 -0.8105161 0.04682758 0.1463082 -0.004319229 -0.08514367
-0.33409202 0.05912438 -0.6822313 -0.4526629 0.59358877 -0.18422128 0.019192597 -1.2759265
0.7968056 0.2136867 0.45008942 1.2848121 -0.08154536 -0.0176472 1.2621741 0.093654096
-0.024937933 0.17999887 -0.15646729 -0.23783399 -0.0822844 -0.14258134 -0.5085573 -0.051445737
-0.16409758 0.06512333 0.21952927 -0.3658694 -0.24598923 -0.14743266 -0.11282029 0.048608154
0.19600365 -0.113924995 0.2331989 -0.20894092 0.012993737 -0.12606826 -0.078741185 0.284384
0.09541652 0.21167181 -0.61526453 -0.031270765 0.2889034 -0.028975619 -0.48281628 -0.17347401
0.06854143 -0.006436677 0.23522136 0.39637497 -0.39031547 0.47907 -0.26833624 1.035928
1.4246842 0.20958552 -1.1457559 -0.30871812 0.08557203 -1.2185156 -0.1992076 0.67028594
-1.2097968 -0.20374131 -0.13539599 0.124198385 0.4347461 0.061339173 0.34917954 0.3957129
0.4340696 0.32373947 0.21159351 0.08449292 -0.024582434 -0.044186406 -0.54952514 -0.21523485
00000000: e1d5 84bf 9ca8 3b3e 9fdb 5f3f fb90 5abf
00000010: 1f43 373e b48b 473e 12a0 2abf 51d5 1bbe
00000020: df12 36be ac64 b7be 9bd7 a6be 1240 153f
00000030: 5e51 bebe 71f5 b5bd 38be 953e 395b 073e
00000040: a55c a9be 9abf b4bc 4dc7 b43e b5a2 95be
00000050: 6321 d53e 8385 f9bc 294f adbf f292 403e
00000060: 249a b63e 16f2 b0bf c104 5bbd c4ed 91bd
00000070: 5aff 7abf 1b7a 43bf d99e 163f 2175 44be
00000080: 74ed f93d 2736 a53e 70ca d4be 5dbf bf3e
00000090: f287 483f 83f2 4a3f eabe 313e bc8e d6be
000000a0: 94af 113d 3869 63bf 82a6 d33e b8e2 8b3d
000000b0: 31d9 b23e 0bbe 18bf 9bd9 6ebe 0417 35bf
000000c0: e42c 873e 69ab 55be 4f28 443e 047a ae3e
000000d0: ad94 0bbf bb84 33bf b051 6a3f 3015 9ebe
000000e0: ab4c 8fbe 83ea 30bf 6106 40bc 2d56 9b3e
000000f0: 804c c8bd 20c5 03be cdb8 27bd f22f 8b3e
00000100: aea8 18be 8f9d a3be 21e7 563f 37a5 4fbe
00000110: 45eb 31bf c105 debf d141 08bf 7d04 a5be
00000120: 48c8 98be 9768 d1be b695 f0be 38fa aa3e
00000130: a552 22be 6c3a dabd 672a c93e 86ea 91be
00000140: 32c5 aebe ea12 8abf 5fed d03e b6f8 bebe
00000150: 36ad f13e 24bd 3b3e 92ea 20bf 0ce1 e23e
00000160: 1441 86be 6e3c 6fbf fade b33d c16d a9be
00000170: ff55 2ebf c9e4 9cbf 9cdf 9c3f 75c2 90bc
00000180: 8ea3 d0be a83d 17bf 4de0 153d 56b9 4fbe
00000190: 4710 f33e 4a92 b4bc 32ee 5dbd de40 913e
000001a0: 67d7 95bd bf5b c4be d7a9 f63d fce1 a2be
000001b0: 11dc 81be 4e93 cf3e befb 93be 5306 edbe
000001c0: e4fc 5e3e 92ce f8be 7728 52bf d823 acbe
000001d0: 40d1 d0be 62a3 22bd 31b2 5f3e 8fff 0abf
000001e0: 390d 23bb b330 aa3d 415a 05bf ea6d 233d
000001f0: 1962 9e3e 15fd 89be edf0 a63e 2eec 2a3f
00000200: 6810 72be da50 4bbe eaa2 ad3e 77f1 ecbd
00000210: 19f5 6ebd 49ab 6cbc 3fc6 d8bc 9fcf af3d
00000220: 8827 123e db57 88bb 9c9f 2f3b aa66 1f3f
00000230: bf61 943e 755b 353f c656 e1bd 063e afbe
00000240: f99c cabe 6ee9 aa3c 2057 98bd ef10 aa3e
00000250: 622b 4abf d85e 51be ef47 a43c 05b7 93be
00000260: d266 663c 2121 c8bd bb2b 6abe 33be 92be
00000270: 819a abbe 15a4 963e 2957 e23d 84be 13bf
00000280: 1a34 e5be 5f35 fcbd c1a5 8ebe 0c0c 28bf
00000290: b78e 09bf 29b2 443e f001 7fbf 7978 c73d
000002a0: ff3f a53e 8d83 56bf 407f e3bd fc7d 4fbf
000002b0: 47ce 3f3d d1d1 153e 5288 8dbb ce5f aebd
000002c0: 1c0e abbe 682c 723d b6a6 2ebf 6ec3 e7be
000002d0: 6ff5 173f 81a4 3cbe cb39 9d3c 8f51 a3bf
000002e0: 74fb 4b3f b0d0 5a3e 1f72 e63e b974 a43f
000002f0: 4101 a7bd dc90 90bc ec8e a13f b8cd bf3d
00000300: a34a ccbc a051 383e f638 20be c18a 73be
00000310: b984 a8bd d800 12be d030 02bf c4b8 52bd
00000320: 3209 28be 615f 853d 48cc 603e 3c53 bbbe
00000330: 9ae4 7bbe 96f8 16be 530e e7bd 5819 473d
00000340: 2eb5 483e 8251 e9bd b1cb 6e3e 9cf4 55be
00000350: afe3 543c 0a18 01be 0f43 a1bd c89a 913e
00000360: bd69 c33d 7fc0 583e fa81 1dbf c615 00bd
00000370: 25eb 933e 475e edbc b233 f7be 2ca3 31be
00000380: 735f 8c3d c3ea d2bb dedd 703e a9f1 ca3e
00000390: 6ed7 c7be aa48 f53e 5e63 89be 4a99 843f
000003a0: 0d5c b63f 969d 563e 21a8 92bf 4d10 9ebe
000003b0: 6340 af3d 52f8 9bbf 14fd 4bbe dc97 2b3f
000003c0: 9fda 9abf 90a1 50be 3fa5 0abe b95b fe3d
000003d0: 0a97 de3e c93e 7b3d a9c7 b23e e29a ca3e
000003e0: 5f3e de3e 2ec1 a53e f8ab 583e a00a ad3d
000003f0: 1a61 c9bc cefc 34bd aead 0cbf 8666 5cbe

conv1.bias f4 [16]
0.037760593 0.48075664 -0.30161044 0.6970029 -0.7005806 -0.17889929 -0.21595216 -0.09898371
-0.5822342 0.18579283 -0.0041453987 -0.05944648 -0.13483644 0.030596828 0.27514765 -0.41406038
00000000: daaa 1a3d bc25 f63e af6c 9abe c86e 323f
00000010: 4059 33bf 6031 37be 9022 5dbe f9b7 cabd
00000020: 4d0d 15bf 7a40 3e3e 20d6 87bb 277e 73bd
00000030: 9012 0abe 33a6 fa3c 27e0 8c3e b9ff d3be

conv2.weight f4 [16, 16, 3, 5]
-0.13466284 -0.153403 -0.167261 -0.56791556 -0.71456546 -0.26654878 -0.56103086 -0.12660447
-0.34854168 -0.28578582 -0.9511973 -0.2390074 -0.17794628 -0.453376 -0.6583088 -0.08421484
-0.06145635 -1.2085965 -0.4948068 -0.49496436 -0.16945185 0.004376294 -0.56941235 -0.43169624
-0.32430616 0.11489911 0.025082616 -0.35345176 -0.435305 -0.23799722 -0.4446183 -0.22383861
-0.4598098 -0.43070877 -0.106771246 -0.03656504 0.3929355 -0.20692524 -0.2216386 -0.12631536
-0.21598697 -0.1967464 -0.39026442 0.18872385 0.28438333 0.20680209 -0.39473185 -0.61679053
-0.53726846 -0.22540124 -0.3706101 0.2955844 -0.60324275 0.21917516 0.4231333 0.9101884
-0.48012212 -0.40040162 0.04862934 0.20788814 -0.6738544 -0.42484963 -0.2827775 -0.6968044
-0.20056139 -0.14384727 -0.048340276 0.23608914 0.37495098 -0.06257407 -0.7562399 -0.08360474
0.085642315 -0.05033923 -0.29147506 -0.5211587 0.12235349 -0.2141895 -0.6030283 0.24954604
-0.77039194 0.028537894 0.773076 -0.46488136 -0.3618815 -0.29528216 -0.26855302 0.10397091
0.15938431 0.19973479 0.14307226 -0.08031906 -0.07475906 -1.312626 -0.20578475 -1.1531239
0.5603488 0.667184 -0.6240987 -0.31131315 -0.3452818 -0.9342187 -0.43086413 -0.044805504
-0.7122128 0.034250323 -0.11093571 -1.1446856 0.4113764 -0.8974933 0.123321936 -0.18578735
0.26555952 -0.23009703 -0.5502462 -0.5713748 -0.53609586 0.15804587 -0.36710837 -0.0070807515
0.406507 0.19517094 -0.16309918 0.037069723 -0.29279083 0.055786114 -0.8578188 0.16601282
0.07093115 -0.63538945 -0.37230253 -0.82604843 -0.09896957 -0.12762593 -0.9979847 -0.38024366
-0.54150766 -0.74525744 -0.40095073 0.12749279 -0.23759975 -0.8310565 0.12777634 -0.1501139
-0.38819018 -0.77672535 -0.033154935 0.48250934 -0.33408397 -0.5670965 -0.8775455 -0.21005253
-0.29869133 -0.40172142 0.07439845 0.44375572 0.31378087 -0.6841884 -0.07787086 -0.6204726
-0.3839859 -0.61410016 0.012129816 0.082385704 0.5510325 -0.04219517 0.06501226 -0.30659837
0.12332627 -0.008282343 -0.6682287 0.056535076 0.52143776 -0.3691247 -0.13010709 -0.47838888
-0.16017893 -0.0049568266 -0.3168839 -0.12517287 -0.91613203 0.14623533 0.546037 -0.9158995
-0.16848668 -1.3925434 -0.3381694 0.48189646 0.10208722 0.13074419 -1.0169599 -0.31496996
-0.35901397 -0.15173896 0.06382256 0.12922741 -0.2891925 -0.19875658 -0.52566856 -0.05540015
-0.18908127 0.40064526 -0.47329283 -0.38515437 0.18451716 0.15429688 -0.11396842 -0.41129875
0.13783911 0.063221514 -0.8944704 -0.0021738587 -0.0014509893 -0.78825635 -0.15744254 -0.14425695
-0.726294 -0.07461264 -0.2602552 -0.34773138 0.09666916 -0.28384537 -0.4331205 -0.1868765
-0.107911974 -0.20765832 -0.3612149 -0.044130784 0.11931917 -0.34866267 -0.6499789 -0.43418923
0.34799007 -0.20253408 -0.62997824 -0.30322945 0.120574206 0.15136427 -0.06780922 -0.5160748
-0.80444795 -0.22024329 -0.57070005 -0.51175874 -0.22695284 -0.80015266 -0.58438957 -0.9614397
-0.4952415 0.094445236 -0.41195393 -0.6276909 -0.8551036 -1.0087001 -0.18157816 -0.28059083
00000000: 0ee5 09be ad15 1dbe 7846 2bbe ea62 11bf
00000010: c3ed 36bf 1579 88be b89f 0fbf 9aa4 01be
00000020: 0e74 b2be 8552 92be ab81 73bf 5bbe 74be
00000030: 8d37 36be e620 e8be ed86 28bf d478 acbd
00000040: a7b9 7bbd 4ab3 9abf 5157 fdbe f86b fdbe
00000050: c984 2dbe 0467 8f3b 02c5 11bf 4a07 ddbe
00000060: 750b a6be 3950 eb3d 0f7a cd3c a1f7 b4be
00000070: 4ce0 debe 8bb5 73be 03a5 e3be f335 65be
00000080: 316c ebbe dc85 dcbe e2aa dabd 39c5 15bd
00000090: d82e c93e 36e4 53be 3bf5 62be d058 01be
000000a0: b02b 5dbe e377 49be bdd0 c7be d340 413e
000000b0: b19a 913e edc3 533e 4b1a cabe fce5 1dbf
000000c0: 6d8a 09bf 95cf 66be 9bc0 bdbe d756 973e
000000d0: 1e6e 1abf 746f 603e eea4 d83e 1b02 693f
000000e0: 91d2 f5be 7101 cdbe 8f2f 473d a1e0 543e
000000f0: b981 2cbf e485 d9be 36c8 90be c661 32bf
00000100: f75f 4dbe b34c 13be 7400 46bd 5ac1 713e
00000110: 93f9 bf3e d626 80bd f098 41bf f638 abbd
00000120: 3d65 af3d 8230 4ebd 383c 95be a86a 05bf
00000130: 7794 fa3d 7e54 5bbe 1060 1abf ff88 7f3e
00000140: 6838 45bf 4dc8 e93c 4fe8 453f ee04 eebe
00000150: 8848 b9be 392f 97be c87f 89be b3ee d43d
00000160: a435 233e 4787 4c3e 8981 123e 527e a4bd
00000170: 471b 99bd 2104 a8bf 3db9 52be 9099 93bf
00000180: 0573 0f3f 92cc 2a3f efc4 1fbf 7064 9fbe
00000190: c7c8 b0be f528 6fbf 399a dcbe fa85 37bd
000001a0: 9453 36bf 114a 0c3d 4332 e3bd 0f85 92bf
000001b0: ed9f d23e 1fc2 65bf 3690 fc3d 0a3f 3ebe
000001c0: 6bf7 873e 8e9e 6bbe efdc 0cbf 9e45 12bf
000001d0: 943d 09bf c7d6 213e a1f5 bbbe a605 e8bb
000001e0: af21 d03e e4da 473e 7903 27be 6cd6 173d
000001f0: aee8 95be fb7f 643d 039a 5bbf 44ff 293e
00000200: 5a44 913d e2a8 22bf 709e bebe e977 53bf
00000210: 8fb0 cabd 5fb0 02be ed7b 7fbf 4caf c2be
00000220: 3fa0 0abf 31c9 3ebf 6a49 cdbe 788d 023e
00000230: 594d 73be 1ec0 54bf cdd7 023e 75b7 19be
00000240: ddc0 c6be 79d7 46bf 78cd 07bd 770b f73e
00000250: 0e0d abbe 3c2d 11bf d2a6 60bf 0318 57be
00000260: 12ee 98be 6eae cdbe 375e 983d f333 e33e
00000270: e3a7 a03e f926 2fbf c27a 9fbd 4bd7 1ebf
00000280: cd99 c4be ab35 1dbf 23bc 463c d6b9 a83d
00000290: 7710 0d3f d8d4 2cbd 2625 853d 76fa 9cbe
000002a0: 7c92 fc3d aab2 07bc 0911 2bbf 5391 673d
000002b0: f27c 053f eafd bcbe cb3a 05be 63ef f4be
000002c0: f205 24be e06c a2bb 9b3e a2be 512d 00be
000002d0: a187 6abf b7be 153e 15c9 0b3f 6478 6abf
000002e0: c687 2cbe dd3e b2bf 8a24 adbe 22bb f63e
000002f0: 1b13 d13d cee1 053e be2b 82bf be43 a1be
00000300: aed0 b7be 7561 1bbe 67b5 823d 3154 043e
00000310: 0a11 94be d886 4bbe 3792 06bf 45eb 62bd
00000320: 859e 41be 6021 cd3e 7053 f2be f432 c5be
00000330: 11f2 3c3e 0000 1e3e 4668 e9bd c095 d2be
00000340: b225 0d3e 487a 813d 03fc 64bf 4c77 0ebb
00000350: 1f2f beba 2bcb 49bf 9e38 21be 18b8 13be
00000360: 67ee 39bf 83ce 98bd 2b40 85be d909 b2be
00000370: 7bfa c53d 2e54 91be f8c1 ddbe 8e5c 3fbe
00000380: f400 ddbd 62a4 54be 29f1 b8be 7bc2 34bd
00000390: 9c5d f43d ea83 b2be 0465 26bf 0d4e debe
000003a0: c12b b23e 1865 4fbe 4146 21bf e440 9bbe
000003b0: 9cef f63d 3cff 1a3e 8fdf 8abd 7a1d 04bf
000003c0: 4df0 4dbf 7587 61be 6619 12bf 9f02 03bf
000003d0: 5366 68be ced6 4cbf 8e9a 15bf ea20 76bf
000003e0: 4b90 fdbe 816c c13d a0eb d2be 5ab0 20bf
000003f0: 12e8 5abf 161d 81bf a0ef 39be 9aa9 8fbe

conv2.bias f4 [16]
0.30457243 -0.35232323 -0.034328457 -0.8855597 -0.09338198 0.12504636 -0.24451944 -0.4590062
-0.21028176 -0.003080312 -0.7394025 -0.5592713 -0.84517246 -0.64578754 0.025661392 -0.3338498
00000000: ebf0 9b3e b663 b4be ff9b 0cbd 0ab4 62bf
00000010: 0d3f bfbd 270c 003e 4e63 7abe dc02 ebbe
00000020: 1a54 57be 0fdf 49bb 7b49 3dbf 672c 0fbf
00000030: 395d 58bf 5552 25bf d737 d23c 5cee aabe

conv3.weight f4 [32, 16, 8, 3]
-0.58156407 0.17954305 -0.028341921 -0.3072241 -0.4616935 -0.15164174 -0.29534045 -0.0534692
-0.032287985 -0.24620736 -0.3330454 -0.3257363 -0.4340679 -0.2464628 0.074474074 0.027148189
0.15028068 -0.23410928 0.07019714 -0.2501034 -0.39501655 0.08949755 -0.005989168 -0.06455177
0.64448166 -0.20679063 -0.27622068 0.059588984 0.2043603 -0.111207366 -0.25671005 0.022406176
-0.10653457 -0.43257886 -0.13990572 -0.49962485 -0.21365431 -0.24725904 -0.50051534 -0.19722031
0.2004124 -0.28159317 -0.27002105 -0.07341495 0.3077218 -0.078078575 -0.033943534 0.038414605
0.1240077 -0.2584937 0.04032437 -0.369272 0.29554737 -0.15411967 0.1433503 -0.34985936
0.035808314 -0.105951525 -0.44486678 -0.3334921 -0.27903655 0.05145675 -0.22147745 -0.4746845
0.11904794 -0.050000325 -0.2234843 -0.045696683 0.10153889 -0.0953396 0.085534014 -0.6614837
-0.30239043 -0.62299186 -0.631654 -0.545158 -0.29700366 -0.32057336 -0.22906843 -0.59070754
0.48122367 -0.4269504 -0.51865566 -0.6924668 -0.6909913 -0.45484278 -0.28842032 -0.4573692
0.0832854 -0.43633792 -0.51680154 -0.15398045 -0.21900848 -0.5295075 -0.73195213 -0.07214654
-0.46403858 -0.23057257 -0.06665553 -0.17947316 -0.46637452 0.08224741 0.042089548 0.014849772
-0.050875083 0.045063954 -0.109774366 -0.29025596 -0.43836534 0.04902943 -0.19034639 0.15972252
-0.29617167 -0.07339189 0.08706895 0.060959462 -0.19141549 -0.07010223 -0.0022967013 0.19902791
-0.7039597 -0.13247377 -0.81551033 -0.3744418 0.66046906 0.037608445 0.030023098 -0.41647902
-0.3590285 -0.81584996 -0.10125841 0.06311418 -0.25097308 -0.057161458 0.026518349 -0.041812945
-0.018952532 -0.05658698 -1.0884663 0.14289308 -0.3084453 -0.12984245 -0.06241341 -0.39424753
-0.21813986 -0.13320196 0.017052704 0.48946375 -0.3767769 -0.015370715 -0.34843996 -0.61038613
-0.28173882 -0.33555356 -0.29267138 -0.32417917 -0.36451697 -0.17794932 -0.5502426 0.0439334
-0.08358148 -0.19747387 0.45764735 -0.183159 -0.32229012 -0.39098498 -0.39277288 -0.11709507
0.20961553 0.15040621 -0.5176518 -0.12419106 -0.5186482 -0.39894107 -0.32248187 -0.14707658
-0.19955929 -0.29930437 -0.07324335 0.0011942963 -0.41690916 -0.56733733 -0.28706574 0.24576196
0.09192841 -0.11805915 0.13723606 0.16017365 -0.21759327 -0.59730625 0.001126644 -0.22722244
-0.008663685 -0.10921161 -0.15377249 0.2488738 -0.12782812 -0.10694882 -0.35280076 -0.048354663
-0.14447863 0.098409265 -0.30596462 -0.33779573 -0.048483007 -0.10995755 -0.6343799 0.021553047
0.019054292 -0.35529593 -0.17229627 -0.38994634 -0.5448059 -0.14506365 -0.21148226 -0.24804623
0.21241227 -0.15903756 -0.52116805 -0.5009142 -0.33474648 -0.099733256 -0.18980373 -0.4378306
0.1943876 0.2516984 0.21116576 0.026460918 0.14579108 -0.038508628 0.68425953 -0.07900049
-0.87947416 -0.08241021 -0.045380026 0.07203573 -0.24866143 -0.23243518 -0.35251787 -0.1591379
-0.58693284 -0.69442666 -0.76362336 -0.1949982 -0.26328322 0.21328057 -0.16245791 -0.23585193
-0.4315769 0.20681587 0.0075504384 -0.011142496 -0.020000102 -0.14329599 -0.354344 -0.47409365
00000000: 62e1 14bf 22da 373e 512d e8bc 7a4c 9dbe
00000010: 1763 ecbe f947 1bbe dd36 97be 8502 5bbd
00000020: 6840 04bd c81d 7cbe ed84 aabe e9c6 a6be
00000030: 263e debe bf60 7cbe dd85 983d e165 de3c
00000040: 2ee3 193e 58ba 6fbe 85c3 8f3d 8e0d 80be
00000050: 9c3f cabe 7e4a b73d c840 c4bb b833 84bd
00000060: c0fc 243f ecc0 53be cc6c 8dbe 9413 743d
00000070: d443 513e b0c0 e3bd 806f 83be 288d b73c
00000080: cc2e dabd fa7a ddbe 7243 0fbe d4ce ffbe
00000090: 32c8 5abe 7931 7dbe c621 00bf 1ff4 49be
000000a0: e838 4d3e fb2c 90be 3340 8abe 945a 96bd
000000b0: b68d 9d3e a9e7 9fbd 6008 0bbd a258 1d3d
000000c0: c0f7 fd3d 4959 84be 2b2b 253d 3811 bdbe
000000d0: fc51 973e 8cd1 1dbe 6cca 123e c420 b3be
000000e0: bdab 123d 1dfd d8bd 94c5 e3be 7abf aabe
000000f0: e1dd 8ebe 50c4 523d fcca 62be d909 f3be
00000100: 68cf f33d 24cd 4cbd 11d9 64be 722c 3bbd
00000110: 9ff3 cf3d 6941 c3bd 752c af3d ff56 29bf
00000120: ebd2 9abe 657c 1fbf 14b4 21bf 7a8f 0bbf
00000130: dd10 98be 3122 a4be ea90 6abe 9c38 17bf
00000140: f362 f63e 3e99 dabe 9ec6 04bf 8145 31bf
00000150: cee4 30bf 27e1 e8be d4ab 93be 4c2c eabe
00000160: 8991 aa3d af67 dfbe 1b4d 04bf 0dad 1dbe
00000170: c243 60be ce8d 07bf 3761 3bbf 91c1 93bd
00000180: 7796 edbe 371b 6cbe b282 88bd d0c7 37be
00000190: a4c8 eebe 5571 a83d 1766 2c3d 754c 733c
000001a0: 6462 50bd fb94 383d 62d1 e0bd 6e9c 94be
000001b0: 6c71 e0be 15d3 483d 2aea 42be 4d8e 233e
000001c0: d0a3 97be 7d4e 96bd 3551 b23d a1b0 793d
000001d0: 6c02 44be c291 8fbd 4184 16bb f9cd 4b3e
000001e0: b436 34bf 34a7 07be 49c5 50bf d6b6 bfbe
000001f0: 8014 293f 500b 1a3d 00f3 f53c bd3c d5be
00000200: 95d2 b7be 8bdb 50bf 9260 cfbd 0242 813d
00000210: 8b7f 80be 2222 6abd 023d d93c 0d44 2bbd
00000220: 5742 9bbc c0c7 67bd dd52 8bbf 9052 123e
00000230: 8bec 9dbe 6bf5 04be 34a5 7fbd d0da c9be
00000240: 0e60 5fbe 1866 08be 1db2 8b3c fe9a fa3e
00000250: e7e8 c0be 74d5 7bbc b966 b2be 4442 1cbf
00000260: 1240 90be adcd abbe 06d9 95be d0fa a5be
00000270: f8a1 babe 5938 36be b3dc 0cbf 82f3 333d
00000280: c42c abbd 9736 4abe c150 ea3e 088e 3bbe
00000290: 3603 a5be 2f2f c8be 8719 c9be 8acf efbd
000002a0: 74a5 563e 1604 1a3e d484 04bf e257 febd
000002b0: 21c6 04bf 0142 ccbe 581c a5be 3e9b 16be
000002c0: 4559 4cbe 6c3e 99be 9c00 96bd ef89 9c3a
000002d0: 1e75 d5be 053d 11bf 48fa 92be 06a9 7b3e
000002e0: f644 bc3d ffc8 f1bd 9c87 0c3e 9004 243e
000002f0: c5d0 5ebe 10e9 18bf e6ab 933a 00ad 68be
00000300: 21f2 0dbc 56aa dfbd 8976 1dbe c6d8 7e3e
00000310: 60e5 02be fc07 dbbd 4da2 b4be 8a0f 46bd
00000320: 35f2 13be cc8a c93d 65a7 9cbe 90f3 acbe
00000330: 1e96 46bd 6d31 e1bd b966 22bf 0490 b03c
00000340: bf17 9c3c 59e9 b5be 6f6e 30be 0ca7 c7be
00000350: 6678 0bbf 918b 14be ce8e 58be d5ff 7dbe
00000360: 9a82 593e beda 22be 456b 05bf ea3b 00bf
00000370: e463 abbe f340 ccbd e95b 42be 552b e0be
00000380: 8b0d 473e 9dde 803e d63b 583e 91c4 d83c
00000390: 424a 153e 39bb 1dbd a22b 2f3f 02cb a1bd
000003a0: 3825 61bf afc6 a8bd 68e0 39bd 7887 933d
000003b0: 1aa1 7ebe 7d03 6ebe 397d b4be 0cf5 22be
000003c0: 3b41 16bf f2c5 31bf d27c 43bf 9cad 47be
000003d0: 0fcd 86be 3966 5a3e 5e5b 26be 2b83 71be
000003e0: a6f7 dcbe 8ac7 533e ab69 f73b 048f 36bc
000003f0: 41d7 a3bc 2fbc 12be 946c b5be 67bc f2be

conv3.bias f4 [32]
-0.45911255 -0.046102166 -0.4782503 -0.418744 -0.5947883 -0.61812896 -1.1230882 -0.6880818
0.2595149 -0.16691446 0.41867366 -0.18201554 -0.3739876 -0.3849821 -0.7359222 -1.4053737
0.6675159 -1.0497289 -0.16457447 -0.5479982 0.7423547 -0.366468 -0.26227576 -0.035771113
-0.40846774 -1.2633656 -0.41676795 -0.74249876 0.5073253 -0.4860995 -0.5768126 0.4852569
00000000: cd10 ebbe a0d5 3cbd 39dd f4be 9d65 d6be
00000010: 0c44 18bf b33d 1ebf 5bc1 8fbf 2126 30bf
00000020: 23df 843e a0eb 2abe 655c d63e 4862 3abe
00000030: 4d7b bfbe 601c c5be 6665 3cbf 49e3 b3bf
00000040: 52e2 2a3f 845d 86bf 3686 28be 9c49 0cbf
00000050: f50a 3e3f b2a1 bbbe 0249 86be bb84 12bd
00000060: af22 d1be f7b5 a1bf 9c62 d5be 6614 3ebf
00000070: 12e0 013f 09e2 f8be fea9 13bf 9873 f83e

conv4.weight f4 [32, 32, 4, 3]
-0.039482486 -0.21118015 0.1636761 -0.24225828 -0.014127154 -0.33307987 -0.26549673 -0.21626264
-0.24767649 -0.23046793 -0.0261986 0.062425975 -0.14316267 -0.03500571 -0.057202846 -0.016117616
-0.08147047 0.027631132 -0.14351532 0.0074493205 -0.27262107 -0.19877464 -0.21489109 -0.41072983
-0.29202688 -0.024601586 -0.0016693791 -0.2145568 -0.10062666 -0.16407758 -0.06488387 -0.28129676
-0.05980087 -0.0053661596 -0.13064055 -0.17933981 -0.38977647 -0.04272208 0.053685874 0.067390025
-0.38910803 0.19875516 -0.17320971 0.018738553 -0.24177672 0.14602093 -0.43128562 0.055657268
0.3218037 -0.31783563 -0.08390632 -0.033551358 -0.0834711 -0.26791114 -0.0653192 -0.36108077
-0.022663217 -0.12800303 -0.45021278 -0.36777982 -0.19500978 -0.08397179 0.19076948 -0.05905612
-0.053354282 -0.28120708 0.030083008 -0.26108375 0.04207513 -0.3466826 -0.23379245 0.049996976
-0.30039963 -0.17888346 -0.35931927 -0.33370766 -0.14780994 -0.22633803 -0.19819933 -0.172691
-0.078386314 -0.1999238 0.042143706 0.042812172 -0.27069303 -0.24980223 -0.0940326 -0.13271746
-0.3353139 -0.28400788 -0.17981622 -0.051388968 -0.066592574 -0.3395818 0.10879039 -0.1415295
0.19754475 0.11330496 -0.28395686 -0.059595548 -0.2790538 -0.360937 -0.0055753696 -0.23585318
-0.080798544 -0.4882557 -0.00557878 -0.15004297 -0.056275465 -0.023837294 -0.16808303 -0.3097705
-0.18950874 0.06709967 -0.16833164 -0.10190704 -0.06593891 -0.024937108 -0.28199798 -0.026503831
0.28059372 -0.19403404 -0.020034013 -0.101485044 0.14307551 -0.15923555 -0.38197234 -0.17061585
-0.50226736 -0.12857719 -0.32144296 -0.2492273 -0.06271987 0.026107129 0.19953404 -0.254514
-0.28778687 -0.25494432 -0.20306295 -0.04726471 -0.22510128 -0.5752258 -0.2535071 0.17334835
-0.079054765 -0.37038153 0.048698302 -0.26747578 -0.1690839 -0.033623155 -0.34921417 -0.31232306
-0.043418497 -0.05449551 -0.11938707 -0.403612 -0.33678216 -0.032438442 -0.20947984 -0.15508448
-0.1361905 -0.111221805 -0.06964052 -0.3435745 -0.11689281 -0.014577461 0.116303794 -0.22583322
-0.2149922 -0.28435043 -0.14860599 -0.070251346 0.1263593 0.0828338 -0.24455361 -0.12039591
-0.073616065 -0.20614383 -0.30514666 -0.060595445 0.13802294 -0.22999388 -0.07565784 -0.2833949
-0.33627227 -0.34321257 0.09864647 -0.20718628 -0.4252373 -0.32562232 -0.3070809 -0.3663658
-0.0039062484 -0.034388322 -0.06079071 -0.092170574 -0.05675973 0.11256325 0.019942462 -0.12188995
-0.07080833 -0.043912128 0.040145505 -0.3349041 -0.14791192 -0.2091326 -0.125642 -0.20632479
-0.42842478 -0.4960336 -0.31394562 -0.1560912 -0.056300666 -0.010217741 -0.06763841 -0.47136515
-0.27251035 -0.114239745 0.13954763 -0.13182737 -0.22807814 -0.016479446 -0.30454376 -0.12594685
-0.20128535 -0.10613623 -0.40619338 -0.15720184 -0.053519756 -0.014203145 -0.07914638 -0.35643604
-0.17470352 -0.16551116 -0.21451995 -0.28663138 -0.044040542 -0.31492007 -0.23837554 -0.047070995
-0.3820221 -0.1954551 -0.024383735 -0.29360303 -0.31798044 -0.28415927 -0.35859507 0.07441021
-0.047950484 0.07166843 -0.3179751 -0.21007264 -0.22798026 -0.08546805 0.08956929 -0.45166856
00000000: 63b8 21bd 9c3f 58be b59a 273e 8e12 78be
00000010: 9475 67bc 7289 aabe 30ef 87be f473 5dbe
00000020: e89e 7dbe c9ff 6bbe 729e d6bc 61b2 7f3d
00000030: 3c99 12be 2662 0fbd 884d 6abd 1709 84bc
00000040: fdd9 a6bd af5a e23c aef5 12be 6e19 f43b
00000050: fd94 8bbe 948b 4bbe 690c 5cbe 2e4b d2be
00000060: 8c84 95be 4489 c9bc 11cf daba c7b4 5bbe
00000070: 5a15 cebd f403 28be d6e1 84bd 2106 90be
00000080: c2f1 74bd 9cd6 afbb a3c6 05be dba4 37be
00000090: c890 c7be 59fd 2ebd b8e5 5b3d c803 8a3d
000000a0: 2b39 c7be 7986 4b3e e35d 31be 9881 993c
000000b0: 5194 77be 8386 153e 78d1 dcbe e0f8 633d
000000c0: 74c3 a43e 5abb a2be 14d7 abbd 266d 09bd
000000d0: e5f2 aabd a62b 89be 13c6 85bd 94df b8be
000000e0: 36a8 b9bc 3a13 03be 4a82 e6be a34d bcbe
000000f0: a5b0 47be 67f9 abbd 1359 433e d5e4 71bd
00000100: 058a 5abd 60fa 8fbe a470 f63c c5ac 85be
00000110: f956 2c3d 6280 b1be 4a67 6fbe a1c9 4c3d
00000120: fbcd 99be 3a2d 37be b2f8 b7be bbdb aabe
00000130: 7d5b 17be 28c5 67be c4f4 4abe e9d5 30be
00000140: 0189 a0bd d3b8 4cbe e19e 2c3d d15b 2f3d
00000150: 4798 8abe 28cc 7fbe 2a94 c0bd 16e7 07be
00000160: 43ae abbe 7b69 91be be21 38be 3d7d 52bd
00000170: b061 88bd aadd adbe 7fcd de3d 1ced 10be
00000180: 2c49 4a3e 6e0c e83d cb62 91be 761a 74bd
00000190: 24e0 8ebe bccc b8be 97b1 b6bb 7f83 71be
000001a0: b579 a5bd a7fc f9be 33ce b6bb dda4 19be
000001b0: 1a81 66bd 6e46 c3bc f51d 2cbe 3d9a 9ebe
000001c0: 940e 42be 8d6b 893d 215f 2cbe a3b4 d0bd
000001d0: fb0a 87bd e848 ccbc 0a62 90be 901e d9bc
000001e0: fba9 8f3e dcb0 46be 5f1e a4bc 64d7 cfbd
000001f0: 6382 123e a50e 23be e191 c3be ecb5 2ebe
00000200: 9894 00bf bda9 03be 2c94 a4be 7135 7fbe
00000210: 4673 80bd 9ede d53c a752 4c3e a94f 82be
00000220: cd58 93be 1088 82be bcef 4fbe a498 41bd
00000230: f380 66be ff41 13bf afcb 81be 3b82 313e
00000240: 77e7 a1bd a6a2 bdbe df77 473d 96f2 88be
00000250: 5424 2dbe 6fb8 09bd 33cc b2be cfe8 9fbe
00000260: 98d7 31bd af36 5fbd 3581 f4bd 3ba6 cebe
00000270: b66e acbe 2cde 04bd e281 56be 77ce 1ebe
00000280: 8675 0bbe 42c8 e3bd b09f 8ebd ffe8 afbe
00000290: 7f65 efbd 4ed6 6ebc af30 ee3d d340 67be
000002a0: ea26 5cbe 6196 91be 2b2c 18be f0df 8fbd
000002b0: 5564 013e c4a4 a93d 436c 7abe 2292 f6bd
000002c0: 05c4 96bd 5e17 53be 2f3c 9cbe ee32 78bd
000002d0: e355 0d3e 8483 6bbe 7ff2 9abd 2319 91be
000002e0: e12b acbe 8fb9 afbe 2907 ca3d a428 54be
000002f0: b4b8 d9be f8b7 a6be b539 9dbe 4c94 bbbe
00000300: f9ff 7fbb c5da 0cbd aeff 78bd edc3 bcbd
00000310: e47c 68bd 9087 e63d 605e a33c 70a1 f9bd
00000320: f503 91bd 34dd 33bd 9d6f 243d 8d78 abbe
00000330: 3976 17be db26 56be 4ca8 00be ce46 53be
00000340: 7e5a dbbe 1ef8 fdbe 7bbd a0be 5fd6 1fbe
00000350: 879b 66bd 5068 27bc 0286 8abd c656 f1be
00000360: 7a86 8bbe 87f6 e9bd 93e5 0e3e c1fd 06be
00000370: 518d 69be e7ff 86bc 29ed 9bbe 36f8 00be
00000380: bf1d 4ebe f45d d9bd 94f8 cfbe 85f9 20be
00000390: 8837 5bbd 4fb4 68bc 7f17 a2bd c97e b6be
000003a0: 7be5 32be c27b 29be 1eab 5bbe 59c1 92be
000003b0: db63 34bd 343d a1be b818 74be 84cd 40bd
000003c0: 6798 c3be 6225 48be 66c0 c7bc 2353 96be
000003d0: 55ce a2be 537d 91be c699 b7be 6164 983d
000003e0: ba67 44bd e6c6 923d a2cd a2be 481d 57be
000003f0: a873 69be df09 afbd 1b70 b73d 1a41 e7be

conv4.bias f4 [32]
-0.3988747 -0.3222811 -0.3594662 -0.41731998 -0.23414506 -0.40888047 -0.35262924 0.04053354
-0.37066686 -0.31074277 0.124578364 -0.3016956 -0.294894 0.19124556 -0.5337144 0.11931812
-0.40514892 -0.39269453 -0.17502376 -0.12027741 -0.12572299 0.066666245 -0.30476192 -0.41008845
-0.31211033 -0.48904654 -0.07328161 -0.263647 -0.32900587 -0.46622425 -0.18256539 -0.40024194
00000000: 4e39 ccbe 0702 a5be f40b b8be f7aa d5be
00000010: b9c3 6fbe c858 d1be d28b b4be 7f06 263d
00000020: 0cc8 bdbe ad19 9fbe f122 ff3d d877 9abe
00000030: 59fc 96be e0d5 433e 82a1 08bf 0f5d f43d
00000040: ae6f cfbe 420f c9be 6e39 33be 0154 f6bd
00000050: 87bd 00be 5088 883d c109 9cbe 1df7 d1be
00000060: edcc 9fbe 4f64 fabe ab14 96bd bdfc 86be
00000070: 7573 a8be f2b4 eebe 6cf2 3abe 83ec ccbe

fc.weight f4 [1, 1440]
-0.05729002 -0.0040440713 0.2514197 0.21293838 -0.009392556 0.106808886 -0.3454596 0.49253672
0.03109258 0.04470303 -0.20561522 -0.17776172 -0.14643426 -0.11910714 0.024414647 -0.03754256
0.009880337 -0.15554431 -0.023917213 0.20642662 -0.18181725 0.22722924 -0.1486985 -0.06799672
0.19638577 0.21080779 -0.1381808 0.019475712 0.11164719 0.14191107 -0.19647339 -0.1415889
-0.08439312 -0.08212413 -0.16668738 -0.031388104 -0.14362267 -0.0150052365 0.005517873 0.07016896
0.029116526 0.15411523 -0.008776513 -0.066852756 -0.05088665 0.0364058 -0.28238267 0.5294384
-0.22611436 0.30224597 -0.34293726 0.3504325 0.24506164 -0.0015014376 -0.20994112 -0.29634246
0.27334502 0.3820976 0.31511062 0.2614686 0.20765156 -0.18842268 0.12076876 0.010686851
0.016329156 0.1880136 -0.19119598 -0.031211162 -0.24196859 -0.19812883 0.07263513 -0.26455435
0.024934776 0.075212255 0.55457056 -0.26383945 0.10829861 0.09417816 0.35217294 -0.25024667
-0.12723863 -0.20385443 0.025512036 0.21103251 0.018373808 -0.040882375 0.42320016 0.17490073
-0.048821665 0.13080938 -0.13887736 0.24032488 0.47108087 0.22766848 -0.09766304 0.43163854
-0.26016793 0.4908473 0.17480022 -0.08702942 0.16509147 0.11187387 0.33627126 0.09509981
-0.2263738 0.28917253 -0.3408038 -0.06554727 -0.052722182 0.14084293 0.31405118 0.00048494546
-0.21447049 0.056779604 -0.014318072 -0.33542368 -0.08713088 0.10371418 -0.06719908 0.063802
-0.14024292 0.119754665 0.15564828 0.2245336 0.23503383 0.022119716 0.033745967 -0.024492815
0.0068609943 -0.017279146 0.21855135 0.18388376 0.14783724 -0.2575351 -0.06519547 -0.021093784
0.3644625 0.49559376 0.17002894 -0.27993745 -0.3168963 -0.29389384 0.3337793 0.2166675
0.19387415 -0.0912544 0.32371712 0.049515273 0.009937599 -0.29375887 -0.15321267 0.029815877
0.256409 0.093115166 -0.28822446 -0.096994095 0.075394586 -0.07047977 -0.1280017 0.12772226
0.21874426 -0.07421175 -0.046480134 0.4965576 -0.16445029 0.1145061 -0.152234 -0.11782434
0.008210465 -0.030247862 0.01459163 0.106509164 -0.09289131 -0.0016751144 -0.007561233 -0.056124087
0.06153045 0.19857308 -0.13203418 -0.09482734 0.47741523 0.3751079 0.39027056 -0.2607679
-0.2054717 -0.20868397 0.473144 0.33476323 -0.1753228 0.29818118 -0.2841425 0.37172663
0.12403785 -0.030973865 -0.124818996 0.013971496 -0.12478063 -0.040099166 0.21027365 -0.08561066
-0.25468495 -0.12848671 -0.04795271 0.2448591 -0.24224837 -0.059340786 0.13465343 0.26415128
-0.045957685 -0.27121395 0.4277222 -0.028175155 0.017803032 0.47353718 -0.045830168 0.11612452
0.04714373 0.19853906 -0.031047106 0.14398515 0.09312632 0.13754006 0.27069113 -0.17337392
-0.26809284 -0.4061377 -0.2498212 0.21518761 0.41624022 0.5768686 -0.3651489 -0.0943181
-0.15799192 -0.005713066 0.08638605 0.20775054 0.09725476 0.32290614 -0.16266222 -0.32986447
-0.16132501 0.18977934 -0.08095305 -0.067565 -0.29633006 -0.14018404 -0.23918086 -0.1892237
0.12946984 -0.06710161 0.4668975 0.11734397 -0.09977949 -0.10804873 0.21756928 -0.08165996
00000000: f1a8 6abd 2184 84bb 15ba 803e 850c 5a3e
00000010: 3ce3 19bc 9ebe da3d 15e0 b0be c62d fc3e
00000020: deb5 fe3c 861a 373d cc8c 52be 2b07 36be
00000030: ddf2 15be 72ee f3bd 3a01 c83c 3ac6 19bd
00000040: 23e1 213c 0247 1fbe 08ee c3bc 8061 533e
00000050: 4d2e 3abe c8ae 683e 6b44 18be dd41 8bbd
00000060: 5a19 493e ffdd 573e 457f 0dbe 878b 9f3c
00000070: 48a7 e43d 2351 113e 5230 49be aefc 10be
00000080: 4dd6 acbd b230 a8bd 19b0 2abe d090 00bd
00000090: d211 13be 86d8 75bc 46cf b43b beb4 8f3d
000000a0: c885 ee3c 62d0 1d3e 5dcb 0fbc 19ea 88bd
000000b0: 856e 50bd 401e 153d 7694 90be 4689 073f
000000c0: 868a 67be fcbf 9a3e 7995 afbe e36b b33e
000000d0: 70f1 7a3e e3cb c4ba cefa 56be 33ba 97be
000000e0: e1f3 8b3e 4ca2 c33e 2e56 a13e 36df 853e
000000f0: 9ca2 543e e0f1 40be 9d55 f73d e717 2f3c
00000100: b9c4 853c a386 403e e1c8 43be 8dae ffbc
00000110: 9dc6 77be 49e2 4abe bac1 943d ab73 87be
00000120: 0444 cc3c e208 9a3d 56f8 0d3f f715 87be
00000130: a9cb dd3d 7be0 c03d 0350 b43e 5520 80be
00000140: d84a 02be 37bf 50be 9efe d03c e818 583e
00000150: ab84 963c 4774 27bd b1ad d83e 2d19 333e
00000160: 3af9 47bd e5f2 053e de35 0ebe ba17 763e
00000170: 8331 f13e ed21 693e 8f03 c8bd baff dc3e
00000180: bb34 85be 5650 fb3e d4fe 323e 7b3c b2bd
00000190: bd0d 293e 211e e53d bf2b ac3e b0c3 c23d
000001a0: 89ce 67be 6c0e 943e d67d aebe a63d 86bd
000001b0: 37f3 57bd 2139 103e 51cb a03e 4740 fe39
000001c0: 279e 5bbe bb91 683d 5996 6abc a7bc abbe
000001d0: ad71 b2bd 1a68 d43d ac9f 89bd 9faa 823d
000001e0: d79b 0fbe ef41 f53d 4362 1f3e 23ec 653e
000001f0: b5ac 703e 6834 b53c 3639 0a3d 28a5 c8bc
00000200: 31d2 e03b ff8c 8dbc edcb 5f3e 064c 3c3e
00000210: a562 173e a4db 83be 3485 85bd dfcc acbc
00000220: d49a ba3e 77be fd3e 111c 2e3e f653 8fbe
00000230: 3b40 a2be 4179 96be 1fe5 aa3e 16de 5d3e
00000240: f286 463e 96e3 babd 40be a53e 87d0 4a3d
00000250: 50d1 223c 9067 96be c8e3 1cbe 6d40 f43c
00000260: 0a48 833e 2ab3 be3d 2892 93be d7a4 c6bd
00000270: 7a68 9a3d b357 90bd e112 03be a0c9 023e
00000280: 7ffe 5f3e 54fc 97bd f461 3ebd cc3c fe3e
00000290: a865 28be 2d82 ea3d 3be3 1bbe e34d f1bd
000002a0: 3085 063c 5dca f7bc bb11 6f3c 7a21 da3d
000002b0: cd3d bebd 838f dbba 38c4 f7bb 5fe2 65bd
000002c0: 5a07 7c3d be56 4b3e f833 07be d634 c2bd
000002d0: c56f f43e 250e c03e 8bd1 c73e 5f83 85be
000002e0: 2c67 52be 40b1 55be ee3f f23e 1666 ab3e
000002f0: d287 33be 34ab 983e 207b 91be f452 be3e
00000300: 8e07 fe3d e7bc fdbc 1aa1 ffbd b4e8 643c
00000310: fd8c ffbd 063f 24bd fa51 573e a454 afbd
00000320: 1166 82be 0592 03be 106a 44bd 58bc 7a3e
00000330: f50f 78be 530f 73bd 97e2 093e d63e 873e
00000340: 203e 3cbd 8edc 8abe 67fe da3e 95cf e6bc
00000350: aad7 913c 7773 f23e 6ab8 3bbd b1d2 ed3d
00000360: c919 413d d34d 4b3e 8056 febc d870 133e
00000370: 03b9 be3d 4dd7 0c3e 0798 8a3e ef88 31be
00000380: 7743 89be 48f1 cfbe 21d1 7fbe 245a 5c3e
00000390: 701d d53e a9ad 133f ccf4 babe d929 c1bd
000003a0: a2c8 21be ac34 bbbb 2beb b03d 8fbc 543e
000003b0: 812d c73d f453 a53e ed90 26be ffe3 a8be
000003c0: 6232 25be 8455 423e b6ca a5bd 855f 8abd
000003d0: 93b8 97be 688c 0fbe d4eb 74be dcc3 41be
000003e0: be93 043e 926c 89bd 300d ef3e 0952 f03d
000003f0: 3059 ccbd a748 ddbd 7bca 5e3e 563d a7bd
