model_round_2.pth (torch, 126796 bytes, 9 tensors)

conv1.weight f4 [16, 1, 16, 3]
-0.05309311 0.052100703 0.056115124 0.047422376 -0.041072167 0.078032084 -0.10970086 -0.038872927
0.067056164 0.019185202 0.08743613 0.03406244 0.008185052 0.0782279 0.0026086397 -0.02742017
0.03520611 0.025675591 0.0078103924 -0.040756963 -0.017931987 0.15477474 -0.32467955 -0.10733577
0.12588659 -0.3854825 -0.11165082 -0.08747432 -0.4309294 -0.094654195 -0.0067670774 -0.19038486
-0.07724832 0.07751542 -0.15773454 -0.065519996 0.14529094 -0.12898548 0.03615281 -0.14391766
-0.24960779 -0.027950816 -0.03822035 -0.08727987 0.0733962 0.09492937 -0.013652333 0.10823565
-0.06723253 -0.029781269 0.06929978 -0.04585817 -0.030426653 -0.06767266 -0.029157793 -0.0018082962
-0.06767073 -0.13793868 0.09220432 -0.06837813 -0.08905248 0.02694917 -0.022577634 -0.05185261
-0.050732076 -0.03017471 -0.10529842 -0.20785022 -0.060569856 -0.022638867 -0.0014522016 0.094207644
0.045587897 0.36374187 0.22608654 0.05370522 0.2697578 0.09504768 -0.14403972 -0.21877202
-0.14079283 0.1284718 -0.23994471 -0.022542601 0.026572438 -0.08413372 -0.04113669 0.25336558
-0.079539046 -0.1044566 0.029269192 -0.10128265 -0.036942095 -0.15729605 0.0038481595 -0.19114743
-0.13427436 -0.14132799 0.04916735 0.027325964 0.14921162 0.14019565 -0.059045915 0.0047315797
0.09920929 0.108603686 0.097613394 0.11543278 -0.1613733 -0.07978945 -0.007453941 -0.10625336
0.020695666 0.22089927 0.039670743 0.013451653 -0.15266417 0.058966734 -0.14334501 -0.2601053
-0.074051574 0.016328624 -0.15880004 0.02809689 0.016630767 -0.18436946 -0.0625928 -0.10353746
-0.10477557 0.029945124 -0.13451742 -0.4789704 -0.12048511 -0.14247584 -0.29479164 -0.06768587
-0.15037076 -0.2035893 -0.066153094 -0.04248467 0.030596463 -0.14216833 -0.06649019 -0.05811271
-0.09835261 -0.06182938 -0.034086052 -0.17813665 -0.17562935 -0.19578789 0.11592314 0.09611063
-0.22878294 0.16181494 0.0010741788 -0.13625115 0.04545334 0.09659823 -0.18762131 -0.06290954
0.04337113 -0.162896 0.06003335 -0.013267447 -0.2576954 0.1396898 -0.09736619 -0.18400092
-0.0031383452 0.05786335 -0.05696794 0.03679631 -0.07294587 -0.20962565 0.08901102 0.007934953
-0.1357252 0.10865627 0.037274215 -0.1649656 -0.051939033 -0.017580975 -0.16195238 -0.032569338
-0.21964863 0.03277546 0.023989394 -0.3326336 0.11962611 -0.102079265 -0.33297554 0.05526837
-0.07674995 -0.084277414 -0.0019974615 -0.030039173 0.05666456 -0.065788865 -0.088339016 -0.0327004
0.00037310732 -0.0318662 -0.049973816 0.03665674 -0.04188272 -0.11302123 0.025824875 -0.13169558
-0.09824301 0.03414883 -0.14221404 -0.04741355 -0.06766154 -0.17768028 -0.2440869 -0.099964656
-0.10856996 -0.17616603 -0.0076549803 -0.12674713 0.04444947 0.1691852 -0.17388354 0.100538895
0.16917907 0.02139951 -0.16928947 -0.02011676 0.047340762 -0.029561922 0.07449427 0.059212126
-0.14171721 -0.0048519857 0.0023492053 0.009145231 -0.0630162 -0.056988236 -0.114823945 -0.02948215
-0.046734095 -0.067994304 -0.07909463 -0.12293311 -0.0002057705 -0.15068732 -0.08328966 -0.027238425
-0.018544523 -0.14926046 -0.0025052663 -0.13277344 0.06425365 -0.06465466 -0.064790025 -0.03043552
00000000: 2978 59bd 8c67 553d f9d8 653d f73d 423d
00000010: 4a3b 28bd 49cf 9f3d d8aa e0bd 3839 1fbd
00000020: be54 893d 492a 9d3c b711 b33d 0f85 0b3d
00000030: 991a 063c f335 a03d b6f5 2a3b 44a0 e0bc
00000040: 4834 103d 9e55 d23c 52ee ff3b c6f0 26bd
00000050: 1ae6 92bc 457d 1e3e 663c a6be dbd2 dbbd
00000060: 6ae8 003e f65d c5be 2fa9 e4bd bc25 b3bd
00000070: c7a2 dcbe 0fda c1bd 5cbe ddbb 40f4 42be
00000080: 5e34 9ebd 68c0 9e3d 2a85 21be 592f 86bd
00000090: 26c7 143e c514 04be f814 143d 275f 13be
000000a0: 2f99 7fbe 1cf9 e4bc f18c 1cbd cabf b2bd
000000b0: bf50 963d 546a c23d 09ae 5fbc a7aa dd3d
000000c0: 35b1 89bd d9f7 f3bc 0bed 8d3d c7d5 3bbd
000000d0: 5141 f9bc f797 8abd 53dc eebc 5a04 edba
000000e0: f496 8abd cc3f 0dbe 9ed5 bc3d d509 8cbd
000000f0: 2661 b6bd 81c4 dc3c bbf4 b8bc 6763 54bd
00000100: 70cc 4fbd f430 f7bc b3a6 d7bd b0d6 54be
00000110: 1918 78bd 2575 b9bc cd57 beba f0ef c03d
00000120: 60ba 3a3d 603c ba3e 3b83 673e 01fa 5b3d
00000130: b21d 8a3e 5ca8 c23d 267f 13be c605 60be
00000140: ff2b 10be 1d8e 033e 11b4 75be 43ab b8bc
00000150: 71ae d93c 4d4e acbd f27e 28bd 22b9 813e
00000160: 5ee5 a2bd 58ed d5bd f2c5 ef3c 476d cfbd
00000170: 9850 17bd 3712 21be 6731 7c3b 27bc 43be
00000180: 387f 09be 49b8 10be b463 493d b3da df3c
00000190: eeca 183e 738f 0f3e 21da 71bd 5e0b 9b3b
000001a0: 3e2e cb3d 9c6b de3d 88e9 c73d 0568 ec3d
000001b0: 0b3f 25be a768 a3bd 3040 f4bb 5d9b d9bd
000001c0: f589 a93c 6b33 623e ca7d 223d 5264 5c3c
000001d0: ff53 1cbe 1a87 713d 09c9 12be 862c 85be
000001e0: 5aa8 97bd 9bc3 853c 7a9c 22be 732b e63c
000001f0: 3f3d 883c 59cb 3cbe a730 80bd 730b d4bd
00000200: 9394 d6bd 7a4f f53c efbe 09be 9c3b f5be
00000210: e6c0 f6bd 30e5 11be eeee 96be e49e 8abd
00000220: cbfa 19be b779 50be 467b 87bd 6804 2ebd
00000230: 6fa5 fa3c 9394 11be 022c 88bd 9807 6ebd
00000240: 186d c9bd ce40 7dbd d19d 0bbd 7469 36be
00000250: 2ed8 33be 9f7c 48be 1c69 ed3d a6d5 c43d
00000260: 1346 6abe d1b2 253e 76cb 8c3a 6c85 0bbe
00000270: 482d 3a3d 4bd5 c53d cd1f 40be b8d6 80bd
00000280: eda5 313d 36ce 26be 88e5 753d b55f 59bc
00000290: a7f0 83be d80a 0f3e ed67 c7bd bd6a 3cbe
000002a0: b2ac 4dbb 1f02 6d3d 3757 69bd bab7 163d
000002b0: a564 95bd 1ba8 56be 694b b63d 9b01 023c
000002c0: 8cfb 0abe 2e87 de3d d9ac 183d beec 28be
000002d0: 06be 54bd fa05 90bc d8d6 25be 6d67 05bd
000002e0: 92eb 60be 903f 063d 6885 c43c f44e aabe
000002f0: 89fe f43d ef0e d1bd c57b aabe 1661 623d
00000300: 142f 9dbd a399 acbd d8e7 02bb b614 f6bc
00000310: 1919 683d 50bc 86bd 16eb b4bd dbf0 05bd
00000320: 9e9d c339 2286 02bd 58b1 4cbd 6125 163d
00000330: 378d 2bbd ad77 e7bd b08e d33c 35db 06be
00000340: a233 c9bd a5df 0b3d 8fa0 11be b634 42bd
00000350: 2292 8abd d2f1 35be ebf1 79be 45ba ccbd
00000360: ed59 debd de64 34be a1d6 fabb 00ca 01be
00000370: a610 363d e33e 2d3e 870e 32be 56e7 cd3d
00000380: 473d 2d3e 064e af3c 385a 2dbe e7cb a4bc
00000390: 63e8 413d d82b f2bc 7490 983d 6a88 723d
000003a0: 511e 11be 68fd 9ebb 20f5 193b e1d5 153c
000003b0: a30e 81bd 7f6c 69bd d128 ebbd 8d84 f1bc
000003c0: 406c 3fbd 9940 8bbd 5efc a1bd 5bc4 fbbd
000003d0: 19c4 57b9 c74d 1abe c593 aabd 1e23 dfbc
000003e0: afea 97bc bcd7 18be 652f 24bb c3f5 07be
000003f0: 6b97 833d aa69 84bd a2b0 84bd e953 f9bc

conv1.bias f4 [16]
0.13914241 -0.020864207 -0.0312801 -0.03248421 -0.04680396 -0.036903378 -0.064998694 -0.027194446
0.03515571 -0.021311346 -0.045076728 -0.052704368 -0.02542752 -0.034054335 -0.07602935 0.030992154
00000000: 597b 0e3e 6aeb aabc 901f 00bd 2a0e 05bd
00000010: 82b5 3fbd ff27 17bd 091e 85bd e3c6 debc
00000020: 6fff 0f3d 2295 aebc 60a2 38bd 89e0 57bd
00000030: 604d d0bc 8f7c 0bbd 47b5 9bbd 42e3 fd3c

conv2.weight f4 [16, 16, 3, 5]
-0.06293701 0.23334993 0.19398493 -0.114516 -0.11691145 0.07364866 0.014670656 0.21892533
-0.22115536 0.04869545 -0.05944817 -0.0828646 0.10317051 -0.21667169 -0.06550457 0.06053614
0.08505104 -0.18726534 -0.16356519 -0.24564834 0.013730505 -0.05051366 0.014274388 -0.00082206225
-0.19281673 0.06766925 0.07366797 -0.07289061 0.03205455 -0.21536055 -0.120751515 0.111972265
0.12504472 -0.044432957 0.017492825 -0.024849676 0.08020273 -0.20366956 -0.08733317 -0.07822438
-0.05443525 0.05990664 -0.087087266 0.18938084 0.057165172 -0.08919719 0.027501779 0.0050729834
-0.0737247 -0.14433047 -0.1251408 0.19919029 0.01633209 -0.17316212 0.07344594 -0.2717396
-0.037924036 -0.06520268 0.11591251 -0.0072155274 -0.050520834 -0.119626455 -0.109547384 0.027309394
0.017115658 0.14601995 0.06271832 0.12744002 -0.12419947 0.07017968 0.061622735 -0.16991915
0.024646632 -0.31431076 -0.077561595 -0.10991209 -0.047958303 0.028633771 -0.07913789 -0.015871128
0.01591539 -0.09250022 -0.067810826 -0.04475493 -0.011618922 0.027227867 -0.0023962855 -0.13949004
0.08258881 -0.12666479 -0.21357475 -0.11297902 -0.05306814 0.10923986 -0.09620552 -0.04227677
-0.17891409 0.09541258 -0.29250807 -0.16825286 0.060669515 -0.02251229 -0.008611537 -0.17451033
-0.2200992 0.037219483 0.03342727 -0.04298472 -0.012377966 0.06414355 -0.0658381 -0.028935583
-0.094850615 -0.028529633 0.020666625 0.13055964 -0.13660984 -0.050363816 0.113504946 0.03883467
-0.11687015 0.117508434 -0.08146145 -0.22056967 -0.24929021 -0.043485418 0.060627546 0.09643427
-0.06581505 -0.20000207 0.04555597 -0.1554907 0.005482594 -0.0116186105 -0.24075776 -0.14094125
0.022640126 -0.05480004 0.00827161 -0.20657048 0.07326006 -0.039466124 -0.19758454 -0.113502674
-0.062190983 -0.018051138 -0.042185087 -0.1117278 -0.16902272 -0.2705135 0.07178299 0.020440409
-0.0056063985 -0.0062349844 -0.11694827 0.055473473 -0.11734871 -0.041657045 -0.062276077 0.055034872
0.12334351 0.017636118 -0.04455457 -0.24427141 -0.14009744 0.054001518 -0.020956885 -0.17370683
-0.14786491 -0.024574282 0.047304902 -0.07068267 -0.16918826 0.06369884 -0.14046651 -0.012662513
0.04324403 -0.33350137 0.16116388 -0.20056657 0.078462966 -0.08002029 -0.077289715 -0.058539312
-0.1483932 0.10896528 -7.801679e-05 0.036332354 -0.07062979 -0.1060581 -0.07909996 0.09849209
-0.035845898 -0.10717547 -0.06776055 -0.011341648 0.0184441 -0.21659172 0.187453 0.07021659
0.0335067 0.10139153 -0.31083363 -0.11037845 0.045179877 -0.041316587 0.015615952 -0.1943637
-0.04590987 -0.046457548 0.019519532 0.058380805 0.10191004 -0.13334876 -0.030019721 -0.0024465872
0.18969496 0.0012782079 -0.2015831 0.028885972 0.14605924 0.15282993 -0.102060474 -0.107204124
-0.044141766 0.13921976 0.08826331 -0.32285982 -0.16850954 -0.14476036 0.025917422 -0.005382737
-0.21085778 0.06615511 -0.1308198 0.09235394 -0.15647672 -0.13913472 0.28266072 -0.036008384
-0.07294892 -0.10527213 0.087409176 -0.09101653 0.07054965 0.018974803 -0.06198921 -0.18627664
-0.15102708 -0.0538897 -0.024354683 -0.29498455 -0.12911586 -0.12252793 -0.067726776 0.038885687
00000000: 1ee5 80bd 49f3 6e3e fca3 463e 5d87 eabd
00000010: 456f efbd 1cd5 963d 315d 703c f62d 603e
00000020: 8d76 62be e174 473d ed7f 73bd eab4 a9bd
00000030: 0f4b d33d 2fdf 5dbe 4327 86bd bef4 773d
00000040: 3d2f ae3d 7cc2 3fbe a27d 27be 3d8b 7bbe
00000050: e9f5 603c 69e7 4ebd 1fdf 693c aa7f 57ba
00000060: c071 45be 2d96 8a3d 3cdf 963d ac47 95bd
00000070: a24b 033d 7a87 5cbe 924c f7bd b751 e53d
00000080: b90b 003e 55ff 35bd 1d4d 8f3c 8c91 cbbc
00000090: 5441 a43d c18e 50be bcdb b2bd 1b34 a0bd
000000a0: 7ff7 5ebd aa60 753d cf5a b2bd 0ded 413e
000000b0: 0726 6a3d 04ad b6bd 694b e13c 453b a63b
000000c0: fafc 96bd 5ecb 13be e924 00be 8af8 4b3e
000000d0: e0ca 853c 6951 31be d36a 963d 7421 8bbe
000000e0: 3c56 1bbd fc88 85bd 8a63 ed3d 3b70 ecbb
000000f0: efee 4ebd b7fe f4bd 615a e0bd f3b7 df3c
00000100: 2336 8c3c 4186 153e 7672 803d a37f 023e
00000110: 4b5c febd 5dba 8f3d 1f68 7c3d 49ff 2dbe
00000120: bce7 c93c 57ed a0be 9dd8 9ebd 9719 e1bd
00000130: ed6f 44bd 5f91 ea3c 0c13 a2bd 2b04 82bc
00000140: fe60 823c c170 bdbd 67e0 8abd f250 37bd
00000150: 4b5d 3ebc fa0c df3c 000b 1dbb 7ad6 0ebe
00000160: 5224 a93d 6ab4 01be 57b3 5abe 8b61 e7bd
00000170: fa5d 59bd 26b9 df3d 6607 c5bd 682a 2dbd
00000180: 4135 37be ac67 c33d 9ec3 95be 7a4a 2cbe
00000190: 9980 783d b26b b8bc 6717 0dbc d6b2 32be
000001a0: af61 61be 7573 183d 08eb 083d bf10 30bd
000001b0: f4cc 4abc b25d 833d 20d6 86bd 510a edbc
000001c0: 0a41 c2bd fab6 e9bc 0e4d a93c 6db1 053e
000001d0: 73e3 0bbe 4a4a 4ebd 4875 e83d 1a11 1f3d
000001e0: 9e59 efbd 43a8 f03d 43d5 a6bd 04dd 61be
000001f0: ef45 7fbe c41d 32bd 9754 783d 557f c53d
00000200: 0aca 86bd 58cd 4cbe e698 3a3d f438 1fbe
00000210: 55a7 b33b fc5b 3ebc 3489 76be e752 10be
00000220: c977 b93c 0276 60bd a685 073c 3687 53be
00000230: 5f09 963d 3ba7 21bd 9a53 4abe 1774 e8bd
00000240: f9bb 7ebd fbdf 93bc 45ca 2cbd 8bd1 e4bd
00000250: 4b14 2dbe bf80 8abe f602 933d a572 a73c
00000260: e1b5 b7bb d74e ccbb 9382 efbd 2738 633d
00000270: 8554 f0bd 94a0 2abd 3315 7fbd 3f6c 613d
00000280: 869b fc3d 9f79 903c da7e 36bd 4922 7abe
00000290: b475 0fbe b230 5d3d c6ad abbc 34e0 31be
000002a0: e669 17be 0150 c9bc c9c2 413d 13c2 90bd
000002b0: b03f 2dbe 8a74 823d 74d6 0fbe 6e76 4fbc
000002c0: a720 313d b1c0 aabe 2508 253e 5361 4dbe
000002d0: 31b1 a03d aee1 a3bd 124a 9ebd ebc6 6fbd
000002e0: 63f4 17be 3029 df3d f29c a3b8 3cd1 143d
000002f0: 5aa6 90bd fd34 d9bd 29ff a1bd 39b6 c93d
00000300: 26d3 12bd d07e dbbd 0bc6 8abd 52d2 39bc
00000310: 1518 973c 38ca 5dbe aef3 3f3e b7cd 8f3d
00000320: 523e 093d 5da6 cf3d 9625 9fbe 190e e2bd
00000330: 890e 393d 953b 29bd 0dda 7f3c 4707 47be
00000340: fd0b 3cbd 454a 3ebd 6de7 9f3c b620 6f3d
00000350: 36b6 d03d 948c 08be ebeb f5bc ec56 20bb
00000360: 653f 423e 8a89 a73a cd6b 4ebe 46a2 ec3c
00000370: 8e90 153e 737f 1c3e 1505 d1bd d68d dbbd
00000380: ffcd 34bd a08f 0e3e 65c3 b43d e24d a5be
00000390: c48d 2cbe 0f3c 14be c650 d43c ac61 b0bb
000003a0: 1aeb 57be 557c 873d a0f5 05be 1024 bd3d
000003b0: 6f3b 20be 5579 0ebe e8b8 903e 877d 13bd
000003c0: 3e66 95bd ea98 d7bd 9503 b33d e066 babd
000003d0: 567c 903d 0c71 9b3c 66e8 7dbd 4ebf 3ebe
000003e0: d8a6 1abe 72bb 5cbd 7983 c7bc 3708 97be
000003f0: f336 04be ecef fabd 56b4 8abd 9946 1f3d

conv2.bias f4 [16]
-0.0029192807 -0.057121936 -0.056322243 -8.843802e-05 0.007656313 -0.055440526 0.04236943 -0.0825266
-0.09083131 0.007932258 -0.015612907 0.03027728 0.010029405 -0.050208386 -0.056973387 -0.12340676
00000000: 6751 3fbb b1f8 69bd 27b2 66bd cd77 b9b8
00000010: cfe1 fa3b 9b15 63bd 918b 2d3d b503 a9bd
00000020: c405 babd 4df6 013c 47cd 7fbc 0f08 f83c
00000030: 6052 243c 4fa7 4dbd ed5c 69bd afbc fcbd

conv3.weight f4 [32, 16, 8, 3]
-0.10836848 -0.017551607 0.108344935 -0.10904152 0.004397129 -0.071009815 -0.10131813 -0.2572396
0.012001551 -0.104315706 -0.08918187 -0.012415502 -0.063430436 -0.00912685 0.15751687 -0.029757151
0.106833674 0.023404412 -0.24976033 -0.017487934 -0.18008342 -0.06464179 -0.07124494 -0.24888845
-0.1536142 0.12967442 0.0895597 -0.06827876 0.034887023 -0.17636128 -0.06754842 -0.11714906
-0.14817351 -0.0009561919 0.012696761 -0.00070372934 -0.07324964 -0.0775741 -0.07231885 -0.18831979
-0.015388788 0.036529273 -0.0236456 -0.018438231 -0.08310943 -0.058032714 0.12069333 -0.029027127
0.071389504 -0.009354947 -0.061795138 -0.007672286 0.055465803 0.037392512 -0.13329412 -0.07537677
0.0088408375 -0.03761558 0.043556552 -0.028988259 -0.026828168 0.06272039 -0.034050576 -0.008691201
-0.027478695 -0.027338259 0.0015161177 -0.08982119 -0.01864479 -0.01597056 -0.099804215 -0.0069328076
-0.17879093 0.17711954 0.06159755 -0.17906323 0.021540523 -0.16613606 -0.1816103 -0.060355738
-0.018628836 0.036844943 0.09848069 -0.1390242 0.10249087 0.20735517 0.13707216 -0.068959564
-0.12637725 -0.1411512 0.101598695 -0.07393953 0.012077553 -0.09888559 -0.13000233 0.014015503
-0.043034457 -0.03370578 -0.06695405 -0.009024616 -0.1636154 0.19756165 -0.10477812 -0.11701452
0.07211931 -0.21871343 -0.08317992 0.09817139 -0.2236949 0.04925395 0.15118298 -0.092332445
-0.13261414 0.09750797 -0.017475454 -0.15327246 -0.09236673 -0.06465129 0.054126434 -0.06874079
-0.12832405 0.043716382 -0.016975176 -0.26375386 -0.0048143896 0.017831229 -0.068665214 0.11113012
0.029969733 -0.038231984 0.03231474 -0.0069838082 -0.005897176 0.04465094 -0.027870681 -0.101952136
-0.07371674 0.049953464 -0.039909966 -0.047796093 0.05279423 -0.10093732 -0.11786564 0.052427128
-0.10171377 -0.16144817 0.06728051 0.049473938 -0.08180385 -0.08036069 -0.09818956 0.06441307
-0.18648073 -0.029802978 0.016141172 -0.12663063 -0.06625138 -0.06417093 0.037856877 0.02587746
-0.051005326 0.04996203 -0.022510976 0.028245935 -0.12136341 -0.035624135 0.03392309 0.09756852
0.03458581 -0.0111254295 0.091588914 -0.09531536 -0.110958904 0.02975412 -0.03149059 -0.045246247
0.017031748 -0.12310627 0.14859477 -0.033152293 -0.026603196 0.03994564 0.016996237 -0.033157278
-0.03354508 -0.05185213 -0.044600558 -0.05442469 -0.13494484 -0.079069786 -0.007478606 -0.11367803
0.049796235 0.0044443943 0.020369116 0.024895871 0.1057119 -0.020703487 -0.0706952 0.023970718
-0.0656948 -0.044880535 0.12234276 -0.062033605 0.057091855 0.04256819 0.045038175 0.06484377
0.050608944 0.057150114 -0.1332271 -0.04472301 -0.08950039 0.0003665151 0.031728543 0.009324568
-0.13668296 0.094280474 -0.039548017 -0.22817145 0.11471504 0.04679698 -0.1459838 -0.06998408
-0.036362708 -0.3203917 0.05323157 0.015040166 -0.258168 0.026676847 0.06724626 0.087841906
-0.107884884 -0.01949344 -0.026603589 0.03861415 0.0015912299 -0.008475649 -0.12690052 -0.0009606904
-0.18031229 0.021027232 -0.031607963 -0.073515944 -0.19303672 0.1436063 -0.120379336 -0.1743333
-0.04609661 -0.24219692 -0.08462321 -0.04574338 -0.27539265 -0.019345526 -0.03949753 -0.18171425
00000000: 4bf0 ddbd 63c8 8fbc f3e3 dd3d 2951 dfbd
00000010: cb15 903b 986d 91bd e17f cfbd e9b4 83be
00000020: 27a2 443c 79a3 d5bd fca4 b6bd 646a 4bbc
00000030: d1e7 81bd c988 15bc 1a4c 213e 45c5 f3bc
00000040: 9dcb da3d 9cba bf3c 2cc1 7fbe db42 8fbc
00000050: ca67 38be ea62 84bd dee8 91bd 9ddc 7ebe
00000060: 0a4d 1dbe 5fc9 043e 136b b73d bcd5 8bbd
00000070: b2e5 0e3d 0d98 34be d356 8abd d9eb efbd
00000080: ccba 17be f4a8 7aba 1306 503c 7a7a 38ba
00000090: e803 96bd 2bdf 9ebd e81b 94bd e7d6 40be
000000a0: 4121 7cbc b89f 153d 6bb4 c1bc c60b 97bc
000000b0: 4735 aabd b6b3 6dbd 112e f73d 4cca edbc
000000c0: a934 923d 7e45 19bc e61c 7dbd cd67 fbbb
000000d0: 1c30 633d e428 193d 417e 08be 235f 9abd
000000e0: 29d9 103c cb12 1abd 5b68 323d c978 edbc
000000f0: bfc6 dbbc 8c73 803d 9e78 0bbd 8a65 0ebc
00000100: 001b e1bc 7cf4 dfbc 78b8 c63a 2cf4 b7bd
00000110: f5bc 98bc b1d4 82bc 2766 ccbd 9b2c e3bb
00000120: f814 37be d35e 353e b64d 7c3d 5a5c 37be
00000130: c075 b03c 921f 2abe 0df8 39be 9437 77bd
00000140: 809b 98bc b9ea 163d 3eb0 c93d 5c5c 0ebe
00000150: bce6 d13d ea54 543e a55c 0c3e ac3a 8dbd
00000160: 0a69 01be f189 10be fa12 d03d 9c6d 97bd
00000170: eee0 453c 8784 cabd 551f 05be 48a1 653c
00000180: e644 30bd 120f 0abd 341f 89bd fcdb 13bc
00000190: cc8a 27be 9a4d 4a3e e995 d6bd 4fa5 efbd
000001a0: 4ab3 933d 6af6 5fbe 3c5a aabd 150e c93d
000001b0: 4710 65be 83be 493d b6cf 1a3e cb18 bdbd
000001c0: 00cc 07be 42b2 c73d af28 8fbc 75f3 1cbe
000001d0: c52a bdbd e567 84bd aeb3 5d3d f9c7 8cbd
000001e0: 6167 03be f30f 333d 860f 8bbc bf0a 87be
000001f0: 07c2 9dbb cc12 923c 59a0 8cbd 3098 e33d
00000200: 1683 f53c 2499 1cbd 765c 043d 6ed8 e4bb
00000210: 193d c1bb e7e3 363d 0e51 e4bc 48cc d0bd
00000220: cdf8 96bd 019c 4c3d a278 23bd d6c5 43bd
00000230: c33e 583d 3ab8 cebd 8a63 f1bd d4bd 563d
00000240: 4f4f d0bd ab52 25be 5dca 893d 2fa5 4a3d
00000250: c788 a7bd 2594 a4bd 9c17 c9bd 00eb 833d
00000260: cef4 3ebe 6025 f4bc 7e3a 843c 76ab 01be
00000270: ceae 87bd 0c6c 83bd d00f 1b3d f8fc d33c
00000280: f6ea 50bd fca4 4c3d f068 b8bc 0564 e73c
00000290: 618d f8bd 9dea 11bd f0f2 0a3d 01d2 c73d
000002a0: daa9 0d3d 6f47 36bc f892 bb3d b334 c3bd
000002b0: 6c3e e3bd eabe f33c 47fc 00bd 2154 39bd
000002c0: 2a86 8b3c 241f fcbd 3a29 183e b3ca 07bd
000002d0: f2ee d9bc 0a9e 233d b13b 8b3c edcf 07bd
000002e0: 9166 09bd e662 54bd 13af 36bd 6cec 5ebd
000002f0: fb2e 0abe 57ef a1bd 180f f5bb 07d0 e8bd
00000300: 23f7 4b3d 48a2 913b 22dd a63c 6df2 cb3c
00000310: 7b7f d83d 5c9a a9bc a5c8 90bd 3d5e c43c
00000320: ff8a 86bd a7d4 37bd d78e fa3d f316 7ebd
00000330: 26d9 693d fb5b 2e3d f379 383d cfcc 843d
00000340: 534b 4f3d 3d16 6a3d af6c 08be 7a2f 37bd
00000350: fb4b b7bd d328 c039 caf5 013d 13c6 183c
00000360: 9ef6 0bbe 1f16 c13d 1afd 21bd c7a5 69be
00000370: b8ef ea3d 31ae 3f3d c77c 15be d053 8fbd
00000380: 10f1 14bd 620a a4be 5909 5a3d 076b 763c
00000390: 992e 84be 6789 da3c 68b8 893d 75e6 b33d
000003a0: c0f2 dcbd b5b0 9fbc c5ef d9bc df29 1e3d
000003b0: d190 d03a 73dd 0abc 36f2 01be d7d6 7bba
000003c0: c9a3 38be 4d41 ac3c 5a77 01bd 878f 96bd
000003d0: 6bab 45be 880d 133e 7189 f6bd 6e84 32be
000003e0: cdcf 3cbd 7802 78be ef4e adbd 695d 3bbd
000003f0: 4400 8dbe 827a 9ebc 29c8 21bd 4d13 3abe

conv3.bias f4 [32]
-0.056946512 -0.044380836 -0.012985434 -0.09684211 -0.07492265 -0.038841885 -0.0965055 -0.029451024
-0.022613712 -0.093291774 -0.097818114 -0.06572244 -0.0055883885 -0.06291646 0.017615708 -0.04996458
0.052560803 -0.032952514 -0.12097095 -0.09594804 -0.117096744 -0.013625768 -0.060980644 -0.071483195
-0.11248694 -0.022466676 -0.0803912 0.022236954 -0.005998498 -0.09077135 -0.03112452 -0.10834466
00000000: bf40 69bd aec8 35bd dcc0 54bc 2855 c6bd
00000010: 0c71 99bd ab18 1fbd ada4 c5bd 4643 f1bc
00000020: 6440 b9bc c20f bfbd dd54 c8bd 7d99 86bd
00000030: cd1e b7bb 58da 80bd d14e 903c a9a7 4cbd
00000040: ff49 573d 37f9 06bd 9ebf f7bd 6880 c4bd
00000050: 6bd0 efbd 9d3e 5fbc d7c6 79bd c865 92bd
00000060: 8e5f e6bd 090c b8bc 24a4 a4bd 462a b63c
00000070: 0c8f c4bb 54e6 b9bd d9f8 febc cee3 ddbd

conv4.weight f4 [32, 32, 4, 3]
-0.2040505 0.016877297 0.07079314 -0.12690851 0.015530385 -0.052213334 0.009493608 -0.0727346
0.031983837 -0.031459328 -0.10714279 0.011022722 -0.080635674 -0.06372124 0.05284848 0.037194155
0.08883208 -0.09812311 0.0525823 0.063047454 -0.06052026 0.009200718 0.061026335 0.04123666
-0.042925946 -0.16058733 0.002658809 -0.084618665 -0.05592144 -0.024735218 -0.01280775 -0.07724848
-0.03153032 -0.15441152 -0.041727893 -0.0054370384 0.03916745 -0.035780363 -0.17467538 0.0020250338
-0.12287614 -0.18785089 0.057381373 -0.1428528 0.046700615 0.009563785 0.042173184 0.002124446
0.05915136 0.03176076 -0.070194095 -0.028862597 0.025513712 -0.036928453 -0.06233781 0.027829396
0.035599645 -0.057937913 -0.067766234 -0.03883678 0.067817315 0.059296787 -0.00011387735 0.009968173
-0.030619962 0.030108502 0.067798615 -0.06537302 -0.0021052947 0.10115141 -0.10158616 -0.005289797
0.07883138 0.025769074 0.09129816 -0.08398351 0.07675378 0.007873969 -0.037567273 -0.05918626
-0.04288356 -0.0017758268 0.04589826 0.05646061 0.023686612 -0.013855684 -0.016675929 0.008125655
-0.123364046 -0.103579514 -0.22521609 -0.0018040236 0.0016336023 -0.0400051 -0.10269715 -0.10147454
0.039319366 0.0023433345 -0.014805056 -0.084742986 -0.045922242 -0.034799054 -0.02346756 -0.02667944
-0.018069476 -0.16492206 -0.09312241 -0.09762874 0.021980949 0.066014685 -0.045317806 0.02337363
-0.031223537 -0.014386924 0.061304893 0.0616571 -0.08276791 0.032247815 0.06268473 0.033920515
0.014821937 0.0365526 -0.028323488 0.06181835 -0.0030787138 -0.090503804 -0.05787747 -0.06610895
-0.0062957876 -0.012152351 0.018047545 -0.05489101 -0.09803839 0.027847622 0.0011866841 -0.01924114
-0.06652637 0.02691511 -0.09014192 0.06963913 0.06851255 0.0057784882 -0.041052613 -0.005548059
-0.05443025 0.029374974 -0.1347046 0.06899036 -0.05014792 -0.15072922 -0.0794505 -0.03561317
-0.13432576 -0.079034306 -0.11152254 -0.009525424 -0.076978356 0.0087580215 -0.02715608 0.012637577
-0.12392953 -0.06888691 -0.03830249 0.049421564 0.053794865 0.057387948 -0.03483651 0.034823667
0.008611699 -0.009281159 -0.08510744 0.017748522 -0.034693934 -0.01748654 0.0030825876 0.04214351
-0.07729339 0.04489464 -0.089083165 0.051342007 -0.024741996 -0.10151996 0.011578861 -0.04854089
0.020533148 0.0035695182 0.01676565 -0.051584397 0.06038611 0.012151911 -0.1051778 0.0851576
-0.08077282 0.0020165294 -0.06304732 0.01716286 0.04897455 0.019561348 0.01487159 0.00053694606
-0.11378026 0.0204746 0.040457796 -0.14076923 0.013832839 -0.06417697 0.10642772 0.101236045
0.012401418 0.0961087 -0.022774473 -0.07016595 0.1143555 0.045843396 -0.014548582 -0.08121656
0.017582271 -0.058444995 0.057697095 -0.017431738 -0.010615041 -0.039092578 -0.022789443 0.06379101
-0.028180555 -0.08152738 -0.05813796 -0.085903734 0.06496017 -0.0052280035 -0.17252277 0.10163123
-0.18330178 0.0866011 -0.021825777 -0.044875808 0.024635594 0.029226981 0.0749038 0.0356966
-0.05084817 -0.13982204 -0.06710819 -0.003420644 -0.1458195 -0.12521921 0.06584347 -0.10917861
-0.003608072 -0.004977294 0.022609238 0.022894915 -0.08841555 -0.08154315 0.10709463 -0.020735715
00000000: 9df2 50be 4242 8a3c fefb 903d 4ef4 01be
00000010: 2873 7e3c a6dd 55bd 148b 1b3c e1f5 94bd
00000020: 7c01 033d 7fdb 00bd ae6d dbbd a698 343c
00000030: 5124 a5bd 4880 82bd a677 583d e658 183d
00000040: 98ed b53d c5f4 c8bd 8a60 573d 061f 813d
00000050: 18e4 77bd 9cbe 163c c0f6 793d c6e7 283d
00000060: 1ed3 2fbd 0171 24be 6a3f 2e3b 8d4c adbd
00000070: e10d 65bd 83a1 cabc 99d7 51bc 7334 9ebd
00000080: f025 01bd 0e1e 1ebe deea 2abd 2f29 b2bb
00000090: 0c6e 203d 6e8e 12bd 1ade 32be 6eb6 043b
000000a0: 7ca6 fbbd fc5b 40be bb08 6b3d 0148 12be
000000b0: 2549 3f3d 6cb1 1c3c cabd 2c3d 4a3a 0b3b
000000c0: b248 723d 9217 023d ecc1 8fbd 4171 ecbc
000000d0: 2202 d13c 4a42 17bd ee55 7fbd 79fa e33c
000000e0: efd0 113d 4e50 6dbd 06c9 8abd 5113 1fbd
000000f0: cee3 8a3d 30e1 723d 70d1 eeb8 8c51 233c
00000100: b7d6 fabc 1ba6 f63c 00da 8a3d 4ae2 85bd
00000110: fcf8 09bb 7828 cf3d 680c d0bd 0956 adbb
00000120: 5972 a13d aa19 d33c 88fa ba3d 8cff abbd
00000130: 1631 9d3d d201 013c 24e0 19bd 4b6d 72bd
00000140: aca6 2fbd dcc2 e8ba d0ff 3b3d 3e43 673d
00000150: 6d0a c23c f302 63bc f59b 88bc 7821 053c
00000160: 4aa6 fcbd 7f21 d4bd 0c9f 66be fd74 ecba
00000170: 991e d63a 63dc 23bd e252 d2bd e2d1 cfbd
00000180: 580d 213d a192 193b e890 72bc bb8d adbd
00000190: f618 3cbd 7489 0ebd 0a3f c0bc d78e dabc
000001a0: 7006 94bc 54e1 28be f6b6 bebd 94f1 c7bd
000001b0: 6411 b43c b532 873d 2a9f 39bd 0e7a bf3c
000001c0: 81c8 ffbc 22b7 6bbc d71a 7b3d 288c 7c3d
000001d0: 3982 a9bd 4916 043d da60 803d 3df0 0a3d
000001e0: b6d7 723c 2eb8 153d a906 e8bc 3d35 7d3d
000001f0: 3fc4 49bb 0f5a b9bd ed10 6dbd 2164 87bd
00000200: e54c cebb a81a 47bc 72d8 933c 65d5 60bd
00000210: 5ac8 c8bd b220 e43c 838a 9b3a 989f 9dbc
00000220: fa3e 88bd 147d dc3c 549c b8bd f69e 8e3d
00000230: 4f50 8c3d 7959 bd3b c926 28bd 7ecc b5bb
00000240: 41f2 5ebd c9a3 f03c 01f0 09be d14a 8d3d
00000250: e867 4dbd c358 1abe f2b6 a2bd 1edf 11bd
00000260: b18c 09be bddc a1bd ee65 e4bd 8610 1cbc
00000270: d4a6 9dbd ce7d 0f3c 6d76 debc d70d 4f3c
00000280: c4ce fdbd 9514 8dbd 12e3 1cbd 446e 4a3d
00000290: 0158 5c3d a00f 6b3d bab0 0ebd 43a3 0e3d
000002a0: 1518 0d3c 0110 18bc cf4c aebd 5965 913c
000002b0: 3a1b 0ebd ef3f 8fbc 3d05 4a3b ac9e 2c3d
000002c0: ff4b 9ebd 71e3 373d 3c71 b6bd ff4b 523d
000002d0: baaf cabc b2e9 cfbd 43b5 3d3c d0d2 46bd
000002e0: 2235 a83c 94ee 693b 1e58 893c 294a 53bd
000002f0: 6d57 773d cf18 473c 7567 d7bd 1c67 ae3d
00000300: 386c a5bd c027 043b f41e 81bd 2099 8c3c
00000310: 8a99 483d 1f3f a03c f8a7 733c d7c1 0c3a
00000320: a005 e9bd 59ba a73c 13b7 253d cf25 10be
00000330: 22a3 623c 376f 83bd c7f6 d93d d854 cf3d
00000340: 512f 4b3c a3d4 c43d 8891 babc 2ab3 8fbd
00000350: 3733 ea3d 49c6 3b3d 2d5d 6ebc de54 a6bd
00000360: b208 903c 0564 6fbd ca53 6c3d 01cd 8ebc
00000370: b5ea 2dbc 8a1f 20bd edb0 babc dca4 823d
00000380: e8da e6bc d4f7 a6bd 1222 6ebd 4cee afbd
00000390: d609 853d ac4f abbb cfa9 30be 0924 d03d
000003a0: 76b3 3bbe eb5b b13d f9cb b2bc b2cf 37bd
000003b0: 96d0 c93c 6c6d ef3c 2a67 993d 9936 123d
000003c0: 2c46 50bd 822d 0fbe 0570 89bd e22c 60bb
000003d0: b551 15be 7739 00be f1d8 863d 0999 dfbd
000003e0: 6775 6cbb 9118 a3bb 0237 b93c 1e8e bb3c
000003f0: 3613 b5bd 1800 a7bd 6e54 db3d f2dd a9bc

conv4.bias f4 [32]
-0.07657129 -0.07950955 -0.07108238 -0.10291856 -0.017854374 -0.07448757 -0.054826166 -0.051126737
-0.06768763 -0.026647486 -0.031940944 -0.029634908 -0.081191696 0.07368275 0.0090073105 -0.017881237
-0.087898225 -0.05714082 -0.046664592 -0.01283821 -0.045267653 -0.05350019 -0.03479559 -0.0615518
0.053848166 -0.06400584 -0.06711242 -0.079578556 -0.09654425 -0.03599161 -0.05121066 0.022508884
00000000: 69d1 9cbd e7d5 a2bd a493 91bd f7c6 d2bd
00000010: 5643 92bc f08c 98bd 6791 60bd 456a 51bd
00000020: d09f 8abd d44b dabc 82d4 02bd e8c4 f2bc
00000030: d547 a6bd fbe6 963d 6693 133c ac7b 92bc
00000040: fc03 b4bd 7e0c 6abd 5f23 3fbd 5b57 52bc
00000050: 936a 39bd 0423 5bbd d285 0ebd be1d 7cbd
00000060: e58f 5c3d 7e15 83bd 3d72 89bd 15fa a2bd
00000070: feb8 c5bd f06b 13bd 45c2 51bd 8d64 b83c

fc.weight f4 [1, 1440]
-0.0007713579 0.045857918 -0.029304212 -0.04006419 0.012685239 -0.009874998 -0.0025500585 0.002347925
0.018021815 0.002715069 0.024185644 -0.0390524 0.0115020415 0.066151775 -0.0060608857 0.05609601
-0.041991785 -0.04649712 0.036234405 -0.036345683 0.08877276 0.052890774 -0.14146431 0.07861715
-0.009354089 0.0020164135 -0.020590821 0.015173065 -0.03921862 -0.029309547 -0.0063196383 0.038841285
-0.035673913 -0.09230035 -0.032295644 -0.03776747 0.029753491 0.027546046 -0.036635853 0.049677048
0.010741272 0.057066984 -0.032721963 0.027006844 0.054085687 -0.05862814 0.018356001 0.046807762
0.04851497 -0.0110834185 0.020669272 -0.023276681 0.0024979399 -0.056629814 -0.0069200965 0.051859174
-0.054236457 0.02131798 -0.01374586 -0.110418126 -0.042482533 -0.06204856 0.0050199814 0.054501064
-0.015008215 0.031754136 0.08421203 -0.004218886 0.042462908 -0.008862557 0.028215513 -0.01783304
-0.07220727 0.03013172 -0.020301364 0.047383577 0.064847335 -0.008250192 -0.039906867 -0.04518326
-0.026011089 0.0025670263 0.018500973 0.009787243 0.079097316 0.009005149 0.05376062 0.019805271
0.012867253 -0.011746944 -0.049024086 0.036223046 -0.05058969 0.026749067 -0.02465639 0.07505831
-0.008463861 0.020106291 -0.03066615 0.011207536 0.014663096 -0.05064857 -0.008759492 -0.035423595
0.00048990117 -0.029723423 -0.036964808 0.052361358 0.044103168 -0.052331652 0.021418378 -0.099316105
0.03693078 -0.08667421 0.10386829 -0.024102502 -0.022417856 -0.024305483 -0.026787642 0.042975124
0.02340771 0.049172685 0.018492784 0.008761532 -0.069450594 0.0108188195 0.07016346 -0.018721955
-0.07077597 -0.059917893 -0.07263452 0.019894222 -0.021949623 0.0033224206 -0.046720337 -0.011159877
0.05437724 0.104363576 0.051626038 0.008526157 0.05871093 -0.026668496 0.06338802 -0.13342251
0.0006882549 -0.07433415 -0.001348652 -0.010132257 0.0019060122 -0.03215502 -0.0472974 -0.06632947
0.04367194 0.004079355 -0.011686462 -0.0027635542 -0.03673087 0.038211074 -0.03590571 0.039870754
0.021794766 -0.022297157 0.010445572 0.03251524 -0.023041679 0.019249333 0.010890315 0.015999207
0.08324026 -0.0023226824 0.024607506 0.06497256 0.041942492 0.035440814 0.046557616 0.06753725
0.027461551 -0.06915375 0.029357558 0.041992676 -0.04649376 0.057286017 -0.013990053 -0.0006668839
0.04390045 -0.0035713706 0.0057872673 0.04285144 -0.02940441 -0.04598287 -0.06897765 -0.02524572
-0.023948105 0.05043394 0.08002035 -0.08762366 0.10902611 0.038097367 0.0896957 -0.0002494787
-0.008777811 0.017427584 -0.043191634 -0.04897463 -0.08709442 0.008548476 -0.088757746 -0.023120686
0.062327273 0.06678596 -0.011058156 0.021299023 0.037742965 -0.033446554 -0.10399493 -0.08316948
-0.087051794 0.07858912 0.055702534 0.04414917 -0.09707112 0.053643815 0.020735033 -0.024733085
-0.004775928 -0.024905533 -0.054635085 0.08623302 -0.033827566 0.02105121 -0.0039435 0.019019308
-0.081510626 0.016927352 -0.005386677 -0.02256812 0.07556913 -0.020878932 0.054393474 -0.026491048
0.033839446 -0.008829644 0.05419729 -0.015792776 0.049957912 -0.062055446 -0.011849806 0.010556792
-0.035477858 0.04889652 -0.017782077 -0.023766339 0.013129567 -0.008813702 -0.059324272 -0.03151147
00000000: f434 4aba 83d5 3b3d 630f f0bc 591a 24bd
00000010: c0d5 4f3c beca 21bc e21e 27bb a5df 193b
00000020: 7ca2 933c 4def 313b f920 c63c 69f5 1fbd
00000030: 0f73 3c3c 957a 873d 659a c6bb eec4 653d
00000040: 94ff 2bbd c473 3ebd 876a 143d 36df 14bd
00000050: 7ece b53d ffa3 583d 05dc 10be 0702 a13d
00000060: e541 19bc ce25 043b 15ae a8bc 7298 783c
00000070: b4a3 20bd 931a f0bc f814 cfbb 0a18 1f3d
00000080: cf1e 12bd f707 bdbd 7048 04bd 10b2 1abd
00000090: 98bd f33c 3fa8 e13c 7a0f 16bd 297a 4b3d
000000a0: 29fc 2f3c 12bf 693d 7707 06bd 753d dd3c
000000b0: f488 5d3d 0f24 70bd 535f 963c 7fb9 3f3d
000000c0: a2b7 463d 3a97 35bc 9b52 a93c bdae bebc
000000d0: 7ab4 233b aaf4 67bd fac1 e2bb 496a 543d
000000e0: 0c27 5ebd 0ba3 ae3c 5136 61bc e622 e2bd
000000f0: 2a02 2ebd a126 7ebd a87e a43b 823c 5f3d
00000100: 04e5 75bc a010 023d 5b77 ac3d 953e 8abb
00000110: 96ed 2d3d 4234 11bc 3824 e73c 9816 92bc
00000120: 68e1 93bd ccd6 f63c 0c4f a6bc 4815 423d
00000130: aece 843d d02b 07bc 6275 23bd 1512 39bd
00000140: 3515 d5bc 8e3b 283b 5a8f 973c ac5a 203c
00000150: c6fd a13d 558a 133c 1934 5c3d aa3e a23c
00000160: 2cd1 523c 4176 40bc 7bcd 48bd 9e5e 143d
00000170: 2337 4fbd dc20 db3c 33fc c9bc 2cb8 993d
00000180: 02ac 0abc f3b5 a43c 9437 fbbc d09f 373c
00000190: 7b3d 703c e074 4fbd f983 0fbc 5518 11bd
000001a0: b66c 003a 897e f3bc 6968 17bd dd78 563d
000001b0: 86a5 343d b759 56bd 9875 af3c 3e66 cbbd
000001c0: bb44 173d 4082 b1bd e6b8 d43d 9c72 c5bc
000001d0: a7a5 b7bc 4b1c c7bc c271 dbbc af06 303d
000001e0: 87c1 bf3c 4c69 493d 2e7e 973c 878c 0f3c
000001f0: 1d3c 8ebd 6b41 313c dcb1 8f3d c95e 99bc
00000200: fef2 90bd 776c 75bd 68c1 94bd 35f9 a23c
00000210: b2cf b3bc f8bc 593b d35d 3fbd ebd7 36bc
00000220: abba 5e3d 92bc d53d d375 533d 4bb1 0b3c
00000230: df7a 703d e477 dabc 94d1 813d e99f 08be
00000240: 016c 343a 813c 98bd 40c5 b0ba c401 26bc
00000250: 28d3 f93a fbb4 03bd ebba 41bd bfd7 87bd
00000260: 59e1 323d 1cac 853b 9378 3fbc bf1c 35bb
00000270: 1c73 16bd 3783 1c3d de11 13bd 844f 233d
00000280: f08a b23c 87a8 b6bc e823 2b3c b32e 053d
00000290: e7c1 bcbc c7b0 9d3c 4b6d 323c c510 833c
000002a0: df79 aa3d 2538 18bb ae95 c93c 5510 853d
000002b0: e4cb 2b3d 632a 113d 33b3 3e3d f850 8a3d
000002c0: 0cf7 e03c 7ba0 8dbd 437f f03c 8300 2c3d
000002d0: 3e70 3ebd bea4 6a3d 8936 65bc d2d1 2eba
000002e0: f5d0 333d a80d 6abb 1ea3 bd3b fe84 2f3d
000002f0: 84e1 f0bc 8958 3cbd 2744 8dbd 1dd0 cebc
00000300: d12e c4bc d293 4e3d b6e1 a33d 0974 b3bd
00000310: 1549 df3d fc0b 1c3d 61b2 b73d 77cc 82b9
00000320: cfd0 0fbc 4bc4 8e3c b6e9 30bd 9f99 48bd
00000330: 8f5e b2bd e80e 0c3c 9fc6 b5bd 9867 bdbc
00000340: e24a 7f3d 14c7 883d 452d 35bc 4a7b ae3c
00000350: 5e98 1a3d 41ff 08bd 4bfb d4bd c354 aabd
00000360: 3648 b2bd 55f3 a03d 5728 643d c3d5 343d
00000370: 39cd c6bd 9eb9 5b3d 84dc a93c 0a9d cabc
00000380: 637f 9cbb b006 ccbc 0ac9 5fbd f09a b03d
00000390: c68e 0abd 9673 ac3c 7a38 81bb 61ce 9b3c
000003a0: 0bef a6bd 3bab 8a3c b982 b0bb c7e0 b8bc
000003b0: fdc3 9a3d 4b0a abbc b1cb 5e3d c103 d9bc
000003c0: 3b9b 0a3d 36aa 10bc fafd 5d3d da5f 81bc
000003d0: aba0 4c3d da2d 7ebd b025 42bc 65f6 2c3c
000003e0: 3b51 11bd b847 483d b8ab 91bc a0b1 c2bc
000003f0: 651d 573c 5867 10bc 02fe 72bd 2c12 01bd
