model_round_1.pth (torch, 126796 bytes, 9 tensors)

conv1.weight f4 [16, 1, 16, 3]
00000000: 5fc4 b3be 0a59 59bd 4e3f 9d3e 855b 2ebe
00000010: 4b5e fe3d f7d7 a93d 6ae5 57bd 289f 023d
00000020: ce25 b9bd bb1f 1bbe 0d96 bd3d ad2b 213e
00000030: fd3c 8fbd d9f5 723d babd 20bd b857 013c
00000040: d408 6dbe 94f2 8dbd 3cea 923d 00da df3c
00000050: b7ae 003e 8a77 e4bd 1c95 94be 29de 9f3c
00000060: 8304 693d 17ad a9be 55b4 febc e9de 00be
00000070: 0a53 62be 0f7c 81be ba61 813e e169 cf3d
00000080: 8448 7f3d 1666 b43d d15e c5bd 0468 a43d
00000090: 6193 923e 84a6 833e fba0 34bd ab88 5dbe
000000a0: 644b 58be 2aa4 6dbe 03c1 883d 8e15 8e3c
000000b0: a31d 183d 0a9d 8cbe 3cdd a63c dfac e3bd
000000c0: 2756 c73d 854d 2bbe 2793 383d 84f9 1e3e
000000d0: 45d4 0ebd 7494 c6bd f604 8f3e 5f9b dabc
000000e0: 836e 86be 5249 45be ee6e 6a3d ae7d 7d3d
000000f0: fa38 53bd 3ee1 84bd e994 31bd 8a06 843d
00000100: 0837 c6bc af96 e0bd dcb1 863e 5495 06be
00000110: 831f 74be 7f16 f7be 8fa7 89be 5583 3f3d
00000120: fe94 4ebe 0626 8dbe 2db3 f0bd 9797 4a3b
00000130: 5f11 d4bd 7744 133c 098a 083d b0d7 e4bd
00000140: ef58 2bbd 7860 95be 4bd3 ab3d 8466 ae3b
00000150: 3421 633e 9c96 b43c 526d 12be 2169 0e3e
00000160: 36c9 19bd be93 5abe 8095 c9bd bb12 7cbe
00000170: c78b 59be 42f9 86be fb8a 2a3f 1b80 053e
00000180: 4314 bdbd c7ec 5fbe 3a74 af3d c9fd e4bd
00000190: 2466 f1bd 76b0 873e 624b 55bd b6eb d4bd
000001a0: bf8d 363e d0d0 56be d04c 85ba 234e 0b3e
000001b0: 30fc 99bd 4ef0 793c 0627 23bd 757b 43be
000001c0: 2c54 273c ca3f 15be fa5d 29be ba34 04be
000001d0: 4074 0ebe e5ba c1bc 3419 e2bb 0c9e 31be
000001e0: b7c8 423d 535b 2bbe c31c 6abe 8d20 323d
000001f0: 222b 1abc 6346 9fbd 2864 873d 56bc 5c3e
00000200: 17ad 1abe 781e 0bbd 4fd7 9a3d a5ba b1bc
00000210: 22de ff3a 8be2 cabd 91ac 1c3c 5958 d13d
00000220: 0e08 08bd d126 ecbd 6087 91bc b808 1d3e
00000230: 1ab8 a83d 1641 3e3e 266e 5ebd e2ef a7bd
00000240: 720f 55be f035 07be a661 b6bc fda1 a6bd
00000250: 9018 07be 109b 56be 9b83 78be 54b5 9cbe
00000260: acc2 22bd 0065 b2bc 5cd0 d1be 5ce3 21be
00000270: 429d 0cbe 82cc 3ebd 0403 263e 4cf5 8abe
00000280: 2f2b 9bbe 46f3 7abd 2312 2dbe 72ca 6bbe
00000290: 5acb 81bd e574 363d 4071 ccbe 2271 d13c
000002a0: b2c0 e63c 1158 96be 6361 903d 0166 97be
000002b0: 3f4b 6cbd 5e62 413b c0ca c4bd f178 68bd
000002c0: 3469 23be 73ca c33d ccdf 8cbe 467c 1ebe
000002d0: e287 0d3e 3554 44be e0ba 8a3b 3f45 dabe
000002e0: 76d0 733e 62d6 e43c 67a8 243e 5ed5 f73e
000002f0: 12c3 16bd 4af4 e1bd 6f80 a73e a030 d2bd
00000300: 94ee cbbc d549 383d 0817 783c 195f 49be
00000310: dd07 9ebd a44a 0e3e 77ec 6bbe 9aea 933c
00000320: 0bfe df3d 169e e93d 3bed c43d d528 cebd
00000330: 5039 a93d c888 843d 1fdb 35bd 3eda 1dbd
00000340: 8d77 3c3d e62c 2cbd e37b a93d 8c37 30bc
00000350: 88d4 1abe 0713 913c b6fb f3bd 665e 0a3d
00000360: 4db8 bcbc c4ec b13c 5fae 3ebe ca92 ad3d
00000370: 925c e03d 203f 1f3c b1d8 ddbd 32db 87bd
00000380: 064e 15bd bf40 483d d199 553d d5a1 6e3d
00000390: f62d 453d 03a7 543e fc7f d7bc 512a 213e
000003a0: d55f ae3e 2a3a 7f3b 39e2 c1be 4c07 26bd
000003b0: 93fe c33d e0bf 02bf f5cf 0cbe e1d5 393e
000003c0: 5416 6abe d690 94bd a44a d0bc ff4d 8abd
000003d0: 5ffa 023e 4095 2d3e 192b 1bbd ff2b 73bd
000003e0: 8d31 cd3d f9d6 97bd a415 1a3d 410d 913c
000003f0: da4a a6bc f42e a53d 1ea3 3ebe c28a 7dbd
-0.35110757 -0.05306343 0.3071236 -0.170271 0.12420329 0.08293145 -0.05270902 0.031890064
-0.09040414 -0.15148823 0.092571355 0.15739317 -0.069940545 0.05931649 -0.039243437 0.007894449
-0.23147899 -0.06931034 0.07173583 0.02732563 0.12566648 -0.11155613 -0.2902001 0.019515114
0.05688907 -0.3313987 -0.031091848 -0.12585033 -0.2210199 -0.25289962 0.25269872 0.10127617
0.062325016 0.08808534 -0.096372254 0.08027652 0.28628066 0.2571298 -0.044098835 -0.21634166
-0.21122509 -0.23207155 0.06677439 0.017344262 0.03713764 -0.2746356 0.020369165 -0.11116957
0.09733229 -0.1672879 0.04506221 0.1552487 -0.034870405 -0.09696284 0.27933472 -0.026685415
-0.2625619 -0.1926625 0.057234697 0.061887436 -0.05156801 -0.06488274 -0.043354902 0.0644656
-0.024196163 -0.109662406 0.2630757 -0.13142902 -0.23840146 -0.4825935 -0.2688565 0.046756107
-0.20174024 -0.27568072 -0.11752925 0.0030913108 -0.10354876 0.008988491 0.033334766 -0.111739516
-0.04183286 -0.29175162 0.0838991 0.0053222794 0.22180635 0.022044472 -0.14299515 0.13907291
-0.037545405 -0.21345422 -0.09842968 -0.2461652 -0.21244727 -0.26362044 0.6661832 0.1303715
-0.0923238 -0.21867667 0.0856709 -0.11181218 -0.1178706 0.26501817 -0.052073844 -0.10396521
0.1782751 -0.20978093 -0.0010169987 0.13604026 -0.07518804 0.015255047 -0.039832138 -0.19090064
0.010212939 -0.14575115 -0.16539755 -0.12910739 -0.13911533 -0.023648689 -0.006899977 -0.17345446
0.047554698 -0.16734056 -0.22862534 0.043488074 -0.009409698 -0.07777097 0.066109 0.2155622
-0.15105091 -0.033964604 0.07560598 -0.021695444 0.0019521157 -0.09906491 0.009562627 0.10221929
-0.033210807 -0.11530841 -0.017764747 0.15335357 0.082382396 0.18579516 -0.054304264 -0.08200051
-0.20806673 -0.1320417 -0.02226336 -0.081363656 -0.13192964 -0.20957589 -0.24268954 -0.30607092
-0.039736435 -0.021776676 -0.40979278 -0.15809387 -0.13731864 -0.046581753 0.16212088 -0.27140272
-0.30306384 -0.06126716 -0.1690145 -0.23026446 -0.06337614 0.044545073 -0.39930153 0.025566641
0.028168056 -0.29364064 0.07049825 -0.2957001 -0.057688948 0.0029508094 -0.09608984 -0.056755964
-0.159581 0.095600985 -0.27514493 -0.15477094 0.13821366 -0.19172747 0.004233703 -0.42630956
0.2380999 0.027934257 0.16079865 0.48404974 -0.036807127 -0.110329226 0.32715175 -0.10263181
-0.024894036 0.044992287 0.01514221 -0.19665183 -0.077163436 0.1389566 -0.23039423 0.018056203
0.10937127 0.114071056 0.096155606 -0.10066382 0.082628846 0.064714015 -0.044398423 -0.03853821
0.04601245 -0.042035006 0.08275583 -0.010755431 -0.15120137 0.017709268 -0.119132444 0.03378143
-0.0230371 0.021719344 -0.18621205 0.084752634 0.109551564 0.00971964 -0.10832346 -0.06633605
-0.036451362 0.04888987 0.052148644 0.058259804 0.048139535 0.20766835 -0.026306145 0.15738799
0.3405749 0.003894458 -0.37867907 -0.040534303 0.095700406 -0.5107403 -0.13751204 0.18147995
-0.2286008 -0.07254188 -0.025426216 -0.06753158 0.12790821 0.16951466 -0.037882898 -0.05936813
0.10019217 -0.0741405 0.037618294 0.017706515 -0.020299364 0.08065596 -0.18616912 -0.061899908

conv1.bias f4 [16]
00000000: 6fc4 05bd a745 393d e2a2 95bd db8c 203e
00000010: 1b25 41be f5a8 61bd 6e1b 2bbd aaec 9ebd
00000020: e4a4 18be ff28 563b d636 f4bc f4e6 323c
00000030: 4e70 b6bd 9f80 a0bd fc8e 63bd 05e7 03be
-0.032658037 0.04523244 -0.07306458 0.15678732 -0.18861811 -0.05509277 -0.041774206 -0.07759984
-0.14906651 0.0032678244 -0.029811304 0.010919321 -0.08908139 -0.078370325 -0.055556282 -0.12881096

conv2.weight f4 [16, 16, 3, 5]
00000000: f848 303c 78c4 c6bd d5e6 92be 3de2 82bb
00000010: 17ba 1cbe 6c61 a43d fab6 c8bc 62da e63d
00000020: 4dae bdbd d84c 51bd 43aa adbb b9ad 483d
00000030: 569c 0cbc 1939 0cbe cb1b ffba 07d8 bb3c
00000040: 00b6 66be 4a2a 98be a912 34bc e6a4 dc3d
00000050: d81b 173e c32b 1dbe ecbb ac3c 0dfa 2abe
00000060: 357d 8f3d 7106 393d 1f34 ecbd 1ab7 11be
00000070: c1a1 76be 7473 8ebd c0ac 01bd 2c87 98bc
00000080: 8c64 9cbd e98a 24bd 9893 73be b16a 4e3d
00000090: 33aa fc3d ef36 ca3c 7a04 1bbe 351d 73bd
000000a0: d214 023e ce09 cebd 374d 0ebe 2edf 1fbd
000000b0: 3352 2c3e 60a5 b2ba 38a3 b4bd 42c4 83be
000000c0: 6f8c 51be aeb9 8cbd 627d daba 423e ba3d
000000d0: 347a dabe 9a9c 5abd e774 50bc 8395 1d3e
000000e0: c42b 54be 6b86 babd ce04 00bd f1b8 27be
000000f0: e5d6 7abe f17e 26be cfb9 a1bd 3986 d1bc
00000100: 9a1e 9cbd ac92 71bd 4343 803d bca1 093e
00000110: 135c 2fbd 6a0a ebbd 6529 44bd a34d e33c
00000120: 0498 023d 04e6 103d f433 87bc 40ae dfbd
00000130: f526 15be 2ad2 76bd cd2a d0bd f92a 8fbd
00000140: 3eed a8be 7028 00bd 1429 853e d5e4 70be
00000150: 2142 59be 8184 13be fa91 b8bb 936b 173e
00000160: 19c0 2dbc a892 8cbc afeb d1bd 21ad 27bd
00000170: 432a 91bd 9f92 9abe 624d 84bd f6eb e1be
00000180: eb98 7d3e 2844 853e 0359 10be 8701 bebc
00000190: 3f7a c03c 06b1 8dbe 2718 bcbe 8f3a 18bd
000001a0: 5a87 f7bb cc60 3bbd b2b2 ffbd b850 25be
000001b0: 1d84 4f3e 5312 6dbe f893 e43d a196 68bd
000001c0: b3b7 853d 77f2 fcbd 5d1e 96bd 7f0a 9fbd
000001d0: d8fb 47be 87e5 c13d 1b0d 81be e73c a23d
000001e0: 86bf b43d 28bc d5bb 9272 69bd 2723 753d
000001f0: 9cce 16be e313 923d 2d3e 1cbe eb22 653d
00000200: b5ef 8f3d e440 66bd 02c0 c3bd a21a 6cbe
00000210: 539c 3a3d 566b 183d 56ee 7bbe 97f2 f4bd
00000220: 5222 80bd ca7f 403d fa34 cabc 7873 55be
00000230: 3dd8 b3bd f0d7 cebd 105e 693d 67c7 033e
00000240: d894 8abd 0377 b4bd c7ff d4b4 cabb 603e
00000250: 1343 003e dfb6 4ebe 79e8 52bd eea4 53be
00000260: 3fa7 ccbc 71b0 a5be 6758 89be 5ac1 f53d
00000270: e9fd f4bc 0441 44be ff24 85bd 8503 b3be
00000280: 353c 11bd 569c c4be b6c1 edbb 43ff a0bd
00000290: 3880 123e b65b 5b3c d374 cdbd 75d3 13be
000002a0: 26a4 f33d 4c45 cbbd cf5b 6bbe ad48 7dbd
000002b0: f129 b83d 0b11 f7bd f841 34bd 25b9 18be
000002c0: bcf1 a53c e40a 833c 6882 12be 9de0 89bb
000002d0: 02d3 a9bd 7147 593d 2943 773c b1f6 a1bd
000002e0: 2841 54bd 6485 3bbe 6e04 003e 3504 9e3d
000002f0: 4570 d73d 7f62 03be f0e7 caba fee9 eabd
00000300: f868 67be a462 e9bd 2da6 f33d f6a3 4c3e
00000310: 2e32 35be f662 c5bd 3928 f9bd 8241 e1bc
00000320: 5963 44be da2e 153e 1a7f b3bd 84b1 51be
00000330: 2352 0dbc 8e6b 1d3d 44f1 31bd a8b0 c0bd
00000340: 8420 d23d 9a57 2dbd 0605 12be de31 0ebe
00000350: df4e ebbd 5717 41be ffec c13c d091 d1bd
00000360: fc1d 1bbe a173 ebbd 2913 e7bd 87a0 ecbd
00000370: 1acf d43d 817a 1a3e e275 58be 7cc2 2dbc
00000380: 41fb 3e3d 7787 75be 8d1e 85be e843 80bd
00000390: bb6a 8b3d 5c16 24be b981 9cbe 88b2 a3bd
000003a0: bd00 f03d 89d5 34be b080 60be d42b fcbc
000003b0: ed4d e53d 0c5c c3bb f22c 21be d194 98be
000003c0: 9b08 a9be af80 26bd cea4 42be e158 453d
000003d0: 250c 66bd e415 e6bd 6b0b 29bd 9744 923d
000003e0: 18b6 cfbd c32c 75bd 1763 b3bd c58b 20bd
000003f0: e173 47be e938 1c3c e799 bcbc a44a e9bd
0.010759585 -0.09705442 -0.28691736 -0.003994255 -0.15305363 0.08026394 -0.024501313 0.11272122
-0.09261761 -0.051098675 -0.005299838 0.0489938 -0.008582195 -0.13693656 -0.0019463239 0.022930158
-0.22530365 -0.29719764 -0.010990777 0.107736394 0.14756715 -0.15348725 0.021085702 -0.1669695
0.07006303 0.04517216 -0.11533379 -0.14230004 -0.24085142 -0.06955615 -0.031658888 -0.018619142
-0.07636365 -0.040171538 -0.23786771 0.050394718 0.123371504 0.024684398 -0.15138426 -0.059354026
0.12703255 -0.10060464 -0.13896643 -0.0390312 0.16828232 -0.0013629608 -0.08820194 -0.2573567
-0.20463727 -0.06871353 -0.0016669447 0.09093906 -0.4267136 -0.053372003 -0.012723184 0.15389065
-0.2071982 -0.091076694 -0.031254582 -0.16379143 -0.24496038 -0.16259362 -0.07896768 -0.025576698
-0.07623024 -0.058977768 0.06262829 0.13440603 -0.04281242 -0.11476596 -0.04789104 0.027746981
0.031883255 0.03537561 -0.016504265 -0.109219074 -0.14565642 -0.06025902 -0.101644136 -0.06990618
-0.329935 -0.031288564 0.26007903 -0.23524792 -0.21216632 -0.14406015 -0.005632636 0.1478713
-0.010604882 -0.017159775 -0.10250031 -0.040936593 -0.07088139 -0.30189988 -0.06460072 -0.44125336
0.24765365 0.26028562 -0.14096455 -0.023194088 0.023495791 -0.2767412 -0.36737177 -0.03716522
-0.007553977 -0.04574661 -0.12485255 -0.16144073 0.20265241 -0.23151521 0.11161035 -0.056784276
0.065291785 -0.12350934 -0.0733001 -0.07765674 -0.19529665 0.09467607 -0.2520531 0.079217725
0.08825593 -0.006522674 -0.05699403 0.059847977 -0.14727253 0.07132699 -0.15258093 0.055941503
0.07028142 -0.05621423 -0.09558107 -0.23057035 0.04555924 0.03721174 -0.24602637 -0.11960333
-0.06256546 0.04699687 -0.024683464 -0.20844829 -0.087814786 -0.100997806 0.05697447 0.12869035
-0.06766671 -0.08811762 -3.967418e-07 0.21946636 0.12525587 -0.20186947 -0.051491234 -0.20668384
-0.024982093 -0.32361177 -0.26825258 0.119997695 -0.02990623 -0.19165426 -0.06501197 -0.34963623
-0.03545781 -0.38400525 -0.007255758 -0.07861187 0.14306724 0.013388565 -0.10032048 -0.14436133
0.11896543 -0.09925327 -0.22984241 -0.061836887 0.08992375 -0.120637976 -0.044008225 -0.14914377
0.02025687 0.015996404 -0.14307559 -0.004207684 -0.082922 0.053046647 0.015091696 -0.07908381
-0.05181995 -0.18312603 0.1250169 0.07715646 0.105194606 -0.12830542 -0.00154805 -0.11470412
-0.22598636 -0.11395767 0.1189693 0.19984421 -0.17694923 -0.09638016 -0.12165875 -0.027497057
-0.19178523 0.14568654 -0.08764477 -0.20477873 -0.00862554 0.03843265 -0.04344298 -0.094086945
0.10260108 -0.04231987 -0.14259729 -0.1388621 -0.11489653 -0.1885656 0.023672579 -0.1023289
-0.15148157 -0.11496664 -0.112829514 -0.11554056 0.10391064 0.15085794 -0.21138719 -0.010605451
0.046626333 -0.23977457 -0.2599987 -0.06262952 0.068074666 -0.16024154 -0.3056772 -0.079930365
0.11718891 -0.17659582 -0.2192409 -0.030782618 0.11196504 -0.0059619006 -0.15739802 -0.29801038
-0.33014378 -0.040650066 -0.1900818 0.048180465 -0.056163926 -0.11234644 -0.041270655 0.07141989
-0.101421535 -0.05985714 -0.08759134 -0.039195795 -0.19477798 0.009535053 -0.023022605 -0.1139119

conv2.bias f4 [16]
00000000: 3ebf 323d 630c 46bd 5a57 06bd af77 3cbe
00000010: 5c66 dabc 2ccf 4b3d d070 a0bd 92cd 8abd
00000020: 0ec7 e3bc 7bc8 1cbd a8e1 b4bd b1e1 bcbd
00000030: 5993 79bd f682 98bd 2033 34bd 374c 98bd
0.043639414 -0.048351657 -0.03279815 -0.1840503 -0.026660137 0.04975812 -0.07834017 -0.06777491
-0.027804878 -0.03827713 -0.08832103 -0.09222735 -0.060931537 -0.07446854 -0.04399407 -0.07436412

conv3.weight f4 [32, 16, 8, 3]
00000000: 3cd4 80bc df88 fdbd 980a 50bd f6f2 2abe
00000010: b29b a03c a3f4 b6b9 c6d4 5abd 46df 8f3d
00000020: 56e6 0c3c 2b08 883d 28c1 28be 01be 20be
00000030: 47fe d3bd 9a91 a83b e763 c5bd c9b1 5ebd
00000040: 338d c43d 3dfd a0bd ceff c13d 04a6 37bd
00000050: 2dee dcbd a5f1 b7bc 7e75 cbbd c05a 413b
00000060: 8dcd 4b3e 8540 5cbe cfbf 14be 0619 a83d
00000070: 3c52 a33d 98d0 223d d148 44be c566 88bc
00000080: fd00 f23c 2770 e0bd 542e 7abd bf29 64bd
00000090: 71cf 153d 55c1 0dbe ed4a 273d e586 a2bc
000000a0: 44e8 80bd 7e16 a5bd 2003 b1bd 0579 e0bd
000000b0: df43 47bb e33b 2c3d 4caa 0abe 841c 50be
000000c0: d4b3 c63d 30b0 aabd bd36 273d ee5e 0c3e
000000d0: d78c fb3d 3441 f7bd c771 8cbd 14a6 983d
000000e0: d718 c0bd 5be6 7bbd 129f 61bd 996f 3e3d
000000f0: e0ef ef3c 13b1 343e 576b 97bd 4e4f 26be
00000100: e108 a3bc df42 48bd d2fc 07be cb2f a63c
00000110: a677 a8bc d822 cb3d f264 aa3c 8321 1ebd
00000120: 25d2 06be a0fe bebd 5b63 10be 0184 d9bd
00000130: 7067 5ebd e7d7 f9bd 4ae7 8fbd a426 1dbe
00000140: ef47 32bd 53fd 52be 4c4d 3abe b000 1fbe
00000150: b038 46be 394a 22be ab05 ffbd f0ef d5bd
00000160: f9a6 0f3d 2e92 a4bd 6448 d9bd 21ef 6dbd
00000170: 93c2 45be 6ec7 ccbd 2ca3 03be 320d eebd
00000180: d417 47bd 1fdb bbbd 4534 93bd 73f2 093d
00000190: 638a 703d 78f9 063e 97c5 b43c e280 433d
000001a0: 6ac9 c83c f712 abbc 1144 233d 9b9d c13d
000001b0: ec59 973d 5611 a83d 097d bdbc c745 a63d
000001c0: 92ca 83bc b5a9 213c 3458 09bc 0896 81bd
000001d0: 8784 ae3c 7a2f 67bd 146a 003d e400 0abb
000001e0: f230 99be 5730 68be 70f2 bcbd 35e4 1dbe
000001f0: 317a 743e d287 41be 1595 e83d 9cb0 98be
00000200: db98 39be 96f6 9fbe 5e2c 30be b801 253e
00000210: 39fe d3bd 983e 2fbd 8f93 21bd 0af3 0d3e
00000220: 92a5 18be fca6 973c ddac 4fbe a4d5 8e3b
00000230: 466e 95bd dcee 7fbd b0da b2bd ebb8 ce3b
00000240: b4e2 53be d1d6 b0bd 27f2 b5bc b673 c63d
00000250: 1b98 0ebc ae24 13bd 3307 fc3d 1a3b 36be
00000260: bcd5 0f3d db95 7fbd afc6 d1bd b233 c43c
00000270: eccb 6cbe 9f2c d7bd b43d 5c3d b333 3dbd
00000280: addb 2bbc 15ea 75bd a618 673e cd45 b0bc
00000290: 1104 17be bad6 4b3c 7b25 30bd 4246 3c3d
000002a0: 3998 d53d 470d 353c beed 94bd cb88 79be
000002b0: 0efd 3fbe f6d6 13be 1f4c 47be 75b4 a53d
000002c0: abab 90bd 3ad6 4bbe 6d06 ba3d 2564 4f3d
000002d0: 1b27 39be 5e0a 27be d101 d3bd 6d9d e53c
000002e0: e039 503d acdc 3f3d ac6e c83d 7310 e43d
000002f0: c6e6 8a3d cef7 10be 6182 cd3d 3a21 843c
00000300: 8b4a 03bd bc04 6abd 946b 503d 71f8 1b3d
00000310: 33ab 08bd 0dd6 0e3b ae47 5bbc 7e3c 623b
00000320: ec36 3a3a a3be ed3d efdd 07be b09e 3c3e
00000330: cd98 8d3d 3315 b3bd 363c f03c 178f 6cbd
00000340: e742 243d 0a56 44be 6f93 423d d556 29be
00000350: f049 2e3d 500e 5fbe 32d2 dfbd 0c83 0abe
00000360: f844 363c d96a 9cbe f053 c73d 0ac5 0fbe
00000370: 4186 aabe 3808 c1bd a47e 973d fc91 53be
00000380: 61b9 9a3c 4587 c9bc 3c61 143e 27cb cfbc
00000390: 8aec 083d 717f 06be 4873 433d 6f6f 26be
000003a0: f57e 63be deef 5b3d fcc3 31be 3773 80bd
000003b0: 805a c03c b79f 0ebe cc0f 5cbe 35f3 33be
000003c0: 6d03 dfbc a76e 29be b172 e0bd 7f28 f2bd
000003d0: 70f4 373d 8716 97bd dd30 d83d ba76 8fbd
000003e0: 5831 a2be e619 233d 6ec7 afbd a9cd 67bd
000003f0: c97c 703d 361e 1cbd c1e4 8b3c b9e2 28bd
-0.015726201 -0.12379622 -0.050791353 -0.16694245 0.019605491 -0.00034896014 -0.053425573 0.07025008
0.008599838 0.06642183 -0.16479933 -0.1569748 -0.10351234 0.00514431 -0.096381955 -0.054368768
0.09597244 -0.07860801 0.09472619 -0.04483606 -0.10787616 -0.022454092 -0.09934519 0.0029503554
0.1990263 -0.21508987 -0.14526294 0.08207898 0.07974669 0.03974971 -0.19168402 -0.016650567
0.029541487 -0.10958891 -0.06107934 -0.055703875 0.036574785 -0.13843282 0.04084294 -0.019839713
-0.06294301 -0.08060931 -0.08643174 -0.10960583 -0.0030405445 0.0420493 -0.13541526 -0.20323378
0.09702268 -0.08334386 0.040823687 0.13708088 0.122827224 -0.120729834 -0.06857639 0.07453552
-0.09379738 -0.06149898 -0.055083342 0.046493147 0.029289186 0.17645673 -0.0739352 -0.1624119
-0.019901695 -0.0488919 -0.13280037 0.020286461 -0.020564865 0.09918755 0.020800088 -0.038606178
-0.13166101 -0.093259096 -0.14100401 -0.10620881 -0.054297864 -0.12199383 -0.07026537 -0.15346771
-0.043525632 -0.20604448 -0.18193549 -0.15527606 -0.19357562 -0.15848626 -0.12452253 -0.10446155
0.035071347 -0.08035694 -0.106095105 -0.05808938 -0.19312505 -0.09998976 -0.12855214 -0.116236106
-0.04860671 -0.091726534 -0.07187704 0.033678483 0.058725726 0.13181102 0.022066874 0.047730334
0.024510104 -0.020883067 0.039859835 0.09453889 0.07390198 0.082064316 -0.02313091 0.08118778
-0.016087804 0.009867121 -0.008382846 -0.06327444 0.021303428 -0.05644176 0.031351164 -0.002105766
-0.29920155 -0.2267469 -0.09225929 -0.15419085 0.23874737 -0.18899468 0.1135656 -0.29822242
-0.18124716 -0.31242818 -0.17204425 0.16113937 -0.103512235 -0.042784303 -0.039447363 0.13862243
-0.1490691 0.018512242 -0.20280786 0.004358964 -0.072964236 -0.062483653 -0.087331176 0.006308665
-0.20691949 -0.08634723 -0.022210194 0.09690039 -0.008703257 -0.035923652 0.12306061 -0.17795983
0.035115942 -0.062398773 -0.10242974 0.023950431 -0.23124665 -0.10506558 0.053769782 -0.046191882
-0.0104893865 -0.06003769 0.22567996 -0.021517659 -0.14747645 0.0124413315 -0.043004494 0.04596544
0.10429425 0.011050529 -0.07271908 -0.24368589 -0.18748876 -0.1443747 -0.19462632 0.0809106
-0.07063993 -0.1990594 0.09083257 0.050632615 -0.18081324 -0.16312549 -0.10303081 0.028029168
0.050836444 0.04684131 0.09786734 0.1113595 0.06782298 -0.1415703 0.100346334 0.016129125
-0.03205351 -0.05713342 0.050883844 0.03807873 -0.033366393 0.0021795065 -0.013383789 0.003452092
0.0007103521 0.11608627 -0.13268255 0.1841991 0.0691391 -0.08744278 0.029325586 -0.05775365
0.040102866 -0.19173446 0.047503885 -0.1653703 0.04255098 -0.21782804 -0.109287634 -0.13526553
0.011124842 -0.30550268 0.09732807 -0.14040008 -0.33305553 -0.09425396 0.07397202 -0.20661157
0.018887224 -0.024600634 0.14490217 -0.025365425 0.033428706 -0.13134553 0.047717363 -0.16253446
-0.22216399 0.053695552 -0.17359918 -0.062719755 0.023480654 -0.13928114 -0.21490401 -0.17573245
-0.027223313 -0.16546117 -0.10959376 -0.1182413 0.04491085 -0.073773436 0.10556195 -0.07005067
-0.3167827 0.03981962 -0.0858296 -0.056592617 0.058712754 -0.03811475 0.017076852 -0.041231845

conv3.bias f4 [32]
00000000: cd4e 66bd 312b 81bd dd9f d2bc 5f6e a5bd
00000010: 1bd2 81bd b1e1 0cbe 98e9 84be cfcf 24be
00000020: 6a5e 79bc 1342 e4bd b6b1 13bd 6dcf dcbd
00000030: 1e83 4abd 36ab 06be 6ef4 74be 5986 03be
00000040: 7797 82bd 8c6d cebd 68c5 1cbe 9a77 9cbd
00000050: d7ea 7f3d 6ec5 afbd 8879 98bd 2c91 00be
00000060: 516d c6bd 70b3 05be c31e f3bc f09c 97bd
00000070: 5a9c 2bbd b413 3cbd 66da 23be e95d 623c
-0.056227494 -0.06307066 -0.025710994 -0.08077692 -0.063389026 -0.1375797 -0.25959468 -0.16094898
-0.015220264 -0.11145415 -0.03605815 -0.10781751 -0.04944145 -0.1315125 -0.23921368 -0.12844218
-0.06376546 -0.10079488 -0.1530968 -0.0764 0.06247982 -0.085825786 -0.07445055 -0.12555379
-0.09688819 -0.13056731 -0.029677754 -0.0740298 -0.041897155 -0.045917228 -0.16001281 0.013816335

conv4.weight f4 [32, 32, 4, 3]
00000000: 9522 01bd 9689 74be 2b8d 20be 319f e9bd
00000010: 31ea 9c3c 4a3e 73be 35e7 e2bd 66b4 203d
00000020: aac0 0ebe b71b a7bd 9c8f 88bd 1dcc d23c
00000030: 69e5 e63d a943 21be 99cf 773b 487f 0e3c
00000040: 5bde 333c 6b1b 1e3c d270 583d c096 c5bd
00000050: 25b6 1fbe 4489 babd 9834 debc d303 81be
00000060: 2d34 04be 452c f1bd 4420 ddbd 1ee0 77be
00000070: 7893 663d 8036 21be 7b16 203d cde5 95be
00000080: b8bc 243c 670b 3abc 6791 54be d31a b43d
00000090: e92a 4dbe 478f c33c f250 4e3d b9b0 1dbe
000000a0: 5972 61bd 1925 ee3d 76d8 223d ee7f 0cbd
000000b0: 72db 8dbe 4a92 223e b1e3 c6bd c92f 823c
000000c0: 222e e33c 82db 3bbe a9cd 51be c8f9 c3bc
000000d0: 072e 3b3d 2349 763c 4633 dcbb 448b 08be
000000e0: 0154 c53d 4174 693d 90d5 9fbe 9c4a febd
000000f0: 57fa d7bc d747 ecbd 60da cc3d 3956 86bd
00000100: 9f86 02be 1ce3 3abe dc28 9fbd 628a 4ebe
00000110: 42ab 86bd 1b45 94be defe 4dbe fc1b 29bd
00000120: 1f83 17be 43cc b4bd d102 80be 7b5e 0dbe
00000130: 291a 19be 6e5f 96be 4de8 dcbd 9c42 ddbd
00000140: ee2e 8dbd 3f9b 1bbe 8418 613d 3c23 2cbd
00000150: 70b0 5c3d 6364 39bd 0098 08bc 3302 c5bd
00000160: 02c3 773b 5d63 28be 531c 45be 8e55 14bd
00000170: ff50 f7bd b0f2 e63c 8f96 aabd 607b 50bb
00000180: 1953 023e 6fa1 243d 0eda 64be a9d8 153d
00000190: 04ac 8cbd 239d 503d f66e 8dbd 4d76 2bbd
000001a0: f185 2cbe 5894 7cbe e843 37bd 911d 07be
000001b0: e8b8 88bd dff8 6bba 1bb5 80bd 4f3b 23bd
000001c0: 2288 be3b 7f64 ff3d efb1 15be fe8e d2bd
000001d0: 5bc3 e9bd fdff 20bd 477e 3bbe 8cc4 4dbd
000001e0: 65b2 343e 96f5 bbb9 1f23 6ebc 99fc 3dbd
000001f0: 3a57 803d 93b4 27be 33e0 05be b99f 5cbd
00000200: 9b0f 82be f5ff 8bbc c71b 81bd d60b 11be
00000210: 853d 88bd 2ddc 823c e972 1f3d 69ed b03c
00000220: 81b7 64bc fc8a 86be 4f2d 86be 7b05 eb3d
00000230: 3c54 22be a1e9 b7be d28d 90bd 3067 2d3d
00000240: 3e0a 9abd 9b92 d9bd 0066 c63c 87e2 82be
00000250: bad8 c8bd 5fe9 65bd e64a 5dbe c1d9 f7bd
00000260: 2f96 68be aa6b 0fbe 00cd 1dbc b3a8 40be
00000270: ca33 41be c411 0d3e dac3 94bd 8b06 fabc
00000280: 5b48 8b3c 5dab 68be df10 58be 81d7 74be
00000290: b041 11bd acf6 3bbb 3c05 e23b c3a7 0abe
000002a0: 806d 62bd 4669 283d 725c 3dbd 7856 c23c
000002b0: a0fd 90bd cdbe a5bb 9176 81be 78ec c73c
000002c0: 0410 a9bd 5a9c 693d 32c9 49be a11f 9abc
000002d0: ed4d fb3d e95b 4bbe 892a 0cbc 7c05 8d3c
000002e0: 73df 8fbe 95c5 0bbe 4ed0 1b3e 4a8c e03c
000002f0: 642d 03be 69fd 2abc 4aec e8bd bbed e6bc
00000300: 093b d23d c34d 8c3c efad 443b 03d2 ac3d
00000310: 1b75 823d b804 5e3c 1149 c1bc 86fb dfbd
00000320: 8790 4fbd fbb5 833d 4418 febd 4c38 99bd
00000330: 4298 a2bd e4b6 88bd f247 9e3d caf3 edbc
00000340: fa70 69bd 1fe3 b8bb dc18 81bd 067b 393d
00000350: 480c 9dbc 9f0d 18be 5090 db3c 7577 27be
00000360: 1588 cdbd 1f4f 71bd 1f0b d63d 9fae c1bd
00000370: ea69 5dbe 5f9c 913c 03cf 72be 4318 0bbd
00000380: f59f 95bd 85e7 8d3c e292 dbbd 3996 d5bd
00000390: f153 78bd 8bbd debd 380c 633c 392c 81be
000003a0: fc6c 76be 1367 92bc b1d4 2dbe c7be 40be
000003b0: 36b3 dbbd 9efa f8bd edfd f6bd a5f6 51bd
000003c0: b610 3dbe 97c2 4cbe f859 953d 1708 49be
000003d0: 990c d7bd 8f48 34be 236d 41be 2d62 223e
000003e0: 87c0 2abe 8b50 b6bb d0ea f6bd c872 16be
000003f0: d385 2cbc 12ef 40bd 24c5 b33d edc0 22be
-0.03152712 -0.2388061 -0.15678851 -0.114073165 0.01915464 -0.2375423 -0.110792555 0.03923454
-0.13940683 -0.08159583 -0.06668016 0.025732094 0.11274225 -0.15748467 0.0037812947 0.008697338
0.010978307 0.009650092 0.05284197 -0.09647894 -0.15596826 -0.091082126 -0.027124688 -0.2519823
-0.12910528 -0.11776022 -0.1079717 -0.24206588 0.05629298 -0.15743446 0.03908394 -0.29276887
0.01005476 -0.011355258 -0.20758592 0.08794179 -0.200359 0.02387203 0.050370164 -0.15399446
-0.05504069 0.116281696 0.039757214 -0.03430169 -0.27706486 0.15876117 -0.097113974 0.015891926
0.027731959 -0.18345454 -0.2048861 -0.023922816 0.045698192 0.015032086 -0.0067199795 -0.13334376
0.09635163 0.056995634 -0.31217623 -0.12416574 -0.026364489 -0.1153714 0.10002589 -0.065594144
-0.12746666 -0.18250698 -0.07771465 -0.20169976 -0.065756336 -0.28958973 -0.20116755 -0.041286454
-0.14796112 -0.08828022 -0.2500215 -0.13805573 -0.14951386 -0.29369682 -0.10786495 -0.1080372
-0.06893717 -0.1519594 0.05495502 -0.04202579 0.0538792 -0.04526175 -0.008337021 -0.0961956
0.0037805443 -0.16444154 -0.19249086 -0.036214404 -0.12075996 0.028191894 -0.08329498 -0.0031811818
0.12727012 0.040193018 -0.22348806 0.036583576 -0.06868747 0.050931107 -0.0690593 -0.041860867
-0.1684797 -0.24665964 -0.044742495 -0.13194872 -0.06675893 -0.0009001623 -0.06284543 -0.039851483
0.005814568 0.1247034 -0.14618658 -0.1028118 -0.11414214 -0.03930663 -0.1830989 -0.05023627
0.17646177 -0.00035850395 -0.014534741 -0.046383474 0.06266637 -0.16377477 -0.13073806 -0.05386326
-0.2540253 -0.017089823 -0.06304126 -0.14164671 -0.06652359 0.015974129 0.038927946 0.021597581
-0.013959766 -0.26277912 -0.26206443 0.11475655 -0.15852445 -0.35920432 -0.070583 0.042334735
-0.07521485 -0.10623666 0.02421856 -0.25563452 -0.09806962 -0.056130763 -0.21610603 -0.1210208
-0.2271354 -0.14005914 -0.009631395 -0.18814354 -0.18867412 0.13776308 -0.07263918 -0.030520698
0.017002275 -0.2272162 -0.21100186 -0.23910333 -0.035463035 -0.0028680963 0.0068975966 -0.13540559
-0.05528021 0.04111602 -0.04623074 0.023722872 -0.07079625 -0.0050581456 -0.2528577 0.02440475
-0.08255008 0.057033874 -0.19705656 -0.01881391 0.122707225 -0.1985928 -0.008555063 0.01721453
-0.28100166 -0.1364959 0.1521618 0.027410645 -0.12810284 -0.010436394 -0.113731936 -0.02818953
0.10265166 0.017126923 0.00300109 0.08438494 0.06369992 0.01355093 -0.023594411 -0.10936646
-0.05067494 0.064311944 -0.12406972 -0.07481441 -0.07939197 -0.066755086 0.07728566 -0.029046912
-0.05699251 -0.0056423093 -0.0630357 0.04528334 -0.019170895 -0.14848946 0.026802212 -0.16354163
-0.10035721 -0.058913346 0.1045134 -0.094571345 -0.21622434 0.017774759 -0.23711781 -0.033958685
-0.073059 0.017322311 -0.10721375 -0.10429043 -0.060626928 -0.10875996 0.013857894 -0.25229052
-0.24065012 -0.017871415 -0.16975667 -0.18822776 -0.10727541 -0.121571764 -0.12060151 -0.05126061
-0.18463406 -0.19996105 0.07292551 -0.19631992 -0.1050045 -0.17605804 -0.18889289 0.15857764
-0.16675006 -0.0055638007 -0.12056506 -0.14692223 -0.010529953 -0.047102995 0.08777836 -0.15893908

conv4.bias f4 [32]
00000000: 8596 27be 7475 4dbd 79cd 15bd 593f 0abe
00000010: 5640 fd3b e6bf 2dbd c3c3 90bd 6034 8b3d
00000020: dd8a c6bd 3869 f6bd 3b31 1d3d da51 04be
00000030: 3082 d9bd 29b2 56bb dc46 36be 1241 ac3d
00000040: 7ef7 2ebe d199 acbd ea6b a3bb a652 a43b
00000050: 8443 d6bc 97af 743d 8456 b2bd 97eb 1cbe
00000060: 2d5d 2abd 5c97 39be 19db 903a e24a c9bd
00000070: 8607 27be 674f 25be 4c7d 50bd e977 57be
-0.16366012 -0.05016084 -0.036572907 -0.13500728 0.0077286167 -0.042419337 -0.070685886 0.06797099
-0.09694455 -0.12031788 0.038377028 -0.12921849 -0.106205344 -0.003276 -0.17800468 0.08410849
-0.17086598 -0.08427776 -0.0049872296 0.0050147353 -0.02615524 0.059737768 -0.08707908 -0.15324245
-0.041592766 -0.18124145 0.0011051624 -0.09828736 -0.16311464 -0.16143571 -0.050900742 -0.21041836

fc.weight f4 [1, 1440]
00000000: ebd7 20bd f561 513d 374b 1cbd b76c 773e
00000010: cfc6 19bc 6117 ac3c d7ed 73bb eb7e 813e
00000020: 57ab 52bc 48eb e43c 9156 fbbd 6481 e0bd
00000030: 811c f3bb c8b1 c2bd 1aec 453d 6da1 8b3d
00000040: a4a0 d0bd ea86 6f3d c8df 823d 1623 d73c
00000050: b228 29bd 1cfa 163e ca93 8abd 038a 48bc
00000060: 8d89 8e3b 2d86 ab3d a444 d2bd 9651 8b3c
00000070: 4496 9fbc 0424 973d bbd1 16be f57b 1abd
00000080: 668d 45bd 23e1 59bd b6a8 8abd c2bd b33c
00000090: b2af 28bd e509 37bd 3822 17bd 83de ddbc
000000a0: 6ac7 ddbc cfdb 98bb 1601 bc3d 31ea c9bd
000000b0: bf7a 82bc e349 273e 0072 3ebe d202 b93d
000000c0: 3ed8 7a3c 2e50 ea3d f9fe 87bd 8d03 f6bc
000000d0: 58d9 e43d b872 c6bc 6487 34be 1e68 75be
000000e0: dabf 5f3d ef7b 85bb 5232 603e ef1d 2e3e
000000f0: ceb4 953d 7db2 bdbc 1f84 6b3a c877 423e
00000100: fff3 1abe 9c15 bb3d 231e 25be 90ff 0cbe
00000110: 30e5 3dbc b472 a53d c849 663d d0da 6ebb
00000120: 5095 ab3c 57fd 723d e917 00bc 93a1 3d3d
00000130: 3fac 93bc 52f2 b03d f78a c43d 2151 e1bd
00000140: b2f5 8fbd f5c9 c6bd 40f3 d7bc fb99 08bd
00000150: cfb0 df3d 9db8 83bd 1075 2abd 625a 4f3d
00000160: 604b c0bd f8e6 053d d2aa 02be c552 e1ba
00000170: 6ea3 c0bd a129 1e3c 9d83 be3c 001e 993c
00000180: a806 6bbd 4b21 9f3d e43e 2e3d 5e96 a5bc
00000190: d6a6 90bc 8569 bebd a638 f03d fbe8 953d
000001a0: 7dd5 41bd 8cc4 c93d a6da b6bd cde8 a1bd
000001b0: c49e 33bd e8d6 183d 1651 693e a0a5 843c
000001c0: 5dec 41be 756c 673c 9228 61bd cd35 b0bd
000001d0: a002 c5bc 6d18 9cbd 69b0 c3bd fbb0 c43c
000001e0: 5542 5c3d 770a 8e3c a89c 37bb 90c2 c6ba
000001f0: 246d 083e 70f7 0ebe a31e 22ba 9bed 393d
00000200: deed 93bd a1d1 88bc 85e8 9a3c 128d bebd
00000210: a539 fe3d 96b8 423d 1f4e f13c abeb f03d
00000220: b26f cf3d 8623 19bc cddb 74bd 6ab6 a4bc
00000230: 80c6 19bd ba21 e2bd 4e04 1f3e b8c3 253e
00000240: 915b 35be 86c9 7f3d db24 513e bdef a3bd
00000250: 9f93 083e fae1 a0bd e404 0a3e f199 0bbe
00000260: 8b98 22bd 8f39 84bd 3c95 ca3b 7790 d4bd
00000270: 9fd5 0f3d 32e9 e13d b6d5 80bc d7ad 873d
00000280: 5d60 473c c3af c5bc 992d be3d faf8 4b3c
00000290: c162 a1bd 06ff a13d c33e 36bd 8ee5 febc
000002a0: 8449 aa3d d28f cf3b f7ba c03c 0fc7 6cbd
000002b0: ee17 d73c cd10 aa3d cc67 07be 778a debc
000002c0: df52 813d ef3b 86ba daf6 843d dc4f 6bbc
000002d0: d904 0c3e 3c8b 9a3d 0268 453d bfde 303c
000002e0: c0e4 88bd b48b a1bd e44f b13d 1159 dd3d
000002f0: 9838 eab8 e04a 93bc 033e 0abe e731 d83d
00000300: 7559 333d 35d4 383e 5f5d d33c 2ef7 d9bd
00000310: 9aa3 d0bd 4e0b 09bd e8a0 d43d 9800 03bd
00000320: 5275 ccbd 9668 98bd 9751 95bd df8d 03bd
00000330: 4b70 64bd 41ef 423d 73cf 8f3d fce3 b4bd
00000340: eb03 d63d f391 4fbd 13b7 ac3c 94ae c1bc
00000350: 869e f6bc d6c2 0abd 6111 f2ba f3f7 8bbd
00000360: a189 3fbd c178 24be 425e 203e cfca cfbd
00000370: 0012 e1bb 797b 8b3d 8173 363d 37e2 f9bd
00000380: e3ef a6bd 8af1 17be 48b6 93bd 48d3 7b3d
00000390: 46b7 843d 2c93 5c3e b0b8 03bd 290e 07bd
000003a0: 5c3d aebd 57cf ce3c 4108 553e ebfb 25bd
000003b0: 00ea 0c3e b456 343e 0995 74bc 199e cb3d
000003c0: 3940 7ebd 1f94 f53d 60d8 05be 400d d13c
000003d0: f5e4 d6bd 834f 0dbe cfe8 843c a679 603a
000003e0: 5075 873d a938 3bbd ae02 093e c820 9a3d
000003f0: b29c ca3c fd64 923d 87ad 8b3e e5a4 6bbe
-0.039268415 0.05111881 -0.038157668 0.24162565 -0.009385779 0.021007242 -0.003722062 0.25292143
-0.012858233 0.027944222 -0.122723706 -0.10962179 -0.0074191694 -0.09506565 0.048320867 0.06817899
-0.1018689 0.058478273 0.06390339 0.026261847 -0.041298576 0.14743847 -0.0676647 -0.012239936
0.0043498934 0.083752014 -0.102669984 0.017006677 -0.019480832 0.07379916 -0.14728443 -0.03771587
-0.04823055 -0.053193223 -0.0677046 0.02194107 -0.04118318 -0.04468717 -0.036897868 -0.02708364
-0.027072627 -0.004664875 0.091798946 -0.098591216 -0.01592767 0.1633678 -0.18598175 0.09033741
0.015310345 0.11441074 -0.06640429 -0.03003099 0.111742675 -0.024224624 -0.17629772 -0.23965499
0.054626323 -0.004073612 0.21894196 0.17003606 0.073098764 -0.023156399 0.0008984226 0.18991005
-0.1513214 0.09134981 -0.16124777 -0.13769364 -0.011590287 0.080785185 0.056222707 -0.003644634
0.020945221 0.059323635 -0.007818201 0.046296667 -0.01802647 0.08639969 0.09596818 -0.11001802
-0.070292845 -0.09706489 -0.026361108 -0.033349972 0.109223954 -0.064316966 -0.041615546 0.050623305
-0.09389377 0.032690972 -0.12760475 -0.0017190805 -0.09406172 0.00965348 0.023256117 0.018691063
-0.057379395 0.07770022 0.042540446 -0.020213302 -0.017657679 -0.0929747 0.11729555 0.07319828
-0.04732274 0.098519415 -0.08928423 -0.07905731 -0.043852583 0.037314326 0.22784838 0.016192257
-0.18937822 0.014124979 -0.05497033 -0.08604012 -0.024049103 -0.07621846 -0.09555132 0.024010172
0.053774197 0.017338974 -0.0028016958 -0.0015164185 0.13322884 -0.13961577 -0.0006184375 0.045392614
-0.07223104 -0.016701521 0.018909702 -0.09304251 0.124133386 0.047539316 0.029456196 0.117637
0.10128726 -0.009346848 -0.05977993 -0.020106513 -0.03754282 -0.11041589 0.15528986 0.16187942
-0.17710711 0.062448047 0.20424215 -0.08004711 0.13337563 -0.078556016 0.13478428 -0.13632943
-0.039696258 -0.06456291 0.006182341 -0.10379117 0.035115834 0.110308066 -0.015726905 0.06624954
0.012168971 -0.024131661 0.09286041 0.012449497 -0.07880164 0.0790997 -0.044493448 -0.03111532
0.08314803 0.0063342834 0.023526652 -0.057807025 0.026256528 0.08303986 -0.13223189 -0.027165635
0.063146345 -0.001024125 0.06492396 -0.014362302 0.13673724 0.07546088 0.048194893 0.010795294
-0.066842556 -0.078879744 0.08657816 0.10808004 -0.00011168531 -0.01798004 -0.13500218 0.10556393
0.043786485 0.180497 0.025801359 -0.10642849 -0.101874545 -0.033458047 0.10382253 -0.031982988
-0.099833146 -0.07441823 -0.07290953 -0.03211772 -0.055771153 0.04759145 0.0702199 -0.08832547
0.10449966 -0.050676297 0.02108339 -0.023642816 -0.030104887 -0.033877216 -0.0018468314 -0.06834402
-0.046762113 -0.16061689 0.15660957 -0.101461045 -0.006868601 0.0681066 0.044543747 -0.1220135
-0.081512235 -0.14838234 -0.07212502 0.06148079 0.06480269 0.21540517 -0.032158554 -0.03297249
-0.08507797 0.025245352 0.2080393 -0.04052345 0.13761139 0.176112 -0.014928111 0.09942264
-0.062072966 0.119911425 -0.13070822 0.025519013 -0.10492889 -0.13799863 0.016224293 0.0008563049
0.066141725 -0.045708332 0.13379928 0.07525784 0.024732921 0.07148168 0.27280828 -0.23012121
