model_round_5.pth (torch, 126796 bytes, 9 tensors)

conv1.weight f4 [16, 1, 16, 3]
00000000: d39a 6bbf a2ee 133e 1004 503f f2f9 50bf
00000010: f708 3b3e 833d 323e e2cc 0bbf 8a71 2dbe
00000020: 0d44 4bbe 9290 a9be 200f 5abe e293 003f
00000030: e1e3 a2be f8a5 85bd a68a 573e 1ef2 ef3d
00000040: 5d02 92be 983f 23bd b470 bd3e 5c6d 53be
00000050: f434 bf3e 8bff b6bd 4bf7 a1bf df39 363e
00000060: a331 9d3e 1c2c a0bf 2b48 1cbd d581 d1bd
00000070: 7690 7abf d3c9 30bf db45 0b3f 7b79 1bbe
00000080: ba9a 153e 5526 8f3e ed2a ecbe f62a ab3e
00000090: e295 343f fc5c 293f ff92 2c3e f929 ccbe
000000a0: 3197 b4bd 9377 40bf 067b ae3e f916 753b
000000b0: 0b4f c33e 96a8 1bbf 14c4 94be 9731 1ebf
000000c0: f5df 1e3e 8a2b 8cbe 530e 923d 8e86 a73e
000000d0: 4974 01bf e3a0 efbe 545a 513f 4129 86be
000000e0: 3c50 89be caea 10bf a2fa 633b 6677 863e
000000f0: 4acf 9ebd 3c05 d1bd 5a5e 9cbb e69b 943e
00000100: df2c b8bd 2c6b 8abe 0a0a 3f3f 5cbd 69be
00000110: 3474 24bf d13b c9bf a91d 08bf 280f 94be
00000120: fdc6 8dbe c05d f0be 1ccb f7be b9bf 9c3e
00000130: efe1 5bbe 9eee 25be 7f97 d23e 8b19 82be
00000140: a111 53be a586 7cbf b1fd bf3e 58dc bcbe
00000150: 4e7d f03e e67a 0a3e b12f 11bf 4b2a de3e
00000160: 73d6 8cbe bfda 76bf c953 653c 99ee a2be
00000170: 9b11 33bf 3b02 6fbf 5cad 933f 3f22 51bd
00000180: 3551 87be 775f 03bf 290f 19be d644 8dbe
00000190: c720 ad3e c7e8 853e 4854 c2bc 5a2b 813e
000001a0: 433e d83d a765 a6be c9ae 9d3d 104e 24bd
000001b0: 0303 76be 62d0 b43e 03e2 fabd fa44 e2be
000001c0: e708 4c3e 3e29 acbe d3d2 35bf c1f5 b4be
000001d0: 5d66 b5be 277a c13c 5c8d 333e 0ee0 fabe
000001e0: 189d 10bc 4a6b 313d 7be8 e0be 0f68 873d
000001f0: 07f7 7d3e c283 59be 459f 863e 9f79 213f
00000200: 0f1e 67be b6a1 f1bd f670 973e 5a39 1ebe
00000210: 495b ccbc 8bb9 85bd acea 563c 63f2 dd3d
00000220: a431 c83d 3ff7 43bc 53bc f7bc 1c99 123f
00000230: e316 8a3e 5136 263f 67d9 98bd 9de5 87be
00000240: a9cf b1be e29b 7cbe 4909 32bd 3835 633e
00000250: 14e8 47bf 8394 b4be 3f30 113c 14a6 99be
00000260: 0286 dd3c dd03 60bd 3e32 49be e8c4 34be
00000270: 0b42 93be 9d9c 893e 66a5 133e 6e67 17bf
00000280: 4f2b 22bf 6124 19be eb25 58be 9720 2dbf
00000290: 5b59 fcbe fcb8 ef3d 4221 6cbf 061d c53d
000002a0: b3d3 9d3e bed8 35bf 0815 85bd e653 48bf
000002b0: ba67 57bb 95d5 e73d 2b05 e13b 9822 92bd
000002c0: b307 a5be 357c d83c 879c 28bf 4692 e2be
000002d0: 590c 093f 4d3c 3ebe 98f2 2f3d 6b22 94bf
000002e0: 7ec5 363f 9bd5 523e 15b9 e03e 2bec 9b3f
000002f0: 0b60 a1bd 81d5 13bd 9418 983f 1113 a03d
00000300: b493 47bd 9eb0 193e f297 29be 3c1d 8abe
00000310: f30b ffbd c56d f6bd 5a87 07bf 0774 bebd
00000320: 81ff d3bd 7001 ae3d 301a 5f3e cd8b b8be
00000330: 94cf 83be 7b68 14be 5d5e a3bd 00a6 24bc
00000340: 8c57 653e 761d b7bd 1693 4f3e 3af8 0dbe
00000350: 8052 acb9 1134 f7bd 1c01 e8bd 8e33 753e
00000360: a514 993d 031b 453e a082 17bf aff8 d8bc
00000370: ae8f 933e d8e8 973c ad49 d8be 1aac 11be
00000380: 958f 683d a33f ec3c fd04 6d3e f46c b93e
00000390: 41cb adbe 9c81 e13e b765 79be 5b7f 723f
000003a0: 0ef9 aa3f c459 3f3e 1782 88bf 5914 7abe
000003b0: e406 a03d f1ca 8cbf 567e f9bd e6a4 1d3f
000003c0: be50 8dbf 0520 2dbe 390d 36be 65bd ff3d
000003d0: ed4c d13e 35d2 cd3d 0228 9e3e dd45 ca3e
000003e0: 4003 c93e a14f 753e 3fe6 6d3e 51fd 7f3d
000003f0: 746e 83bc d42b 3b3c c7c9 08bf 5dc5 58be
-0.9203312 0.144465 0.812562 -0.81631386 0.18265139 0.17406277 -0.546095 -0.16937843
-0.19850178 -0.3311811 -0.21294832 0.5022565 -0.31814483 -0.06525797 0.21048984 0.11716102
-0.28517428 -0.03985557 0.37000048 -0.20647186 0.37345088 -0.0893546 -1.2653593 0.17795514
0.30701932 -1.2513461 -0.038154762 -0.102298416 -0.9787668 -0.6905796 0.54403466 -0.1518306
0.14609805 0.27958933 -0.461265 0.33431214 0.70541203 0.6615751 0.1685295 -0.39875773
-0.088179 -0.75182456 0.34078234 0.0037397726 0.38146242 -0.60804117 -0.29055846 -0.6179442
0.1551512 -0.27376968 0.071316384 0.32719845 -0.5056806 -0.46802434 0.81778455 -0.2620335
-0.26819026 -0.5660826 0.003478684 0.2626297 -0.07754381 -0.102060765 -0.00477199 0.2902519
-0.089929335 -0.2703489 0.74624693 -0.22826141 -0.6423981 -1.572138 -0.5317026 -0.28917813
-0.2769088 -0.46946526 -0.48397148 0.30615023 -0.21472906 -0.16204306 0.41131207 -0.25410113
-0.20612194 -0.9864295 0.3749824 -0.3688686 0.469706 0.13523445 -0.56713396 0.43391642
-0.27507362 -0.9642753 0.013997027 -0.3182266 -0.6994874 -0.9336278 1.153728 -0.05105805
-0.26429144 -0.5131754 -0.1494719 -0.2759158 0.3381407 0.26154158 -0.023721829 0.25228387
0.105587505 -0.3249943 0.07699353 -0.04011351 -0.24024586 0.35315233 -0.122501396 -0.4419325
0.19925271 -0.33625215 -0.7102482 -0.35343745 -0.3542966 0.023617817 0.17534393 -0.48999065
-0.008826517 0.04331521 -0.4392737 0.066116445 0.24801265 -0.21241668 0.26293388 0.63076204
-0.2257006 -0.11798422 0.2957837 -0.15451565 -0.024945872 -0.0652953 0.013117474 0.10837247
0.09775093 -0.0119608035 -0.030241167 0.57264876 0.26970586 0.6492663 -0.07463341 -0.2654237
-0.34728745 -0.2466884 -0.043465886 0.2218827 -0.780885 -0.35269555 0.0088616 -0.3000952
0.027041439 -0.054691184 -0.19648072 -0.17653239 -0.28761324 0.268773 0.14418563 -0.59142196
-0.63347334 -0.14955284 -0.21108215 -0.67627853 -0.49286923 0.11705205 -0.9223825 0.096246764
0.30825576 -0.7103385 -0.06498152 -0.7825302 -0.0032868222 0.113200344 0.006867071 -0.071355045
-0.32232437 0.026426414 -0.6586384 -0.44252223 0.53534466 -0.1857769 0.042955965 -1.1573004
0.713951 0.20589297 0.43891206 1.2181448 -0.07879647 -0.036092285 1.1882501 0.07816137
-0.048724845 0.1500878 -0.16561869 -0.2697543 -0.12453451 -0.120326556 -0.52940905 -0.09299474
-0.10351468 0.08496368 0.21787333 -0.3604416 -0.25744307 -0.14492981 -0.07976983 -0.010049343
0.22396678 -0.08941166 0.20270953 -0.13864222 -0.00032867864 -0.12070478 -0.113283366 0.23945448
0.07474641 0.19248585 -0.5918369 -0.02648577 0.28820556 0.018543646 -0.4224371 -0.14225808
0.056777555 0.028838938 0.23146434 0.36215937 -0.33944133 0.44044197 -0.24355207 0.9472558
1.3357255 0.18686587 -1.06647 -0.24421825 0.07813814 -1.0999433 -0.121823 0.6157974
-1.1040266 -0.16906746 -0.17778482 0.12487296 0.40879002 0.100498594 0.308899 0.39506426
0.39260292 0.23956157 0.23232363 0.06249744 -0.01604388 0.011424024 -0.5343289 -0.21169038

conv1.bias f4 [16]
00000000: d863 0a3d a5c0 e13e 2421 9abe c3a2 233f
00000010: 56c9 1abf 68f4 11be 959d 16be ef32 e9bd
00000020: 2db3 07bf 59f9 373e a08a bcbc 46c4 16bd
00000030: 156b d4bd 44b9 113d 323c 583e a147 c9be
0.033786625 0.4409229 -0.3010341 0.6392023 -0.60463464 -0.1425339 -0.1470855 -0.11386668
-0.53007776 0.17966212 -0.02301532 -0.036808275 -0.10371987 0.035577074 0.21116713 -0.3931246

conv2.weight f4 [16, 16, 3, 5]
00000000: 57dc 56be d850 83be 62f3 f0bd ca9b b0be
00000010: 6478 f8be 35ce a6be 61a0 e0be ec74 4abe
00000020: ba88 bebe 2232 09be e20f 2dbf 0d67 a7bc
00000030: c000 2cbe dfb3 9fbe 76c3 0fbf d2f6 eabd
00000040: a331 15be 99c3 a3bf 9dd9 71be 7dd2 8dbe
00000050: 5669 10be e02c 103b 6e28 aebe da80 a1be
00000060: cd82 aabe 0c62 c13e b25a 42bd 4f09 93be
00000070: 34c9 60be c27b 85be f1a5 c9be 853c eebc
00000080: 3105 a3be 8fa2 7cbe 59f8 23bf 4a73 37bd
00000090: 90eb de3e 9ee5 d8bd 42c3 94be 0068 23be
000000a0: 7f36 87bd 276f 1dbe e5ba 33be 5002 f93d
000000b0: 97f8 4c3e a061 b13e d07a 90be 8fb3 1fbf
000000c0: c460 0dbf 4c9b 26be 1a00 bdbe 48c0 793e
000000d0: 6a3f 21bf 7921 223e 3b6d c43e e1b9 3c3f
000000e0: c113 0bbf 266e 8dbe 98a8 373d f387 cfbb
000000f0: 77a0 1dbf 9303 b7be 2b1b 83be f292 d0be
00000100: ed04 92be 72c9 6dbd da03 28bd 0279 5e3e
00000110: bcf4 e33e ef98 8ebd 7f62 f9be ebb4 78bd
00000120: b216 9e3d e2ee 8dbd 9c53 92be 74a3 19bf
00000130: 18bd eb3c 4e19 0dbe 9d78 11bf 711e 253d
00000140: afbf 57bf 3541 91bc 4e9b 393f 6f58 ecbe
00000150: 5aa0 d5be 5df9 b8be 5e39 99be 32b8 e73d
00000160: 817e c63d 9326 573e 1157 8c3d d2a4 10be
00000170: 7516 aebd da9c 88bf 2dd9 3fbe 4610 8fbf
00000180: ffdc fa3e aff1 0c3f 7b6e 21bf ab61 a4be
00000190: dca6 c7be e49a 56bf 3abb e0be 90d4 f3bc
000001a0: 7349 20bf e25f 693d 362e 1abe 8c0e 7ebf
000001b0: 099d d83e d936 41bf 9865 493e 13c5 a7bd
000001c0: 7c1e 9b3e 3b18 40be f17b e6be dc0e 00bf
000001d0: 20db 0bbf 8b52 3e3e db6a bbbe 5df1 a43c
000001e0: c78a ca3e 98d6 3c3e cfda e1bd 16a7 f83c
000001f0: 8475 9bbe 9127 143d 7e6c 47bf b127 263e
00000200: 8c8c 893d 793d 62bf df21 adbe 7e07 63bf
00000210: f77b e3bd cfc4 e9bd 11cb 5ebf 950c 8fbe
00000220: 63f7 f2be ef95 41bf e332 a5be f393 f43d
00000230: b584 25be 3001 0bbf 730d fa3d 119d 9cbc
00000240: e51a 9dbd bce0 e7be df7b f13d 5858 aa3e
00000250: 8d1e 2b3d ab2b 09bf ad14 3fbf cde1 88be
00000260: 1e54 07be 338a 8cbe 881f 6abd 2418 b33e
00000270: 9a95 653e fc80 03bf c1d1 60bd ee99 f5be
00000280: 4566 9bbe bf0b 13bf 9846 5d3d 55f5 db3c
00000290: caa2 0d3f 732f ebbc d1e1 dbbd c4e4 40be
000002a0: b4c8 0d3e 94fa ed3d 3846 35bf 7ccf 063d
000002b0: 653e e13e 5226 99be 0295 21be b48f c0be
000002c0: 1cc9 1cbe 81ad 083d bd19 03bf 28ae e7bd
000002d0: a330 10bf 2710 a93d ca58 e83e 3bc4 10bf
000002e0: 81e6 96bd e7cd 8dbf ef18 31be 1cd1 db3e
000002f0: b491 1abd 2c64 6b3d f0a1 83bf 4daa b1be
00000300: 36dd b8be 96f3 86be b9ac 843d fac4 2c3e
00000310: 5c06 a3be 2f2d 62be 2cf1 f5be 1eeb d1bc
00000320: 821f 49be 8e6f dc3e ca20 d5be 56e1 eebe
00000330: a176 0d3e 67d2 c53d 23d5 443d 2c15 80be
00000340: 130c caba 5f71 f53c ab75 43bf b789 bfbd
00000350: 99a7 50bc 1098 24bf ed84 19be d8db b4bd
00000360: 1503 febe 7281 ea3c 7f7e 72be 9412 babe
00000370: 14e1 c13d b594 37be 9ab7 eebe 8241 60be
00000380: 0040 b4bd 31c0 4ebe baea 99be 919f 93bd
00000390: ee4a 273e 5984 b3be 3299 e6be 3555 a8be
000003a0: b017 9e3e f278 4fbe c212 06bf 2e73 67be
000003b0: 460f e53d 25d4 083e f556 2cbe 6da7 edbe
000003c0: 06ce 85bf 6e75 88be 1d59 15bf dd01 55be
000003d0: c1e1 51be 5c09 42bf 4d58 f2be 31a7 45bf
000003e0: eafd cabe 9af9 aa3d 7cb5 13bf f2da 23bf
000003f0: 81f0 21bf 8e9b 32bf f38f 56be 6221 89be
-0.2098249 -0.25647616 -0.117651716 -0.34493858 -0.4852935 -0.32579198 -0.4387236 -0.19771165
-0.3721369 -0.1339803 -0.6760236 -0.02043488 -0.16797161 -0.31191918 -0.56157625 -0.114728585
-0.14569716 -1.2794067 -0.23618169 -0.27699652 -0.14102682 0.0021999404 -0.3401522 -0.31543618
-0.33302918 0.37770116 -0.047449775 -0.2871804 -0.21951753 -0.26070982 -0.39384416 -0.029081592
-0.31839898 -0.24671386 -0.64050823 -0.044787683 0.43539095 -0.10590671 -0.2905522 -0.15957642
-0.06602191 -0.15374433 -0.17551763 0.12158644 0.20016704 0.34644794 -0.28218699 -0.6238336
-0.5522578 -0.16270179 -0.3691414 0.24389756 -0.6298739 0.15833081 0.38364586 0.7372113
-0.5432702 -0.276231 0.044838518 -0.006333345 -0.61572975 -0.35744914 -0.25606665 -0.4073711
-0.28519383 -0.05805344 -0.041019298 0.21725848 0.44522655 -0.069627635 -0.4870796 -0.06071941
0.077191725 -0.06930329 -0.28579414 -0.60015035 0.02877669 -0.13779184 -0.56824666 0.040312234
-0.8427686 -0.017731288 0.725026 -0.4616122 -0.417239 -0.3612775 -0.2992658 0.11314429
0.096920975 0.21010809 0.06852544 -0.14125374 -0.08500377 -1.0672867 -0.1873519 -1.1176841
0.48996732 0.5505628 -0.63059205 -0.32105765 -0.3899449 -0.83830094 -0.43892843 -0.029764444
-0.62612075 0.056976207 -0.1505669 -0.99240947 0.42307308 -0.75474316 0.19667661 -0.08191886
0.30296695 -0.18759243 -0.45016435 -0.50022674 -0.54631233 0.18586175 -0.36604962 0.020134622
0.39559004 0.18441236 -0.110280626 0.03035311 -0.30363095 0.036170546 -0.7789992 0.16226079
0.0671626 -0.8837505 -0.33814904 -0.8868331 -0.11107629 -0.114144914 -0.87028605 -0.27939287
-0.47454366 -0.75619406 -0.32265386 0.119422816 -0.16163905 -0.54298687 0.122095965 -0.019117864
-0.07671145 -0.45288646 0.11791205 0.33270526 0.041777182 -0.5358226 -0.74640924 -0.26734772
-0.13215682 -0.27449188 -0.057158977 0.34979355 0.2242035 -0.5136869 -0.054887537 -0.47969002
-0.30351463 -0.574398 0.0540224 0.026850382 0.5532652 -0.028709149 -0.107364304 -0.18837267
0.13846093 0.116200596 -0.7081027 0.032912716 0.43992916 -0.2991205 -0.15779498 -0.37609637
-0.15311092 0.03336859 -0.5121115 -0.113125145 -0.56324214 0.08255034 0.4538024 -0.56549424
-0.07368184 -1.1078461 -0.17294668 0.42932975 -0.03773661 0.05746858 -1.0283794 -0.34700242
-0.3610627 -0.26357716 0.06478257 0.16872016 -0.3184079 -0.22087549 -0.48035562 -0.025624808
-0.19640926 0.4305386 -0.4162658 -0.46656293 0.13814785 0.09659272 0.048054826 -0.25016153
-0.0015414975 0.029961286 -0.7635142 -0.09352439 -0.012735271 -0.6429453 -0.14992113 -0.08830994
-0.49611726 0.028626177 -0.23681067 -0.363423 0.09466758 -0.17927821 -0.46624452 -0.21899989
-0.088012695 -0.20190503 -0.30061895 -0.07208169 0.16337177 -0.3506191 -0.45038754 -0.32877508
0.30877447 -0.2026098 -0.5237237 -0.22602531 0.11184554 0.13362177 -0.16830046 -0.46416798
-1.0453498 -0.26652092 -0.583391 -0.20801492 -0.20496275 -0.7579553 -0.47332993 -0.7720824
-0.39646846 0.08348389 -0.576988 -0.6400596 -0.63257605 -0.6976861 -0.2095335 -0.26783282

conv2.bias f4 [16]
00000000: 2edc 773e 7601 a4be 2c85 87bd a96e 53bf
00000010: 5364 acbd cc33 1b3e eee9 3bbe 42a0 d1be
00000020: bfdc 1abe 31e1 3a3d 40bc 27bf 409d 04bf
00000030: 17e6 39bf 591d 0cbf 8a46 183d 6317 95be
0.24205086 -0.32032365 -0.066171974 -0.8259073 -0.08417573 0.15156478 -0.18350956 -0.4094258
-0.1512327 0.045624916 -0.6552162 -0.51802444 -0.72616714 -0.5473228 0.037176646 -0.29119405

conv3.weight f4 [32, 16, 8, 3]
00000000: c581 ffbe 46d6 253c 65b0 c3bd c01d 6abe
00000010: adbc f5be 831d 79be ed99 5dbe 881f 9e3d
00000020: ad20 24bd 9f7a bfbd 5507 b5be be38 81be
00000030: 2cd3 9bbe 6092 adbe a156 cf3d 7ce4 593d
00000040: 30ca 473e bbc5 023c df13 a73c 8b2a 4ebd
00000050: 7f92 2dbe 87e4 883b 5503 21bd 1773 babd
00000060: 3ad3 2b3f 0735 adbe 032b 09be 1c24 1cbc
00000070: 0875 e73d 07aa ffbd 023f 9cbe cbe0 5a3c
00000080: f509 403e 051f 93be 2e13 1cbe ea28 80be
00000090: accd 11be 9446 d7bd 8d0d 82be 2f96 5bbd
000000a0: e153 413e 5902 c0be ce3d d1bd cb33 b6bc
000000b0: 535c 483e ff75 8ebd b0f2 babd e345 3a3e
000000c0: 0277 1a3e 1bf8 7abe d147 4abc 90f3 16be
000000d0: 0d68 943e 95df 98ba b29e 483d ef87 9bbe
000000e0: 0d68 a5bb 896b cabc fca1 c6be 6877 96be
000000f0: 30da cfbd 025f 773d 79bc e6bd c778 09bf
00000100: 143e 813c 7cc7 41be bb4a e7be d0bc 7fbc
00000110: 85ef 42bd 0bff 83be 3093 be3d b49b dcbe
00000120: 5394 69be 162e f0be 9bc8 12bf 7905 adbe
00000130: f684 92be 8238 b4be ca76 61be 20e0 ebbe
00000140: 13ab ce3e 987f d1be 2321 0bbf 71df 24bf
00000150: 6b95 0bbf e52d 0dbf 16ac 90be eec0 9ebe
00000160: 8eee 833d 004a ddbe 4074 c1be 8174 97bd
00000170: c453 abbe 7b03 acbe f040 16bf 5ab6 f6bd
00000180: 489c 01bf c5e0 afbe cfda ddbd ddbd e7bd
00000190: 4838 09be 94fc 4f3e 88ee 2cbc 6746 d83c
000001a0: 5edd 073d 26c5 14be 6e11 0fbd db63 5ebe
000001b0: 5dd4 c8bd 4b25 dcbd 1e79 22be 60bb b93d
000001c0: 7dbc 83be 14a3 10be ad7c 7b3c 1cb9 8dbd
000001d0: 9f2d 30be 4930 14be 40d3 07bd 481c c43d
000001e0: 05e8 1ebf 04f6 7bbe c6be 18bf d027 a6be
000001f0: 5b3c 1d3f 5ed1 a53d a5f0 0dbd 231b c2be
00000200: 669a a3be c101 4abf 1a5b d9bd 817f c23b
00000210: 8a65 f6be 2026 9c3c 7202 b73d 0030 fd3c
00000220: 896c 033b 87d5 863d f1d4 8abf bb42 bd3d
00000230: 3ee2 97be 6160 99be 167c a7bd 9945 b0be
00000240: 119d 67be 99c3 04be e1e3 44be bf60 e13e
00000250: 68e1 a9be dabb 06be 778b 2ebe 6932 fcbe
00000260: 24cb 62be f26f 8ebe 825a e6bd cb5e 40be
00000270: c8c1 21be 8723 fabd ce79 95be 6354 313d
00000280: 6c9b 26be 1d37 85be 53de b83e 53f3 74bd
00000290: 8b5b 63be 1106 eebe d16f 6dbe c8ab 96be
000002a0: ab47 603e 428d 2c3e 77f3 70be bfab c2bd
000002b0: f625 f1be 2501 afbe e018 afbe b2d5 03bc
000002c0: da58 89be b1de 1cbe 1480 4f3d 3c64 803d
000002d0: 35f3 e3be 3116 febe 6a10 7ebe 731e 503e
000002e0: 3cf5 bf3d d7d6 1fbe 8ee6 233d 3b67 463e
000002f0: 336d e2bd 0657 e0be 753c 393d 25fc afbe
00000300: 7f98 513d 8bd1 33be bb39 3abd 9225 7e3e
00000310: 4848 1dbe dcea a3bd ef01 8dbe 38b7 fb3d
00000320: baae fbbb 11d6 2e3e 9d4d 4dbe 3471 7abe
00000330: bd22 9a3c 626a 30be 2c2d 17bf 6979 4d3c
00000340: 96c4 b43c 0614 8cbe cc10 acbd 8999 94be
00000350: 593c d9be 3db6 18be b073 54be c529 4dbe
00000360: 679b 323e fa26 22be e666 c4be 6378 d9be
00000370: 83bd e1be 4fd3 0abe 8f94 df3d e3a9 d8be
00000380: 22f2 b63d d6fd 3a3d de70 403e 4a8f fabc
00000390: 9306 dc3d 98cf 07bd 9166 ed3e 0285 3bbd
000003a0: 2173 0dbf 21b5 fc3d 6534 50bd 14bd 123d
000003b0: 1534 f3bd cc92 2dbe 38c9 dcbe 9817 b53d
000003c0: 20ea 08bf 9385 43bf b504 36bf 9fd0 9ebe
000003d0: 552b fabd 2a64 6d3e 30ca d1bd 10f4 8abe
000003e0: 4408 92be 5b93 673e 13d0 073e f871 7dbe
000003f0: 5a40 043d 9e3d ffbd d587 8abe c91a e2be
-0.49903694 0.010121888 -0.09555129 -0.22862911 -0.4799551 -0.24327664 -0.2164075 0.07720858
-0.040070225 -0.0934956 -0.35357156 -0.25238603 -0.3043455 -0.33900738 0.10123945 0.053196415
0.19510722 0.007981713 0.020395217 -0.05033354 -0.16950415 0.004177633 -0.03930982 -0.09103983
0.6711918 -0.3382952 -0.13395314 -0.0095300935 0.11301619 -0.12483602 -0.3051682 0.013359259
0.18753798 -0.28734604 -0.15241691 -0.25031215 -0.14238614 -0.105115086 -0.25400963 -0.053610023
0.18879654 -0.3750179 -0.102168664 -0.022241494 0.19566469 -0.069561 -0.0912832 0.18190722
0.1508446 -0.24508707 -0.012346224 -0.14741349 0.28985634 -0.0011663312 0.04897947 -0.30377147
-0.005047804 -0.02470948 -0.3879546 -0.29387975 -0.10149038 0.06039334 -0.11266417 -0.53699917
0.015776671 -0.18923753 -0.45174202 -0.015608981 -0.047591705 -0.2578052 0.093054175 -0.43087542
-0.22810487 -0.4691016 -0.5733735 -0.33793238 -0.28617066 -0.35199362 -0.2201797 -0.4606943
0.40364894 -0.4091766 -0.5434744 -0.64403445 -0.5452487 -0.55148154 -0.2825629 -0.3100657
0.06441985 -0.4322052 -0.37784004 -0.07395268 -0.33462346 -0.33596405 -0.58692837 -0.120464996
-0.5062909 -0.34351173 -0.1083275 -0.113155104 -0.13400376 0.20311195 -0.010554917 0.026400758
0.033170097 -0.14528331 -0.03492873 -0.2171778 -0.0980613 -0.107493006 -0.15866515 0.09068942
-0.25729743 -0.1412471 0.015349549 -0.069200724 -0.17204903 -0.14471544 -0.033160448 0.09575707
-0.62072784 -0.24605566 -0.596661 -0.3245225 0.6142022 0.08096574 -0.034653325 -0.3791133
-0.31953734 -0.78908926 -0.10613079 0.00593561 -0.48124343 0.019061148 0.08936013 0.030906677
0.0020053706 0.06583696 -1.0846235 0.092412435 -0.29664797 -0.29956344 -0.081779644 -0.344281
-0.2261851 -0.1296524 -0.19227554 0.44019124 -0.33179784 -0.13157597 -0.17045389 -0.4925721
-0.22147804 -0.27819782 -0.11247732 -0.1878616 -0.15796578 -0.122138076 -0.29194492 0.043293368
-0.16270226 -0.2601861 0.3610712 -0.059802365 -0.2220289 -0.46489003 -0.23187186 -0.29427934
0.21902339 0.1685076 -0.23530374 -0.09505414 -0.47099274 -0.3418056 -0.34198666 -0.008046554
-0.268256 -0.15319325 0.050659254 0.06269118 -0.4452149 -0.49626306 -0.24810949 0.20324115
0.093729466 -0.15609299 0.040014796 0.19375317 -0.11055984 -0.43816394 0.045223672 -0.3437206
0.051170822 -0.17560403 -0.045465212 0.2481902 -0.15359604 -0.0800378 -0.27540538 0.122908056
-0.007680741 0.17073847 -0.20049138 -0.24457246 0.018815393 -0.17228082 -0.590533 0.0125411535
0.022066396 -0.27359027 -0.08401641 -0.29023388 -0.42428854 -0.14913268 -0.20747256 -0.20035465
0.17442094 -0.15835181 -0.38359755 -0.4247466 -0.44089898 -0.1355717 0.10917007 -0.42317113
0.08932902 0.045652233 0.18793055 -0.030585904 0.107434414 -0.03315696 0.46367314 -0.045781143
-0.552538 0.12339235 -0.050831217 0.03582485 -0.11875168 -0.1695053 -0.43122268 0.08842391
-0.53482246 -0.76375693 -0.7110093 -0.3101854 -0.12215296 0.23182741 -0.10243642 -0.2713933
-0.2852193 0.22614805 0.13262968 -0.24750507 0.032287933 -0.124629244 -0.27056757 -0.4416106

conv3.bias f4 [32]
00000000: da98 cabe e055 a5bd 9e0e c9be 5cf7 b7be
00000010: b63b f6be 1295 02bf b6e0 7ebf 5c59 1ebf
00000020: 6b6f 2b3e de38 5ebe 55fa 993e 4a4f 4dbe
00000030: 0aa2 99be f4ae b8be 73d7 2ebf ebab 93bf
00000040: 53d7 e23e 6daf 78bf d6ad 61be a20c debe
00000050: 18b5 203f 50bf b1be 5b23 8dbe 0599 05be
00000060: ad3c d6be b1a0 8cbf a3a3 c4be e164 1cbf
00000070: b7ed b23e 3480 f3be b1c0 02bf 8c92 b33e
-0.3956974 -0.0807302 -0.39268965 -0.35930908 -0.4809243 -0.51008713 -0.9956163 -0.618551
0.16741721 -0.2170138 0.300738 -0.20049778 -0.30006438 -0.3607098 -0.682975 -1.153684
0.44304904 -0.9714268 -0.2203897 -0.43369013 0.6277633 -0.34716272 -0.27566037 -0.13046654
-0.41843167 -1.0986539 -0.38406095 -0.6109143 0.34946987 -0.4755875 -0.51075274 0.35072744

conv4.weight f4 [32, 32, 4, 3]
00000000: 49cd 9ebd 0f67 8bbe bf28 213e 907f 86be
00000010: 3a75 dcbd 0593 7abe ba08 7bbe 29e2 e7bd
00000020: c10f 3ebe 557c 0fbe cc00 b53c 73ba 193d
00000030: 3bf6 adbd f6fa debd 15fb fdbc 446e 1a3c
00000040: ad8e b0bd 9032 c93d 3c9b 39be 91f3 1dbd
00000050: edd9 82be 034e 3ebe 8f6d 16be dded e8be
00000060: a4ec 5ebe 263f dfbc ea09 06bd f53f e7bd
00000070: f5f2 31be 076d 84be 73ff 87bd 1cb6 a3be
00000080: 0411 bfbd d853 6dbd 57ba 51be 56d5 e4bc
00000090: 02bd 72be 42d1 cebd 16c6 a23b 1b83 9a3d
000000a0: 8b1a c0be 8d85 bb3d 70bf c2bc b8e8 793d
000000b0: 5416 81be 796c bf3d ca7b c2be 1ff7 3fbc
000000c0: d451 813e a4da 83be a42a d6bc ebeb 4dbc
000000d0: 10ad 90bd dcc3 cfbd 04c1 31bd 58de a4be
000000e0: 6aac e83b 8ed8 dbbc f4f1 c6be 57c2 b7be
000000f0: a3ee 03be 38fe 253b bf90 563e d624 51bd
00000100: c3a5 a0bc 3b5a a9be ac43 2ebb 9a34 5bbe
00000110: ccee 67bd 522e c7be 5f84 3fbe 5086 913d
00000120: f6e8 94be 7c0a 0ebe dd37 9fbe b4fd 77be
00000130: fea2 51be 91d7 72be 653f 05be e8ba 48be
00000140: 98d0 67be cce0 3dbe 43c9 1d3d b4d3 8eba
00000150: 4eda 11be 0a75 24be fb3d 28be 925c 68be
00000160: 96cd c5be 1e7c 5bbe 1b7b 5dbe 13bd 5c3d
00000170: dd50 29be 72f0 74be fd16 eb3c 0af4 2dbd
00000180: df9c 2f3e e895 c03d e436 7bbe b891 7abd
00000190: 7f69 f3bd 9f5f 71be 3fe8 0cbd b4e9 8fbd
000001a0: fe42 efbd d895 09bf 3eda 1b3d d0c5 4cbe
000001b0: aa30 f6bd add8 b5bd 5a50 44be 2a45 86be
000001c0: c5f0 6abe 315e 4a3d aaae f4bd 75ac 1ebc
000001d0: 91ee 77bd 3a7e 57bd 2001 2ebe 6256 d5bc
000001e0: 35f2 7a3e badc c2bd aef5 8b3c 6ea2 ddbd
000001f0: bd07 9e3d 3972 30be 4dfe 99be 9943 aebd
00000200: 7713 b6be 976b 09be 33ff 82be ef9f 92be
00000210: c052 07be 4cd5 ccbc a55d 723e 220a b4bd
00000220: 4e75 14bd c3f6 3abe 3d7b 89be 4d18 edbd
00000230: 174a c8bd 1efa 1abf fa49 41be 6a5a dd3d
00000240: 1916 a2bd 62db a5be afea 98bc 3bd5 90be
00000250: 2aa2 17be 12d5 8bbc 32ea eebe 738c a6be
00000260: 0009 dbbd 89ca 17bd ebd5 0dbe 7b5d cfbe
00000270: 7d2d 82be 18d6 99bd 4c8b 61be 8c02 11be
00000280: 7d36 e1bd 4e35 4dbe 60d3 f5bd 7d98 9ebe
00000290: 751b dcbd cc70 82bd 09f0 473d 902a 93be
000002a0: 8537 45be fdc3 5bbe 8587 e2bd ffc8 a7bc
000002b0: be28 953d c0cd b83d e2b1 95be 14bf 05be
000002c0: 84e9 1cbe cb80 a8be b381 d9be db4b aebd
000002d0: 992f 1f3e 86a0 70be 0626 73bd edb2 84be
000002e0: 04ec ccbe f0a7 85be 35d3 b33d 9b23 93bd
000002f0: 6340 c6be f970 97be eb96 7ebe 3ecf 93be
00000300: 2470 f03b f536 f43d c609 3e3d 6407 9dbc
00000310: 51b7 a5bd f0ee 493e 68dd 313c 716b 07be
00000320: 800f 1dbd fda4 3abc c1f3 813d afb8 2fbe
00000330: 53f6 19be 3792 0ebe 2710 11bd bc8c a4bd
00000340: e7be 78be b5d5 d7be c768 6cbe 08e3 edbd
00000350: 0eab 81bd b986 5ebd e44c a4bc a7d6 f6be
00000360: c219 93be 03e3 d4bd 1835 cc3d 461d aebd
00000370: bccb 98be 26bd d23d 2b8c 84be fe97 17be
00000380: 9af1 03be 0885 abbb e075 7cbe f635 e1bd
00000390: 6ae7 d4bd 7d44 a63c aa8e 09be 9514 8cbe
000003a0: bd4e 5bbe 0379 21be 60c0 11be e42c aabe
000003b0: 2cc8 33be 337d bdbe 251f 30be 9ab1 f63c
000003c0: 041f c1be 2c10 32be 65ec 393c c4d6 a4be
000003d0: cf41 c0be 90ed 9bbe 24e8 87be 84ad bb3d
000003e0: c7c8 f0bd 2986 d93d a491 a4be 6f10 78be
000003f0: dff1 04be 22d0 92bd 7fc8 ce3d 63ae d2be
-0.07753999 -0.27227065 0.157382 -0.26269197 -0.10764547 -0.24470146 -0.24515048 -0.113224335
-0.18560697 -0.14012273 0.022095107 0.037531327 -0.0849423 -0.10887711 -0.031003514 0.009425703
-0.08620963 0.09824097 -0.18125623 -0.03856236 -0.2555689 -0.18584447 -0.14690231 -0.45493975
-0.21769959 -0.027251791 -0.0327243 -0.11291496 -0.17377837 -0.2586443 -0.0664052 -0.31974876
-0.09329417 -0.057941288 -0.2048124 -0.027933758 -0.23704913 -0.100985065 0.0049674613 0.07544538
-0.3752025 0.09156332 -0.023772925 0.061012954 -0.25212348 0.093468614 -0.3798507 -0.011716633
0.25257742 -0.25752747 -0.02614338 -0.012568454 -0.07064259 -0.10144779 -0.043396965 -0.32200885
0.0071006315 -0.02683666 -0.3885647 -0.35890457 -0.12884001 0.0025328528 0.20953654 -0.05106052
-0.019610291 -0.33076653 -0.0026590629 -0.21406785 -0.05662422 -0.38902527 -0.1870284 0.07105696
-0.29083985 -0.13871187 -0.31097308 -0.24217874 -0.20472333 -0.23715045 -0.13012464 -0.19602549
-0.22638166 -0.18542784 0.038522016 -0.0010896833 -0.14243433 -0.16060272 -0.16429894 -0.22691563
-0.38633412 -0.21434066 -0.21628992 0.053891253 -0.16534753 -0.23919848 0.028697485 -0.042469062
0.17149685 0.09403592 -0.24532658 -0.061174124 -0.11885356 -0.23571633 -0.034401175 -0.07026997
-0.116826996 -0.5374427 0.03804993 -0.19997334 -0.12021001 -0.08879218 -0.19171277 -0.26224643
-0.22943409 0.049406234 -0.11947377 -0.009684672 -0.06053025 -0.052610613 -0.16992617 -0.026042167
0.24506457 -0.095147565 0.017084923 -0.10821997 0.0771632 -0.17231072 -0.3007683 -0.08508987
-0.35561725 -0.13419949 -0.25585327 -0.28637645 -0.1321516 -0.025004052 0.23668535 -0.08790995
-0.036244683 -0.18258195 -0.26851836 -0.11576901 -0.097797565 -0.605379 -0.18875876 0.10808261
-0.07914371 -0.32393938 -0.018666593 -0.28287682 -0.14807954 -0.017069373 -0.46663052 -0.3252903
-0.10695076 -0.037058387 -0.13851134 -0.40501007 -0.2542533 -0.07511538 -0.22025794 -0.14161128
-0.10996721 -0.20039865 -0.12003207 -0.30975714 -0.107474245 -0.063691705 0.0488129 -0.2874341
-0.1925946 -0.21461482 -0.110610045 -0.020481585 0.072831616 0.09023619 -0.29237276 -0.13061172
-0.15323454 -0.3291076 -0.42481765 -0.08510562 0.15545501 -0.23498735 -0.059362434 -0.2591776
-0.40023816 -0.2610469 0.08780519 -0.071845256 -0.38720998 -0.2957838 -0.24862258 -0.2886905
0.007337587 0.11924545 0.04639604 -0.019168563 -0.080916055 0.19720054 0.01085601 -0.1322458
-0.03834486 -0.011391875 0.063453205 -0.17160295 -0.15035371 -0.13922964 -0.035415795 -0.080346555
-0.24291573 -0.42155233 -0.23086844 -0.116155684 -0.06331454 -0.0543277 -0.020056196 -0.48210642
-0.2873059 -0.103948615 0.09971064 -0.08501677 -0.29842937 0.102899835 -0.2588819 -0.14804074
-0.12885132 -0.0052343644 -0.2465434 -0.1099662 -0.10395701 0.02029633 -0.13433328 -0.27359453
-0.21416755 -0.15768819 -0.14233541 -0.33237374 -0.17556828 -0.37009582 -0.1719938 0.030113984
-0.37718976 -0.17388982 0.011347865 -0.32195103 -0.37550208 -0.30454683 -0.26544297 0.09163955
-0.11757045 0.10621292 -0.32142365 -0.24225019 -0.12982891 -0.071686044 0.10096835 -0.41148672

conv4.bias f4 [32]
00000000: b2bd bfbe 3ad6 88be 614c a7be 69cb adbe
00000010: 3498 f2bd fed8 d5be 3d35 98be 9f4f 113d
00000020: af85 a5be 914a a4be 8e47 ae3d 0b7a 92be
00000030: 4744 89be f2ab 203e 6bf2 07bf cad2 853d
00000040: 8062 bfbe dee9 99be b287 35be 3bc8 40bd
00000050: 0bc6 fbbd 6ddf e83d e9e8 93be a982 b3be
00000060: c317 85be 0466 cdbe f0d2 09be c7e0 86be
00000070: 9d90 94be e2fe e5be 35cd 58be 5e75 c8be
-0.37449414 -0.26725942 -0.3267546 -0.33944252 -0.11845437 -0.41767114 -0.29728118 0.035476323
-0.32328555 -0.3208814 0.08509742 -0.28608736 -0.26809904 0.15690592 -0.53104275 0.065343454
-0.37379837 -0.3006124 -0.17727545 -0.047065955 -0.12293633 0.1137074 -0.28888634 -0.35060623
-0.2599469 -0.40116894 -0.13459373 -0.26343367 -0.2901658 -0.44921023 -0.2117203 -0.39152044

fc.weight f4 [1, 1440]
00000000: 2ec6 31bd 2caa 7d3c bc51 133e a090 833e
00000010: 9a74 843d b2f2 263e 96a0 94be 4c86 c83e
00000020: 7d03 78bd dadf 303d d881 71be cdaf 24be
00000030: 7f78 eebd 0b5c b8bd 2e25 963d 98a3 b2bd
00000040: 1697 e6bc 4545 4dbe ba23 563d 9da1 433d
00000050: e51c 35be 0966 783e 42d1 03be 97cf 2bbd
00000060: 00d8 373e cf08 5b3e f877 babd 8da9 883d
00000070: ff97 403c e35e 413e 6fcb 1bbe 5ba7 12be
00000080: e264 bcbd 6f0f 67bc 4a4c e8bd 8cec 433c
00000090: 75fb f1bc 8261 a2bd 5eb2 c4bc 9849 e33c
000000a0: 01cd 21bc 6e5f 0c3e ac9f 61bc 5385 80bd
000000b0: cfc4 24bd d6a4 a93d 99b5 89be ffb2 143f
000000c0: 7248 afbe 69c9 b23e 02f0 6dbe 5511 833e
000000d0: 46ad a23e a3a0 a1bd 3ec0 2bbe c643 fbbe
000000e0: bf10 423e f140 da3e da9a d03e 486b 913e
000000f0: 2d05 8c3e bf12 64bd b16f 003e 43eb b93a
00000100: 384a c93d de32 913e 692c 85be 1b1f c0bc
00000110: d654 46be 2fb7 8d3d 4aef 433e f02d 73be
00000120: bb37 a23d 460a c03d 301b fe3e 3195 bebe
00000130: dc00 223d 7ff1 f03d 38f6 f73e 003a 90be
00000140: a9d3 c5bd 369b 03be b41d 0b3d bc29 b03d
00000150: dc37 123d d523 c3bc 988e a33e c839 c03d
00000160: 8a4a 96bd 0c8b 3c3e 5c7d 21be e32a 7c3e
00000170: 1ecb 2c3f 3cad 5c3e 6a9e 48bc 7433 ba3e
00000180: 310e 5bbd a2b4 f03e 56d4 093e 9807 fbbb
00000190: d937 233d 0295 1d3d 9dc6 af3e 7a84 8bbd
000001a0: 00b9 33be 715c 2b3e cdef acbe cc85 19bd
000001b0: c1cf 09bd b5b0 193c d9c7 a33e 10f0 08be
000001c0: ecb1 9bbe c2fe fb3c 18ac 703d 9546 c0be
000001d0: 6197 903c 9586 df3d 3dfd 92bb 5345 703d
000001e0: e1f9 18be e4bc 983d eb63 ef3d 1646 653e
000001f0: 42c6 813e 80f7 2e3d 858f 963d 7488 3abd
00000200: 387f b93c e749 8cbc f154 0d3e d692 5c3d
00000210: def7 1b3e a760 1dbe 9888 edbc e7f5 9bbc
00000220: c54d 903e 76c0 ff3e a44b 833e 0730 b4be
00000230: c8e1 73be 54b6 b5be 2de5 ef3d 0978 e73d
00000240: c691 7f3e 2680 f7bd 5c3d c23e 71b1 ce3c
00000250: 407b 993d 8884 a2be 5929 88be 1f84 f2bc
00000260: 54d2 cb3d 32a1 213d c4e3 8cbd e7d2 dbbd
00000270: a714 b9bc 79c4 09bd 9245 07bd 2e3e 85bd
00000280: 2245 193e b7af f8bd 64be 1b3c ef5a b83e
00000290: fbdf b7be 1dc4 103e ed16 10be db7c 12be
000002a0: 10b9 963d 7337 e8bb 59cc 62bd f551 17bd
000002b0: ebec 6cbd b2c4 6bbb 3ba6 6e3c 4cea c9bd
000002c0: 03de e3bc 7165 903e d1ba 3fbe daab 84bc
000002d0: 3668 c23e 18b0 c63e c7a8 e53e 868f 84be
000002e0: 2721 4fbe 4e24 cabd aac9 213f e14a 023f
000002f0: afe0 71be 2e3b 7c3d c710 37be d519 b03e
00000300: 5b83 883e aaaf c7bd 8730 0fbd 68d9 b7bd
00000310: d9f5 6cbe 4d71 89be 960b 643e fb99 913d
00000320: fddc 20be 8454 b4be c197 c7bd 9431 0c3e
00000330: f115 81be aabc 0dbe 1cd7 013e 985e c63e
00000340: 41a4 ecbc 9d0c 63be 0594 b53e 55aa 8f3d
00000350: 3b99 65bd 6698 b23e c9c6 d0bc cf81 5f3e
00000360: 874d b13a e27c 4f3e 63ad adbd 311b 043d
00000370: 74d1 11bc 4685 f93d 9ba7 be3d 4656 fbbd
00000380: 1210 74be 5a5a dbbe dfa4 81be 9dee 543e
00000390: 66ab 0c3f 01ea e73e 407f ddbe 2c32 aabd
000003a0: d9b8 3e3d 53c3 4d3d 5d26 2a3e c269 c83d
000003b0: 1208 e93d d4c5 053f ea60 3dbe 5566 8bbe
000003c0: f11b 00be 6b7e e43e e89c 00be a673 3bbd
000003d0: 9f4a 6abe f623 65be 765e 9bbe 4438 00be
000003e0: 5e4b 01bc a869 43bd d123 f53e e261 c33d
000003f0: 068f f7bc 479c b63c dc2f 5c3e 762e b1bd
-0.04340189 0.015482467 0.14386648 0.25696278 0.064675525 0.16303518 -0.29028767 0.3916496
-0.0605502 0.04318223 -0.23584688 -0.16082688 -0.116440766 -0.09001931 0.0733131 -0.08722609
-0.028148215 -0.20045955 0.052280165 0.04776155 -0.17686804 0.24257673 -0.12872794 -0.04194602
0.17953491 0.21390079 -0.091049135 0.06672964 0.011754989 0.18883853 -0.15214323 -0.14321654
-0.09198929 -0.014102801 -0.11342676 0.011958253 -0.02953885 -0.079287544 -0.024010833 0.027745053
-0.009875537 0.13708279 -0.013770979 -0.062754296 -0.040226754 0.08283393 -0.2689636 0.58085626
-0.3423496 0.3491929 -0.23236087 0.2559916 0.31772822 -0.07891967 -0.16772553 -0.49075145
0.189517 0.4262767 0.40743142 0.28402162 0.273477 -0.05568194 0.12542607 0.0014184493
0.09828609 0.2835912 -0.26010445 -0.023452332 -0.193683 0.06919705 0.1913425 -0.23747993
0.07920786 0.093769595 0.49630117 -0.372232 0.0395516 0.11764812 0.48430037 -0.2816925
-0.096595116 -0.12852177 0.033963874 0.0860171 0.035697803 -0.023820797 0.31944728 0.09386021
-0.07338436 0.18412417 -0.15770477 0.24625735 0.6749743 0.21550459 -0.0122448 0.3636738
-0.05348033 0.47012812 0.13459906 -0.0076608174 0.039848182 0.038472183 0.34331217 -0.06812377
-0.1755104 0.16734482 -0.33776703 -0.037481114 -0.033645395 0.009380509 0.3198841 -0.13372827
-0.3040918 0.030761126 0.05875787 -0.3755385 0.017650308 0.10914341 -0.0044857548 0.058659863
-0.14939071 0.07457903 0.1168898 0.22390017 0.2534657 0.042716503 0.07351593 -0.045540288
0.02264367 -0.017125083 0.13801934 0.05385097 0.15231273 -0.15368901 -0.028995797 -0.019038154
0.28184333 0.49951524 0.25643647 -0.35192892 -0.23816597 -0.35490668 0.11713634 0.11302192
0.24957952 -0.12084989 0.37937438 0.025231095 0.07494211 -0.31741738 -0.26594046 -0.029604016
0.09952226 0.03946037 -0.0687938 -0.10733586 -0.022592856 -0.033634637 -0.03302533 -0.065060005
0.14967778 -0.1214289 0.009505842 0.36006877 -0.3591307 0.14137311 -0.14071245 -0.14305441
0.073595166 -0.007086688 -0.055370662 -0.036943395 -0.05784313 -0.0035975394 0.014566 -0.09859142
-0.027815824 0.28202394 -0.18723609 -0.016195226 0.37970132 0.38806224 0.4485533 -0.2589075
-0.2022749 -0.09870206 0.6319834 0.50895506 -0.23620866 0.061579876 -0.17877494 0.34394708
0.26662716 -0.09750302 -0.03495839 -0.08977014 -0.23140658 -0.26844254 0.22270045 0.071094476
-0.157093 -0.3522073 -0.09745742 0.13690788 -0.25212052 -0.13841501 0.12679714 0.38744044
-0.028886916 -0.2217278 0.35464492 0.0701491 -0.056054335 0.34881896 -0.025485413 0.21826862
0.0013527133 0.20262483 -0.084803365 0.032252494 -0.008900035 0.12183623 0.09309312 -0.12272315
-0.23834255 -0.4284237 -0.253211 0.20794149 0.54949033 0.45295718 -0.43261147 -0.08310351
0.046563003 0.050235104 0.16616197 0.09785797 0.113784924 0.52254987 -0.18494001 -0.2722651
-0.12510659 0.446277 -0.12559855 -0.045764588 -0.22880028 -0.22377 -0.30345505 -0.12521464
-0.007891504 -0.047708184 0.47878888 0.09540154 -0.030219566 0.022291316 0.21502632 -0.0865144
