model_round_4.pth (torch, 126796 bytes, 9 tensors)

conv1.weight f4 [16, 1, 16, 3]
00000000: b092 32bf 389f 2fbb ab89 2d3f 8c18 1dbf
00000010: 11c8 d83d 86e8 343e 7738 f4be ea04 08be
00000020: 9aef 24be a24d 9bbe af98 8abe 1e12 d53e
00000030: ee4e 9bbe 1913 b33b bc2e 5b3e 91e9 903d
00000040: 9dc3 abbe 9ea1 5cbd 9393 923e 7d36 69be
00000050: 0fab 9c3e cfed dbbd d963 97bf 0f11 e93d
00000060: e4e8 903e 54bc 87bf a008 dd3b ae5d 9fbd
00000070: f4b5 77bf 1eb3 12bf 9dee f53e 4373 11be
00000080: a120 1e3e 0677 693e 9f18 dfbe 66ef 883e
00000090: b7a0 253f 1ae5 1d3f ec55 123e e5db b2be
000000a0: 0a49 19be 504b 1ebf 6d2e a73e ec47 923d
000000b0: 3b05 ae3e 68cc f9be 8dd5 93be 6ed7 18bf
000000c0: f62b d43d 4d15 a2be c719 75bd 8677 9c3e
000000d0: 5a99 b0be 10cb 01bf 57d9 323f 2acd 27be
000000e0: e3e7 b5be 8644 e1be 57dc 4a3c cb23 503e
000000f0: 15ea 6cbd a765 a0bd 851c 64b9 f51f 843e
00000100: bd83 c7bc 64a0 6dbe 6d5e 1d3f 6d8b 2ebe
00000110: fec6 1abf 0e48 a6bf 9ecf febe 639b 94be
00000120: fb77 8dbe f915 07bf 3dd4 f3be 33ca 8b3e
00000130: bded 84be c866 f4bd 85b1 b13e 4b83 65be
00000140: cedf 33be 471f 65bf 4d01 9e3e 58f6 a4be
00000150: 7953 cd3e 9e4f b63d c1c8 01bf b06d d73e
00000160: f447 59be b5d1 5fbf e478 55bd 888f a5be
00000170: 28a7 3fbf d2a4 50bf 86be 7b3f 120b 47bc
00000180: 2794 c5be b031 3abf 34a2 b2be e5a9 71be
00000190: 4e57 863e 5030 dc3e 1371 d63c c443 153e
000001a0: b7b8 8a3e bb60 9abe e05a 21bd 7342 973d
000001b0: da84 05be 107a 853e 59e1 b53c 715c bdbe
000001c0: ba50 093e 2e77 6dbe 5ea9 13bf 1fdb 9ebe
000001d0: 9880 89be a480 7c3d 377b 0b3e 9dfa d9be
000001e0: 99a0 d3ba 8a81 1cbb cc94 d6be 59f7 c63d
000001f0: 6449 453e 65fc 4abe 81b4 5a3e b1d0 153f
00000200: 1b96 57be 7952 cabd cc9a 8c3e ac69 20be
00000210: 2ba5 d8bc 40ad e1bc 2c61 05bc 478a f73d
00000220: 47b8 c03d 2d0b a3bd b792 2fbd a9fa 033f
00000230: 235d 673e 2867 183f 9c83 05bd 2d26 5cbe
00000240: 6e29 92be 066e 90be b8b4 dcbc 6674 163e
00000250: f66a 06bf f951 9ebe 3b40 37bd e188 a2be
00000260: 4fe4 083d 14f0 70bc b66d a7be c1d8 96be
00000270: 1d99 87be 2bf1 c73e d492 063e bec7 eebe
00000280: 90ad 39bf 4925 46be 6b68 2abe cf21 1dbf
00000290: 2fbf c2be 93dd 9c3d 2017 54bf 46de aa3d
000002a0: fbdf 903e d1ac 1bbf 4949 ae3a 9fc6 31bf
000002b0: 12a9 f2bc 34d1 a73d f12b 4abd e128 88bd
000002c0: 5ac2 8fbe 34fa b4bc 37ff 10bf 962b d9be
000002d0: 9c2f fc3e 885a 4ebe a050 643d 373c 84bf
000002e0: 5046 1d3f e33c 433e 9d3b c73e 3562 8d3f
000002f0: 515d c8bd 68a7 2fbd 395a 8a3f 2c94 3d3d
00000300: a010 47bd f2f0 323e f297 29be d90c 8abe
00000310: a2fd c5bd 4253 efbd 23f5 f5be 34b9 a2bd
00000320: c656 8cbd 3982 193e a7d6 0e3e 3ed2 45be
00000330: 275a 34be 0132 18be 9290 8fbd f8a5 11bc
00000340: 395e 223e f510 9cbd d9d4 273e aa20 c9bd
00000350: 68d3 afbd 7cc7 a1bd c114 0abe 91c2 2c3e
00000360: 86f1 343d b915 353e b71a f9be c622 963c
00000370: ae2d 913e 1822 1c3d e028 c6be fccc 2bbe
00000380: 6c0f 913c 83b4 f83c 6f40 6f3e bb95 ac3e
00000390: 9a1c 80be 2269 dd3e a33c 46be 366c 543f
000003a0: a097 963f 7bbc 1e3e b2a7 73bf 12e3 7bbe
000003b0: 2c4c b83d 2384 7bbf 3d60 01be 6cc9 fd3e
000003c0: f945 66bf 5af1 fabd 19d4 15be d091 003e
000003d0: 6ec4 a73e e396 d63d be46 933e d618 953e
000003e0: 8b8a bb3e 4972 443e 1ffc 723e 6fc3 713d
000003f0: 4d78 993c 018b dd3c d785 fcbe c118 4bbe
-0.6975508 -0.0026797783 0.6778819 -0.6136558 0.10585035 0.17666826 -0.4769933 -0.13283125
-0.16107026 -0.30332667 -0.27069613 0.41615385 -0.30333656 0.005464923 0.21404546 0.07075799
-0.3354768 -0.053865068 0.28628215 -0.22774692 0.30599257 -0.10738718 -1.1827346 0.11380207
0.2830268 -1.0604348 0.006745413 -0.0778154 -0.96762013 -0.5730456 0.4803361 -0.14204125
0.15442134 0.2279931 -0.43573472 0.26745147 0.64698356 0.61677706 0.14290589 -0.3493339
-0.14969268 -0.6183367 0.32652608 0.07142624 0.33988366 -0.48788762 -0.28873864 -0.5970372
0.103599474 -0.31656876 -0.059839036 0.3055994 -0.34491998 -0.50700474 0.69862884 -0.16386858
-0.35528478 -0.43997592 0.012381635 0.20326154 -0.057840426 -0.07831889 -0.00021754399 0.2580563
-0.02435481 -0.23205715 0.6147221 -0.17045374 -0.6045989 -1.2990739 -0.49767774 -0.290248
-0.276306 -0.527679 -0.47622862 0.27302703 -0.2596263 -0.119336665 0.3470575 -0.22413366
-0.17565843 -0.8950085 0.30860367 -0.32219195 0.40102747 0.089019045 -0.5069695 0.42075872
-0.21218854 -0.8742936 -0.052117243 -0.32336068 -0.74864435 -0.81501496 0.9833759 -0.012148635
-0.38589594 -0.7273207 -0.34889376 -0.23599966 0.26238483 0.4300561 0.026176965 0.14576632
0.2709405 -0.30151924 -0.039393306 0.07385721 -0.1303896 0.2606969 0.02220218 -0.3698459
0.13409701 -0.23189995 -0.5768031 -0.3102655 -0.26855922 0.06164612 0.13621221 -0.42574015
-0.0016145884 -0.0023880922 -0.41910398 0.097151466 0.19266278 -0.19822843 0.2135792 0.5852156
-0.21053354 -0.09879012 0.2746185 -0.1566531 -0.026445946 -0.027548432 -0.008140843 0.12086921
0.09410148 -0.07961116 -0.042864528 0.5155435 0.22594123 0.59532404 -0.032596216 -0.21498938
-0.28547233 -0.2820894 -0.026941642 0.1469284 -0.5250696 -0.30921915 -0.04473899 -0.31745055
0.033420857 -0.014705677 -0.3270089 -0.29462245 -0.26484004 0.39051184 0.13141948 -0.46636766
-0.7253046 -0.1935016 -0.16641395 -0.6137971 -0.38036487 0.076594494 -0.82847786 0.083431765
0.28295884 -0.6081057 0.0013296987 -0.69443697 -0.029621635 0.08194199 -0.049358312 -0.06648422
-0.28077966 -0.022091962 -0.56639427 -0.42416066 0.49255073 -0.20151722 0.055740952 -1.0330876
0.61435413 0.19066195 0.3891267 1.1045595 -0.09783424 -0.04288426 1.0808784 0.046283886
-0.04859984 0.17474726 -0.16561869 -0.26962927 -0.09667517 -0.11685802 -0.48038587 -0.07945481
-0.06852488 0.14991082 0.13949071 -0.19318482 -0.17612515 -0.14862825 -0.070099965 -0.008889668
0.15856256 -0.07620422 0.16389789 -0.09820683 -0.085852444 -0.07899377 -0.1348448 0.16871096
0.044175647 0.17684068 -0.48653194 0.018327128 0.28355163 0.03811845 -0.3870306 -0.16777414
0.017707549 0.030359512 0.23364423 0.33707985 -0.2502182 0.43244272 -0.19359069 0.82977617
1.1765022 0.15501587 -0.9517776 -0.24598339 0.08998904 -0.982485 -0.12634368 0.49567735
-0.8995052 -0.122530654 -0.1463169 0.12555623 0.3276705 0.10477998 0.2876491 0.2912051
0.36629137 0.19184221 0.23728989 0.05902427 0.018734122 0.027043821 -0.49320862 -0.19833662

conv1.bias f4 [16]
00000000: a43a 213d 1ec0 bc3e e4be 93be 649b ff3e
00000010: f5c1 05bf 0f66 42be 7208 c7bd 1ac1 06be
00000020: e5b2 f3be 7645 2b3e efb1 823c 35f2 b5bd
00000030: 5466 a0bd fcf3 963b f735 cf3d f41f d2be
0.039362565 0.36865324 -0.28856575 0.4992324 -0.5224908 -0.18984245 -0.09718408 -0.131596
-0.47597423 0.16725716 0.015953986 -0.08884088 -0.078320175 0.004606722 0.10117715 -0.41040003

conv2.weight f4 [16, 16, 3, 5]
00000000: 9e32 0bbe 0a7f 8cbe 13b1 aabe 85a4 77be
00000010: f8cf d0be 6382 6ebe 06e8 e2be 096c 94bd
00000020: 8415 83be 9372 403e 9031 06bf 3d3b f9bb
00000030: f914 09be f3dc d2be 217c fcbd fc99 e9bd
00000040: e668 d3bd 3a38 88bf 5077 6fbe c48a 67be
00000050: 29d4 de3d 665e 123d db03 14be 0feb 543c
00000060: d03c 8dbe 2a7a dd3e ce9e 4dbd b2a7 8dbe
00000070: a733 39be 7f84 31be ae82 91bd 0037 c1bd
00000080: 3bc9 94be e1ce 4ebe 2740 20bf 2075 643d
00000090: be51 bb3e badf cabd 1413 a3be 8332 c5bd
000000a0: c75e 9fbd 4ca2 89bd 8a13 14be d861 3f3d
000000b0: 0163 bb3d fe96 c63e 7744 babe df43 23bf
000000c0: 29c5 f7be 69f2 a0bd b7d8 9ebe be0d 213e
000000d0: 918a 0cbf ce3f ee3d 002d 923e eadc 1c3f
000000e0: 0b68 f9be 7bf0 7abe b87e 013b f41b 00be
000000f0: d571 f6be f772 b1be b84a 60be 7581 96be
00000100: 60ad 8dbe d918 1fbd a3d6 b43d e0b1 ab3e
00000110: a2ef d23e 0e8d 6e3d 0b29 65be 795f 01be
00000120: 9a57 74bc 2966 cabd c046 81be 9458 d3be
00000130: 1b09 83bc 7df6 e6bd bb8a a5be 733e 00be
00000140: 7bc5 57bf 4088 3a3c 5f62 283f c20f bfbe
00000150: 18ec f4be 0811 74be 0dfe 3cbe e13b 3a3d
00000160: 08aa db3c 919b e73d 6e87 f13d 71f6 30be
00000170: f44d 39be f9de 81bf d902 8cbe bbba 8dbf
00000180: ba97 c33e 513d e33e 4aac 10bf e7f9 a4be
00000190: 7429 5fbe fe26 22bf 8a6e f9be 3299 473d
000001a0: f6ba 0bbf 226b 2dbc ec16 4dbe 196e 45bf
000001b0: f7dc dc3e dc82 10bf 8300 303e a2bc d6bd
000001c0: 602f ab3e 36c3 5dbe 1a61 89be e62e e9be
000001d0: 5bd2 c0be fc46 593e c6d8 b4be 4aaa 973d
000001e0: 7946 983e d8c6 463e 1ba4 93bd 3f0f 3d3d
000001f0: 1485 cebe ddf1 a93d f0f9 13bf a3e4 563e
00000200: 74d4 953d f355 4cbf 0cdc 96be ec1c 18bf
00000210: 1d4c 54bd 601f 1fbd cae4 4abf 2508 d5be
00000220: 8ec9 c8be 9333 18bf d6e1 a4be e269 553d
00000230: 0d34 913d 3e5a edbe bff5 4a3c 2a85 553e
00000240: a47b 5ebe eb9a 11bf a404 363d b088 513e
00000250: 07b8 dcbc feb0 02bf 07d5 eebe 9828 5bbe
00000260: 84e8 11bd ab95 f1be bf14 07be 6ed7 b03e
00000270: 18c5 3b3e 1086 ffbe 9848 11be 7d67 d1be
00000280: 2bca 8abe 5ec6 16bf a3a2 543d e6f2 483d
00000290: afa1 003f 9a36 833d 6af5 58bd a3cf 10be
000002a0: d231 623e 8779 22be 1cec 23bf ab40 9bbd
000002b0: aa88 8a3e 7aab a6be c643 1ebe 5a5b a9be
000002c0: 7dad 1bbe b927 103d 67cd dbbe 50f3 38be
000002d0: 3d3e f6be 47c8 6e3e 1813 823e e705 85be
000002e0: 997f f33c 96ae 65bf d950 cfbd cb73 a63e
000002f0: dc66 e83c 1d41 583b d76f 36bf 3bb5 c0be
00000300: be66 b8be df53 6abe c633 713d 3430 913e
00000310: 8c24 81be 01f7 ebbc 1970 b3be 1bb0 76be
00000320: 154c 4dbe 7551 a53e aca3 41be 28da c9be
00000330: 18cf 4f3a 5dd1 023d aa6d 343d 35bf a6be
00000340: f7f9 bebc d1cc 973d 6915 2dbf 12d5 13be
00000350: 01ea 89be 4dae 08bf 7f9e 7fbe 4321 89bd
00000360: 02ab 01bf 8181 2fbc 1b36 5dbe ec5c ebbe
00000370: 5bce ed3d ac22 7e3d 473e d6be d154 ddbc
00000380: ac44 b03d f730 bbbe 3f4d 8cbe 4da8 f4bd
00000390: fb40 7a3d 011d c6be 5675 b0be 777a aebe
000003a0: 2923 843e 50ad 43be 15e1 c7be 7b0b c5bd
000003b0: e471 dc3d 0f7c 023e d7c5 b9bd 190f d5be
000003c0: d561 80bf 4e11 dfbe 270c c4be 3c69 50be
000003d0: 2726 0ebe 5f6d 0cbf ee1a bcbe 3371 09bf
000003e0: d85f 0dbe b992 31bd f917 8fbe c952 aabe
000003f0: 817e eebe e23b c1bd b27f 53be 93f6 50be
-0.13593528 -0.27440673 -0.33338222 -0.24183853 -0.40783668 -0.23291926 -0.44317645 -0.072471686
-0.25602353 0.18793707 -0.52419376 -0.0076059387 -0.13386907 -0.41184196 -0.12328363 -0.11406323
-0.10322742 -1.0642159 -0.23385358 -0.22611529 0.1088031 0.035734557 -0.14454596 0.012995495
-0.2758546 0.43257266 -0.050200276 -0.27667004 -0.1808611 -0.173357 -0.07105003 -0.094343185
-0.29059777 -0.20196106 -0.6259789 0.05577576 0.36585802 -0.09905954 -0.31850493 -0.09628775
-0.07781749 -0.06720409 -0.14460579 0.04672417 0.09149743 0.38787073 -0.3638036 -0.6377544
-0.4839261 -0.07858736 -0.31024715 0.15727898 -0.54898936 0.116332635 0.28549957 0.6127459
-0.4871219 -0.24505799 0.0019759368 -0.12510663 -0.48133722 -0.34658024 -0.21903503 -0.29395643
-0.27671337 -0.038842056 0.08830001 0.33534145 0.4119845 0.05823999 -0.22378938 -0.12634076
-0.014913464 -0.09882767 -0.2524929 -0.41278517 -0.015995553 -0.11277483 -0.32332405 -0.12523822
-0.84285706 0.011385024 0.657751 -0.3731671 -0.47836375 -0.23834622 -0.18456288 0.04546726
0.026814476 0.11308969 0.11793409 -0.1728151 -0.18096143 -1.0146171 -0.27345923 -1.1072611
0.38201696 0.44382718 -0.5651289 -0.3222191 -0.21793157 -0.6334075 -0.48717147 0.048730083
-0.54582155 -0.0105846245 -0.20028275 -0.7712112 0.43137333 -0.56449676 0.17187695 -0.104851976
0.33434582 -0.21656498 -0.26831895 -0.45543593 -0.37660488 0.21218485 -0.35321635 0.07405527
0.29741266 0.1941179 -0.07209035 0.046157118 -0.40335906 0.08298085 -0.5780325 0.20985655
0.07315913 -0.7981865 -0.29464757 -0.5941913 -0.0518304 -0.03884828 -0.79255354 -0.41607776
-0.39216274 -0.59453696 -0.3220355 0.05210293 0.07090006 -0.46357912 0.012387692 0.2085158
-0.21726853 -0.5687701 0.04443802 0.20462298 -0.02694322 -0.5105132 -0.46646902 -0.21402204
-0.035622135 -0.471845 -0.13191508 0.3453936 0.18336904 -0.4990697 -0.14187849 -0.40899268
-0.27107367 -0.58896434 0.051912915 0.04905977 0.5024671 0.06406899 -0.05296842 -0.14141707
0.22089317 -0.15866672 -0.6403215 -0.07580694 0.2705739 -0.325527 -0.15455541 -0.33077508
-0.152029 0.035194132 -0.42930147 -0.18061566 -0.4809436 0.23318587 0.25405192 -0.25981066
0.02972393 -0.8971952 -0.10122842 0.32510218 0.02836936 0.0032997795 -0.71264404 -0.37638268
-0.36015886 -0.22883557 0.058887266 0.2835709 -0.25223196 -0.028804304 -0.3504646 -0.24090616
-0.20048554 0.3228871 -0.18910092 -0.39424253 0.0007927283 0.031937946 0.044049896 -0.32567754
-0.023312552 0.074121125 -0.67610794 -0.14436749 -0.26936343 -0.5339096 -0.24962805 -0.06695797
-0.5065156 -0.0107120285 -0.21602671 -0.4596933 0.11611625 0.062044784 -0.4184439 -0.027017983
0.08606848 -0.36560795 -0.27402684 -0.11946163 0.061097126 -0.38694003 -0.3446452 -0.34077808
0.25808075 -0.19109082 -0.3903891 -0.0962133 0.107639104 0.12742637 -0.09070938 -0.4161308
-1.0029856 -0.4356789 -0.38290522 -0.20352644 -0.13881741 -0.5485439 -0.36739296 -0.53688353
-0.13806093 -0.043352816 -0.27947977 -0.33266285 -0.4658089 -0.0943525 -0.2065418 -0.2040656

conv2.bias f4 [16]
00000000: aad4 673e d899 7abe 68a1 703c 8493 21bf
00000010: dfb4 d5bb be27 093e fc37 e8bd 90ec b1be
00000020: 68bb 6ebd d8b8 8abc 6ada 03bf f29d cbbe
00000030: 2a9e 0ebf c05b ddbe af68 a4bc 9f58 74be
0.22639719 -0.24472749 0.01468692 -0.63115716 -0.0065218057 0.13394067 -0.11338803 -0.34750795
-0.058284193 -0.016933843 -0.5150515 -0.3976894 -0.5571009 -0.43234062 -0.020069448 -0.23861931

conv3.weight f4 [32, 16, 8, 3]
00000000: c986 afbe a8a3 1a3e 87ac 1a3d dc0e dabe
00000010: 577d abbe 5879 96bd b596 24be 577d fe3d
00000020: c60e 043e c335 22be cf7b 99be 3b51 8cbe
00000030: 8834 d6be a799 35bd 36c7 9dbd d49b 2c3d
00000040: 7c6d 883e cbf5 c03c 6242 a4bd df45 be3d
00000050: 7be3 92be 744f 4cbd 2a15 57bd 0abb 87bc
00000060: 8433 0c3f 6dc1 2b3c 066f 41be ae2c fe3d
00000070: 5de0 94bb ba24 443d 87c8 59be b0b1 123e
00000080: 75cc e13d b6a6 79be 20b7 2ebe 202b c7bd
00000090: 2558 3fbe a8a0 c7bc aa9f 4ebc ea41 053d
000000a0: d1ac 293e 3798 3dbe e94b 02be 179b 81be
000000b0: a85b 303e 644f 833b 6aaf 68bd e597 dc3d
000000c0: 3061 153e 34b6 73be 2068 25be 1b74 cdbd
000000d0: f52e 783e 9a93 cc3d 60ea 8fbb 6877 febd
000000e0: 7d28 e13c 31d7 d5bc 9b22 9cbe 1f6c f3bd
000000f0: 342c c9bd 2132 b4bb 010e 9ebe 74ce e3be
00000100: 2453 24bd 586c 8ebe d913 07bf 188e adbc
00000110: f845 5f3d 8450 6cbe a709 4b3e 3896 2ebe
00000120: 9868 cabe ebc7 0fbf 4c29 0dbf a33f fbbe
00000130: af61 c5be a43d 60be bae3 8cbe 02f0 4dbf
00000140: 8453 9b3e b06d 28be bf71 eabe 255a e8be
00000150: 9819 eabe 6265 18bf 9014 87be bca8 cfbd
00000160: a4f3 ed3d bb42 76be 8b0f a5be 92b1 4cbe
00000170: 6a99 1dbe c846 febd 50d3 dabe 525d 5dbe
00000180: d148 83be 4c0f 85be cb7d acbd 4bf5 febd
00000190: 06e3 dbbd ec1b 823e 2fe6 c03c 90d8 3abc
000001a0: 1261 cb3d 7983 0bbe 2604 11be 0dc9 7ebd
000001b0: 1502 dabd 363e aabe c66c ccbd e521 393e
000001c0: e965 fabd 9605 1fbd 4223 7bbc b2ee ccbd
000001d0: 334f 57be 9561 8bbe 14b3 83bd a9b6 20bd
000001e0: afc8 07bf fa98 a3be aa33 e4be 7f7c acbe
000001f0: 6f78 093f 120b 7c3d ec06 0a3e 07da c8be
00000200: 5a6a cebe f642 54bf 334d e8bd fd3a e8bb
00000210: 1910 bfbe 3940 453b 4540 8a3d 1164 05bb
00000220: e902 efbb 9a3c 773a f8ff 56bf bb52 f83d
00000230: f629 92be eef9 f8be cea6 aebd 839a 8bbe
00000240: 3397 83be c881 5abe 34e5 d4be 3b4d ce3e
00000250: aa88 d5be 25cc f63c 819e 0abe 32ee b4be
00000260: 7ac1 9cbd 73a3 85be 0ebd f8bd fdd9 96bd
00000270: 328b 07be 12f6 c6bd ba84 21bd b199 0a3e
00000280: f6d6 6abe 318b 3cbe ab6e 083e 34a8 4b3d
00000290: e810 93be 79a7 0dbd e91f 93be 6ef5 07be
000002a0: f782 983e c7fa 163e 7d95 b8be 031a 6dbe
000002b0: f78f f2be 9d33 bebe fa94 dabe 6c09 e53d
000002c0: ecb5 8bbe 5077 68be f5d5 213e 6c20 5a3d
000002d0: 60fb eebe 53e1 debe 297f d6bd 3ced 2d3e
000002e0: f7b4 e63d 955f f13a 5f1a 593d 51c1 533e
000002f0: 7865 96bc 8a74 e6be a61e 523d 9ae0 0bbf
00000300: 71d3 253e 750a 6abe 8bb1 9c3d 2cc0 2d3e
00000310: 7680 75be 3da6 32bc 75f5 02be bfa0 be3d
00000320: b712 9fbd caa4 6e3e 3743 87be fa0c 1ebd
00000330: 3e2f 203e b5ab 8abd fe05 cfbe 8123 89be
00000340: 85f9 d73d fa64 01bf a171 2cbe a85e 8abe
00000350: 687e 10bf 0e8f 90be aad9 3ebe 6dbb 3fbe
00000360: 9946 4f3d 7a10 a3be c34c 65be 615e 8fbe
00000370: 7a61 aebe ee74 06be a8ca 483e 38b0 8dbe
00000380: 5eb0 c73d c3ee 453d 2f73 1e3e ee6c 693d
00000390: 81a1 913b 76f0 813c 5fe4 cf3e e87f b6be
000003a0: 516e 01bf d054 423e 0f2b 88bd 1061 1b3d
000003b0: 6f26 e7bd a0e1 babd 5ffb b3be a2f3 c73c
000003c0: 9a3f 97be b95f d5be 77b4 dabe 3a3d cdbe
000003d0: 03da 5cbd cbd3 373e 14af 29be a02f 32be
000003e0: 87f8 82be 7bba 353e b5c2 40bd 1fce 20be
000003f0: 15e7 0f3d 5b22 3ebe 51ae 08be 3922 95be
-0.3428252 0.15101492 0.03776219 -0.42589462 -0.33494064 -0.07347363 -0.16073115 0.124262504
0.1289626 -0.15840821 -0.2997727 -0.27405724 -0.41836953 -0.044335987 -0.07704012 0.042140797
0.2664603 0.023554703 -0.08020474 0.092906706 -0.2868918 -0.04988046 -0.052510418 -0.01656868
0.54766107 0.010483128 -0.18890008 0.12410866 -0.0045433477 0.047886588 -0.21267901 0.14325595
0.11025325 -0.24380001 -0.17062044 -0.09725022 -0.18685968 -0.024368599 -0.012611309 0.032533564
0.1656983 -0.18515097 -0.1272427 -0.25313637 0.17222464 0.004007267 -0.056807913 0.10771159
0.14587855 -0.23799974 -0.16153002 -0.10031911 0.24236663 0.0998909 -0.0043919533 -0.12425119
0.027485127 -0.026103588 -0.30495152 -0.11885857 -0.09822884 -0.00549914 -0.3087006 -0.4449345
-0.04011835 -0.27817035 -0.5276466 -0.02118592 0.054510087 -0.2307759 0.19827901 -0.17049491
-0.39532924 -0.56164426 -0.5514114 -0.49071988 -0.3855109 -0.21898514 -0.27517492 -0.8044435
0.30337155 -0.16448092 -0.45789906 -0.45381275 -0.4572265 -0.595297 -0.26382875 -0.101396054
0.116187364 -0.24048893 -0.3223842 -0.19989613 -0.15390554 -0.12415844 -0.42739344 -0.2161763
-0.25641492 -0.25988233 -0.084224306 -0.1244913 -0.10736661 0.25411928 0.02354726 -0.011404172
0.09930624 -0.13624372 -0.14161739 -0.062203456 -0.10644928 -0.33250588 -0.099816844 0.18079336
-0.12226469 -0.038823687 -0.01532823 -0.10006465 -0.21026306 -0.27222887 -0.06430641 -0.0392367
-0.53040594 -0.3195265 -0.44570667 -0.33688733 0.5369939 0.061533995 0.13479203 -0.39228842
-0.40315515 -0.82914674 -0.113428496 -0.00708711 -0.3731697 0.0030098094 0.0675054 -0.0020353834
-0.007294048 0.00094313326 -0.8398433 0.121251546 -0.2854764 -0.4862818 -0.08527909 -0.2726632
-0.25701293 -0.2133857 -0.41581118 0.40293297 -0.4170583 0.03012664 -0.13537027 -0.3533798
-0.0765409 -0.26101264 -0.12145434 -0.07365797 -0.13236693 -0.09714903 -0.03943322 0.13535191
-0.22933564 -0.18412472 0.13323466 0.049720958 -0.28723836 -0.034583542 -0.28735283 -0.13277218
0.29787418 0.14744101 -0.3605155 -0.23154454 -0.4737546 -0.37148753 -0.42691785 0.11183438
-0.27287233 -0.22701764 0.15804274 0.053253576 -0.4667616 -0.43531284 -0.104734726 0.16985029
0.11264985 0.0018415326 0.053003665 0.20679213 -0.018358931 -0.45010787 0.05129876 -0.5463959
0.1619394 -0.22855552 0.07651051 0.16967839 -0.23974785 -0.010903892 -0.12788947 0.09308004
-0.077672414 0.2330505 -0.26418468 -0.038586594 0.15643021 -0.06771032 -0.4043426 -0.267849
0.10545639 -0.50544703 -0.16840221 -0.27025342 -0.5644288 -0.28234142 -0.1863772 -0.18723841
0.050604437 -0.31848508 -0.22392564 -0.28001693 -0.34058744 -0.13130543 0.19608557 -0.27673507
0.09750436 0.048323404 0.15473627 0.05698865 0.0044443016 0.015861731 0.4060392 -0.3564446
-0.50558954 0.18977666 -0.06648838 0.037934363 -0.112866275 -0.09125066 -0.35152718 0.024408165
-0.29540712 -0.41674593 -0.4271581 -0.40085775 -0.05391885 0.17951886 -0.16570693 -0.1740098
-0.25580236 0.17746918 -0.047060687 -0.15703629 0.035132486 -0.18567793 -0.13347746 -0.29127672

conv3.bias f4 [32]
00000000: 1f88 b1be 0107 e2bd ecf7 8fbe e139 a7be
00000010: 5f23 ddbe 9a18 dbbe ee23 46bf 890a 18bf
00000020: f557 a03d eeb2 59be 2972 523e cd6a 67be
00000030: bae3 46be 5efc 93be 9b09 1cbf 5fde 5ebf
00000040: 8844 723e 5903 4dbf 5ace 68be a828 b5be
00000050: 8c82 e73e a870 a3be ee34 6bbe 2289 09be
00000060: a008 c4be db6f 55bf 64dc 8dbe 6f73 ecbe
00000070: 5f1d 243e f4eb b2be 6670 edbe 9dc3 443e
-0.34674165 -0.11036492 -0.28118837 -0.32661346 -0.43191049 -0.42792207 -0.77398574 -0.59391075
0.078292765 -0.21259663 0.20551361 -0.22599335 -0.19422808 -0.28903478 -0.60952157 -0.8705806
0.23658955 -0.80083233 -0.22734967 -0.3538258 0.45216787 -0.31921887 -0.2296941 -0.13431218
-0.3828783 -0.833738 -0.27707207 -0.4618182 0.16026829 -0.34945643 -0.46374816 0.19215246

conv4.weight f4 [32, 32, 4, 3]
00000000: b410 22bd b88a a6be 56bc 013e 0b9e 49be
00000010: 6de6 8abd bb9d cbbe e92c aabd 1316 c9bd
00000020: ed4d 8dbd 238d 61be b1f3 0d3b 58be 3e3a
00000030: df2e be3d 5181 4cbe 8bb6 e3bc 014f 3d3d
00000040: 4359 7f3d e24f 87bc 4e6c a0bc 8337 643c
00000050: 6b8e 57be f3a1 abbd aa72 60be 8a56 81be
00000060: 6f2c 3ebe cdb6 3bbd 10e4 93bd 43ac 79be
00000070: 19c6 023d 40a0 0bbe 9f8a a7bc 977e bcbe
00000080: 792b 81bd 8b85 ff3c dfb8 78be 828b 603d
00000090: a744 0dbe ff2e 03be 2d2f 973d 812f 97be
000000a0: 9a0b 03be 1d5c 0c3e c9c2 94bd 4e15 c5bd
000000b0: e24a 79be 726a fc3d 0748 90be d1dc 90bd
000000c0: 5e84 d63d 4c5f 2cbe f9e7 37bd c090 013d
000000d0: ecd9 20bd 04ee 183d 3918 713c 98e0 90be
000000e0: 41ea 943d db63 933c 4413 d3be 8a1e fdbd
000000f0: 4486 6ebd 29ea 81bc e86c 1a3e dd28 c5bd
00000100: 73ee 603d c10b 78be 4f24 02bc e3de 9fbe
00000110: 47f8 ebbd 605a aabe 2643 0cbe 173b 9c3c
00000120: 82c6 1bbe f0db 36be 9f53 93be f05c 84be
00000130: c455 79be 6c7f 84be b980 34be 0002 dfbd
00000140: eb80 27be 4a34 75be 4146 1d3d 170a 43bd
00000150: c1aa 4a3c 867b b8bd 8349 a3bd dbdb febd
00000160: bf89 3abe 1424 68be 6bb6 e3bd e75d 95bc
00000170: 99ea 69be fa4a b4bd ff78 e1bd 192e 81bc
00000180: 7b5c 1b3e bfcb ec3b 70a4 8abe bd6d 6b3d
00000190: 7361 eabd fcaf 66ba be97 553c 9716 bdbd
000001a0: f90d 12be 3c12 f1be 65e3 d63b 31ef 64be
000001b0: c11c 823d 66ee 41ba a01e 9fbd 236e a3bd
000001c0: 33e6 9abd fac5 d23d dce5 0abe 2d6b 48bd
000001d0: 41bd ccbd 5484 ddbd 48a6 77be a101 f9bd
000001e0: d418 6e3e 0201 8fbd 643d 1d3d 55bb 2b3d
000001f0: 664b 60bc 3b6d 64be d7d2 5bbe 5cdd d73d
00000200: a556 bbbe 3db3 35be 55c4 cdbd d7c6 85be
00000210: 5d8a 89bd ecd3 08bd 3bd1 483d edd1 1fbd
00000220: 5ef4 eebd 705a f9bd 0315 8fbe 6c24 98bd
00000230: 21a4 76be 7222 ddbe 9945 57bc 4c32 bd3b
00000240: b741 c1bd 431a 73be 44c9 813d 497a 5abe
00000250: 665a b2bd 8a60 5bbc 8379 7abe 3a9f 59be
00000260: 4af6 4cbe 630a 33bd 910a a9bd d50a a3be
00000270: 92f0 3ebe 2b7d 46bc 741b 0bbe f1ea 9ebc
00000280: 42ce 19bd af43 84be 4712 69be ebe0 abbe
00000290: 566e 45bd a058 a8bd 2bbd 973c 94bb 14be
000002a0: 3cac ecbd a9d1 97bc 4252 cfbd 35e3 debc
000002b0: 7e9c cbbc aa45 d83d 40e0 48be 839e 04be
000002c0: 9077 52be 0eeb 85bd 3878 c3be 288a 98bd
000002d0: c961 d43d 8ab4 6cbe f2ad 17bc 4f5b 58be
000002e0: e5ce aebe ab60 f0bd 697a c73d a824 0ebe
000002f0: c8f3 50be 37d7 77be 8127 b3bd 7c8c b4bd
00000300: 05ef 723d 9631 ec3c e7ec cbbd 742f 273d
00000310: abb2 83bc 1348 ce3d 3d33 1ebc fa91 0ebe
00000320: b8dc 96bd 5a32 b0bd 998a 513c befe 26be
00000330: 215b 97bd 1a45 d7bd 7c0a 7c3d 6e4f 0abd
00000340: 92aa dabd e1ce 1dbe cedd 0ebe 9917 673d
00000350: e9f5 12be ed92 35bd 1765 b83c 2b21 9ebe
00000360: 091b 8abd 73c5 9bbc 1d4b e53d 0847 0abe
00000370: d72d 9bbe 4401 f73b 4496 85be e2ea f73b
00000380: fe21 c1bd 140c 8a3d bcc5 16be f9fb 1ebe
00000390: 40a9 05be 7539 4f3b 586c dcbd 6995 54be
000003a0: 9ba8 3ebe e0c9 46be c0cf 43be 0929 b5be
000003b0: b96b 4dbe 9890 4fbe b0b4 26be 8179 5cbd
000003c0: 929e 82be 6cb6 5dbe 9fe0 363d 4a3e aabe
000003d0: 2b45 bcbe ed53 9bbe fde3 57be 7df5 533d
000003e0: a44a 12be a85b dfbc 128f 97be 899f 32be
000003f0: 0885 44bd e441 d5bd d569 093e 3349 0fbe
-0.03956671 -0.3252771 0.126695 -0.19689195 -0.067822315 -0.39768776 -0.08309347 -0.098186634
-0.06899629 -0.22026496 0.0021660144 0.0007276288 0.09286284 -0.19971205 -0.027797004 0.046217922
0.062340986 -0.016517583 -0.019582894 0.013929251 -0.21050422 -0.08380499 -0.21918741 -0.25261337
-0.18571638 -0.04582863 -0.07221234 -0.24382119 0.031927202 -0.1363535 -0.020451842 -0.3681533
-0.0630712 0.031191608 -0.24289273 0.054820545 -0.1379572 -0.12810896 0.07382045 -0.2952843
-0.12797394 0.13707013 -0.07263715 -0.09623204 -0.24344972 0.1232499 -0.28179953 -0.070733674
0.10474466 -0.16833228 -0.04489896 0.031632185 -0.039270326 0.037336364 0.014715248 -0.2829635
0.07271243 0.01799195 -0.41225636 -0.123593405 -0.058233514 -0.015858727 0.15080607 -0.09626935
0.054914903 -0.24223234 -0.007943227 -0.31224737 -0.115219645 -0.33272076 -0.1369749 0.019071145
-0.15212443 -0.17857337 -0.28774735 -0.25852156 -0.24349123 -0.25878465 -0.17627229 -0.10889053
-0.16357772 -0.23945728 0.038397077 -0.047617044 0.0123698125 -0.09007935 -0.079730056 -0.12444278
-0.18216608 -0.22670013 -0.11118778 -0.018233253 -0.22843398 -0.08803363 -0.11009406 -0.015769051
0.15171997 0.007226437 -0.2707858 0.0574777 -0.11444368 -0.00088000274 0.013036666 -0.09232824
-0.14263143 -0.47084224 0.0065578693 -0.2235687 0.063531406 -0.000739789 -0.07769513 -0.07979991
-0.07563438 0.10291667 -0.13564247 -0.048930336 -0.09997035 -0.10816255 -0.24184525 -0.12158514
0.23251659 -0.06982614 0.038388625 0.0419267 -0.013689851 -0.22307293 -0.21467148 0.10540268
-0.36589542 -0.17744155 -0.10047213 -0.26128265 -0.06715844 -0.03340523 0.049027663 -0.03901856
-0.11667703 -0.12175453 -0.27945718 -0.07428822 -0.24086048 -0.43190342 -0.013139152 0.005773818
-0.09436362 -0.23740487 0.063372165 -0.2133571 -0.087086484 -0.013389716 -0.24460416 -0.21252146
-0.20015827 -0.043711077 -0.082539685 -0.31844202 -0.18646458 -0.012114803 -0.13584691 -0.019399138
-0.03755022 -0.25832888 -0.22760879 -0.33570036 -0.048200928 -0.08220029 0.01852282 -0.1452468
-0.115562886 -0.018532591 -0.10123111 -0.02720795 -0.024854895 0.10560162 -0.19616795 -0.12951092
-0.20553422 -0.06538974 -0.38177657 -0.07448226 0.103702135 -0.23115745 -0.00925778 -0.21128581
-0.34142223 -0.11737188 0.09740145 -0.13881171 -0.20405495 -0.24203192 -0.08747769 -0.08815858
0.059309978 0.028832238 -0.09957295 0.04081674 -0.016076406 0.10072341 -0.009655771 -0.13922873
-0.073663175 -0.08603354 0.012789392 -0.16308114 -0.07390428 -0.10511227 0.061533436 -0.033767156
-0.10677065 -0.1541095 -0.139518 0.05641899 -0.1435162 -0.044329572 0.02250914 -0.3088468
-0.06743438 -0.01901505 0.11195967 -0.13503659 -0.3030841 0.0075379927 -0.26091206 0.007565842
-0.094303116 0.06740585 -0.14723867 -0.15525807 -0.13052845 0.003161994 -0.107628524 -0.2076012
-0.18619005 -0.19412947 -0.19122219 -0.3538287 -0.20060624 -0.20270002 -0.16279864 -0.053826813
-0.25511605 -0.2165162 0.04464781 -0.33250648 -0.3677152 -0.30337468 -0.21083064 0.051747788
-0.14286286 -0.027265385 -0.2960134 -0.1744367 -0.04797843 -0.10412958 0.13419278 -0.13992767

conv4.bias f4 [32]
00000000: e19c a9be df4a 50be 1983 89be cc94 8fbe
00000010: 1b6d 6dbd 1078 bebe c8f9 81be 454c 5a3d
00000020: d8db 92be 7db1 93be 7fa2 b33d c01a 7abe
00000030: d5c9 85be fcd7 153e 1528 d9be b228 673c
00000040: 47bd 91be 936a 3cbe 07b2 18be 276b 6f3c
00000050: d6cd 0cbe e391 f93d 4bfe 78be 29c8 a1be
00000060: bb60 6abe 141f 9dbe e068 b1bd ddc8 9abe
00000070: 4b4a 8cbe ba1d d0be a146 48be 9bd7 b5be
-0.33127502 -0.20341061 -0.26857832 -0.2804321 -0.05796538 -0.37200975 -0.2538588 0.053295393
-0.28683352 -0.2884635 0.08771228 -0.24424267 -0.26130548 0.14633173 -0.42413393 0.014108824
-0.2846472 -0.1840003 -0.14911662 0.014612949 -0.13750395 0.12186029 -0.24315755 -0.31598023
-0.22888462 -0.30687773 -0.086625814 -0.30231372 -0.2740043 -0.4064768 -0.19558193 -0.35516056

fc.weight f4 [1, 1440]
00000000: fa9a 42bd 88b8 c63d df8e 6c3d a4b2 9e3e
00000010: bd5e 16bc 83a6 ad3d 5468 01be da3a c03e
00000020: deb7 31bb 2545 fcbd 500c 3abe 5ac1 10be
00000030: 3516 d7bd af66 d0bd 8e21 9c3d a742 34bd
00000040: df1c 903c 8d4d bebd 2575 2d3d 611e 673d
00000050: 62b8 ebbd 4c8f 2c3e fa5c c3bd 783e 4b3c
00000060: a172 473e 47a5 673e be47 f2bc 8260 ca3c
00000070: a665 7abc 3e96 053e a591 4fbe 2d09 73bd
00000080: 3f55 86bd af0a 8bbd 6fc1 97bd a298 fc3b
00000090: 852d 6bbd e509 37bd e69d d9bc 1d5c f9bc
000000a0: 1707 913c c327 1c3d d075 b23c f5e5 aebd
000000b0: c948 30bd 6d4e 253e 8f56 74be 107a e23e
000000c0: f141 74be 5bce ef3e ccb0 80be 8d95 493e
000000d0: 4e87 de3e 0e32 4dbe f005 3fbe 3c71 05bf
000000e0: 7a0f 053e e454 8d3e dfd1 e43e c097 a83e
000000f0: f6b5 a33e e5c4 5bbe 30ba f03d 0f29 f8bd
00000100: 8080 d53d 85cf 2e3e 574e 11be 4e41 8abd
00000110: c178 f1bd 45d4 a43e d925 87bd 3112 e1bd
00000120: 2852 2d3e 1c0d ac3d 4861 a63d e531 3dbe
00000130: e6aa 823d ac42 8d3e e5b2 413e 9910 65be
00000140: cb1f 2cbe fa72 29bd cb1b 303d 646d d63d
00000150: 8ff0 903d 7d3b 513b 4c7a 2d3e a7b4 283e
00000160: 0221 90bd 5950 053d 4718 07be ad5f 0e3e
00000170: 11a4 1f3f 87d4 d63e c4fb a3bc 4cff 283e
00000180: cd08 6cbd a29e dc3e 0fa4 823d 9e04 893d
00000190: 2e2e 853d 0d63 293e b1f6 c63e 1742 87bc
000001a0: daab 96bd b9bb 4d3e 40b8 60be dbd7 50bc
000001b0: eb16 85bd 84a3 113c 03c8 973e 0bf1 69be
000001c0: cb7d 9fbe ae2a 183c 86e0 bbbc 6856 93be
000001d0: af38 493d 4be2 933d ba87 eabc 551a fb3c
000001e0: 731d d9bd c42c 043e 5ce5 e63c 076d 7a3e
000001f0: 55f5 923e 7136 b93c 063f d73d 781b 55bc
00000200: bd98 663d 365d 98bc 5be4 0b3e 0a55 493d
00000210: 773b d83d 445b a8bc 5d41 e6bc b3ae 28be
00000220: 34f0 6a3e 5cd2 1a3f f493 d63b ebf6 61be
00000230: 4a3e 73be 0219 8ebe ddd5 0c3e c430 e53d
00000240: 3eda aa3e c86a a3bd 299f ce3e 0548 a33d
00000250: 8764 783e 4819 38be 54e9 25be 60a1 46be
00000260: c255 0a3e 5c75 0cbd 435a 9d3b 4cb4 b7bd
00000270: 5375 d2bd 88a9 4b3e bdf8 9c3d aa0f bf3c
00000280: 3e9f 473e e9ae 0fbe 6a3d 513d 0ddd c43e
00000290: 460f 1bbe 63b2 213e 8ab2 95bd e0f1 22bd
000002a0: 4e78 52bd 3b75 343d ff87 923d 1e48 68bd
000002b0: d183 27be 12f2 a7bd 1945 eebb 4243 e93d
000002c0: 553d a53b f5dd b53d 44a2 adbd cdfd 98bd
000002d0: 95f2 a73e 7206 8b3e 131d b43e 1d1b 6cbe
000002e0: d7bd 51be 514f 9fbe 33c5 e83e 783e f13e
000002f0: fad0 2ebd 72f5 af3c 807e 84be b336 de3e
00000300: b304 7b3e 046b f9bc 7458 08bd f546 2dbe
00000310: b717 02be 9c4d acbd 4ed4 1c3e 35bd 893c
00000320: 2b3d 86be 919e 59be 343e 85be f87d cbbd
00000330: 72fc e0bd 1777 38bc ac6c 0e3d 4892 d43e
00000340: 0c02 7bbd 0d5b 29be d715 a03e a7fd 543d
00000350: fb20 383d ee5c 763e 740f b5bd 6261 ae3d
00000360: 9819 74bd 376f 873e 895e d9bc 9736 51be
00000370: ebf2 163d 92b5 043e bda3 8f3e 9653 94bd
00000380: 69ae 3fbe 2050 68be 44b9 8cbe ed75 e63d
00000390: 74a8 e73e 2f84 f73e e770 cabe 7b3d 78bd
000003a0: 20c5 783e 7146 2f3d dee0 203e b35c 013e
000003b0: 4cfc 093e 2525 e53e da7b 3abe 4ce3 a7be
000003c0: b400 1dbe 4a81 983e 6200 3fbe dcd1 68bd
000003d0: a46a 20be 60ce 39be 3629 45be f6e6 51be
000003e0: 4b13 5a3c 6367 0bbe 06d7 d63e 339d 3a3e
000003f0: 07c9 9a3d 7d7c c73d 752b 463e 0334 a0bd
-0.04751108 0.09703165 0.05775344 0.30995667 -0.009177861 0.08479025 -0.12637454 0.375449
-0.002711765 -0.12317876 -0.1816876 -0.14136258 -0.105022825 -0.10175835 0.076235875 -0.044008877
0.017591892 -0.092921354 0.042348046 0.056425456 -0.115097776 0.16851538 -0.09539218 0.01240503
0.19477321 0.22621642 -0.029575225 0.024704222 -0.015283024 0.13045594 -0.20270403 -0.059334923
-0.06559228 -0.06789147 -0.074099414 0.007708625 -0.057416458 -0.04468717 -0.02656455 -0.03043943
0.017703576 0.038123857 0.021784693 -0.085399546 -0.043038163 0.16143198 -0.23861144 0.4423375
-0.2385328 0.46837124 -0.25134885 0.19685955 0.43462604 -0.20038626 -0.18654609 -0.52125907
0.12994185 0.2760383 0.4469137 0.32928276 0.31974763 -0.21461828 0.117542624 -0.12117206
0.104249 0.1707135 -0.1419004 -0.06750737 -0.1179061 0.321932 -0.06599016 -0.10989798
0.16925871 0.08400938 0.08124024 -0.18476065 0.063802525 0.2758993 0.18915899 -0.22369613
-0.16809003 -0.041369416 0.042995255 0.10470083 0.07077133 0.0031926327 0.16941184 0.16475163
-0.07037546 0.03254733 -0.13192855 0.13903685 0.6235972 0.4195902 -0.020017512 0.16503638
-0.05762558 0.43089777 0.06378948 0.06690334 0.06502949 0.16541691 0.38860086 -0.016511006
-0.07356997 0.20091142 -0.21945286 -0.012746776 -0.06498512 0.008889083 0.29644784 -0.22845857
-0.3115066 0.009287519 -0.02293421 -0.2877686 0.049126323 0.07220896 -0.028629173 0.030652205
-0.1060132 0.12907702 0.028185539 0.24455653 0.28702798 0.022608967 0.10510068 -0.013007037
0.056298006 -0.018599134 0.1366133 0.049153365 0.10558217 -0.020551331 -0.02810734 -0.16472892
0.22943193 0.6047723 0.006548399 -0.22066848 -0.2375423 -0.27753454 0.13753457 0.11190942
0.3336963 -0.07979351 0.40355805 0.07972721 0.24257098 -0.17978394 -0.16202289 -0.19397497
0.13509277 -0.03429161 0.00480202 -0.08969936 -0.10276284 0.1988889 0.076646306 0.023322899
0.1949434 -0.14031567 0.05108396 0.38449898 -0.15142545 0.15790705 -0.07309444 -0.03978145
-0.051384263 0.044057112 0.071548454 -0.0567094 -0.16358878 -0.08200468 -0.0072714207 0.113897815
0.0050427117 0.088802256 -0.08478215 -0.07470284 0.32802263 0.27153355 0.35178432 -0.23057218
-0.20482574 -0.311152 0.4546295 0.47117972 -0.042679764 0.021479342 -0.25877762 0.43401107
0.24513511 -0.030446537 -0.03328748 -0.16921599 -0.12704359 -0.0841324 0.15315363 0.016813854
-0.26218542 -0.21251895 -0.2602402 -0.09936136 -0.1098565 -0.011258862 0.034771606 0.41517854
-0.06128125 -0.1653864 0.31266662 0.051999714 0.044953328 0.24058887 -0.08840838 0.08514668
-0.05959472 0.26452038 -0.026534336 -0.2043098 0.03685276 0.12959889 0.2805461 -0.07242505
-0.18718876 -0.22686815 -0.27485096 0.11252961 0.45245707 0.48343036 -0.39539263 -0.060605507
0.24293947 0.042791788 0.1571078 0.12633018 0.1347515 0.44754902 -0.18211308 -0.327906
-0.153323 0.2978614 -0.1865249 -0.056840762 -0.1566568 -0.18145132 -0.19254002 -0.20498261
0.013310264 -0.13613658 0.41960925 0.18224029 0.07557874 0.09740541 0.19352515 -0.078224204
