model_round_9.pth (torch, 126796 bytes, 9 tensors)

conv1.weight f4 [16, 1, 16, 3]
000000 a9 18 99 bf ad de 64 3e 70 58 8d 3f 86 4e 7e bf
       -1.1960651 0.22350569 1.1042614 -0.9933857
000010 e5 47 b2 3e 23 09 ae 3e 05 67 95 bf ca 69 80 be
       0.34820476 0.33991346 -1.1672064 -0.2508071
000020 34 5a 82 be 89 86 15 bf 04 66 f0 be c5 68 2a 3f
       -0.25459445 -0.5840841 -0.46952832 0.66566116
000030 4a 56 0a bf 44 55 87 3b 3a c1 67 3e 71 45 dc 3d
       -0.54037917 0.0041300375 0.22632304 0.107554324
000040 ed c6 4e be 7b a5 b0 bd be eb ae 3e 3d 0e 57 be
       -0.20193072 -0.08625313 0.34164232 -0.21001525
000050 05 f8 fa 3e 52 65 69 3d c5 77 e1 bf 11 47 5c 3e
       0.4901735 0.056981392 -1.7614676 0.21511485
000060 00 80 d1 3e 95 8b d9 bf bf 73 a5 bd f6 07 3e bd
       0.4091797 -1.6995722 -0.080787174 -0.04639431
000070 fe 31 a9 bf 3d f1 64 bf 75 a1 2b 3f 6b a6 bc be
       -1.3218381 -0.894306 0.6704324 -0.36845717
000080 36 4e fa 3d 71 03 d2 3e 2e 27 0c bf 85 1d 06 3f
       0.12221949 0.4101825 -0.54747283 0.52388793
000090 96 9e 67 3f 91 02 34 3f 61 bf 1b 3e e0 bd b3 be
       0.9047636 0.70316416 0.15209724 -0.351058
0000a0 60 15 ec 3c 10 eb 67 bf f9 4f ef 3e bf 5e 81 3d
       0.028818786 -0.9059305 0.46740702 0.063168995
0000b0 7b 46 10 3f 61 a4 27 bf 19 ed 19 bf 48 50 1a bf
       0.56357545 -0.654852 -0.6012741 -0.6027875
0000c0 d8 c0 8d 3e 9d 30 4f be 7a 5e d1 3e f2 ce ce 3e
       0.2768619 -0.20233388 0.40892392 0.40392262
0000d0 cc 15 5f bf 4c 34 30 bf 3b 7a 84 3f b3 fa 00 bf
       -0.87142634 -0.688298 1.0349802 -0.50382537
0000e0 45 ad 5d bc bf 75 81 bf ee f7 09 be 40 7b dc 3e
       -0.01353008 -1.0114058 -0.13473484 0.43062782
0000f0 3b b8 f0 bd 94 a3 06 be 70 b5 a2 3d e9 40 98 3e
       -0.11753889 -0.13148338 0.07944763 0.29737023
000100 0f 66 75 be 19 ab c6 be dd ea 80 3f 68 33 97 be
       -0.23964714 -0.38802412 1.0071675 -0.29531407
000110 02 0e 22 bf 16 a3 fc bf 87 c2 24 bf 03 bd dd be
       -0.63302624 -1.973727 -0.64359325 -0.43308267
000120 2a 14 b2 be d9 47 d0 be 30 f3 05 bf bb 0b f7 3e
       -0.3478101 -0.40679815 -0.523242 0.48251137
000130 36 44 39 be c1 76 84 bd fd 08 0c 3f 00 6b 9e be
       -0.18092427 -0.06467963 0.54701215 -0.3094101
000140 ae c7 99 be 1e 12 a2 bf c2 d9 00 3f 70 a5 e4 be
       -0.30035156 -1.2661779 0.5033227 -0.4465747
000150 fc ec de 3e a7 95 7d 3e b2 6f ee be ae 38 0a 3f
       0.4354018 0.24764119 -0.46569592 0.53992736
000160 18 51 30 be 1c 12 6a bf df 08 cd 3b 04 82 ba be
       -0.17218435 -0.9143388 0.006257161 -0.3642732
000170 84 77 86 bf ca ea b9 bf 5f 97 ab 3f ce 44 e5 bd
       -1.0505223 -1.4524777 1.340557 -0.11194764
000180 1e 0b 54 bf 92 f4 88 bf d2 28 d5 3e 55 3b 94 be
       -0.82829463 -1.0699637 0.41632706 -0.28951517
000190 31 bb 2c 3f a5 73 0e bf 14 3d ca be da 52 c1 3e
       0.6747313 -0.5564521 -0.39499724 0.37758523
0001a0 0c c3 a0 be 18 7f f9 be 69 0a bb 3e 14 5e 07 bf
       -0.3139881 -0.48729777 0.3653138 -0.52877927
0001b0 b8 f4 78 be 1c df 0f 3f f2 32 22 bf 07 05 12 bf
       -0.24312103 0.5619981 -0.63358986 -0.5703892
0001c0 eb 1f a8 3e 88 96 1f bf 3f fb 88 bf 69 3c 9a be
       0.3283685 -0.6233907 -1.0701674 -0.30124214
0001d0 9c 27 84 be 2b ce c8 bd 6e 45 8b 3e e1 84 11 bf
       -0.2581147 -0.098049484 0.27201408 -0.5684338
0001e0 a9 58 68 3c 11 69 a2 3d 9f 31 10 bf 01 19 95 3d
       0.0141812945 0.07930196 -0.56325716 0.0728016
0001f0 3d b8 b4 3e a7 f5 c1 be e1 41 a4 3e 2b 9a 41 3f
       0.35296813 -0.3788273 0.32081512 0.75625867
000200 85 02 6c bd 6d 6b a3 be f9 59 8a 3e 5c d1 ca bd
       -0.05761959 -0.31917897 0.2702177 -0.099032134
000210 02 74 a0 bd 38 ce c6 bb 92 9f 36 bc b0 07 87 bd
       -0.07834627 -0.0060670637 -0.011146443 -0.06593263
000220 44 49 d6 3d 7e 21 a6 bc 22 68 61 bb 93 5c 33 3f
       0.10463193 -0.020279642 -0.0034394343 0.7006313
000230 1d c0 d3 3e cf 38 6d 3f 86 a7 58 be 7c d9 fe be
       0.41357508 0.9266481 -0.21157655 -0.49775302
000240 8b 66 c2 be 09 c9 40 3e 6e 8a 6a be 02 53 e6 3e
       -0.3796886 0.18826689 -0.22904369 0.44985205
000250 cc 47 1e bf bf a2 5c bd e3 cc 2b bc 30 f3 e4 3a
       -0.61828303 -0.053866144 -0.0104858605 0.0017467495
000260 42 ea 03 bf 1d 63 0a be c2 19 a9 be 39 82 db be
       -0.51529324 -0.13514371 -0.33027464 -0.4287279
000270 d4 c2 c3 be 75 87 6a 3e 84 3f 84 3e 00 26 60 bf
       -0.3823458 0.22903235 0.2582971 -0.87557983
000280 f1 1d c4 be bb ab b9 be dc 68 b3 be 2c b4 2f bf
       -0.38304093 -0.36263832 -0.3504094 -0.68634295
000290 55 d7 14 bf ef 36 3c 3e f5 56 6d bf 25 2a 16 3e
       -0.5814107 0.1838033 -0.9271081 0.14664514
0002a0 46 54 a7 3e 13 bb 81 bf 94 83 8a be e7 f5 65 bf
       0.32681483 -1.0135216 -0.2705351 -0.8982834
0002b0 c7 50 50 bd 6e eb 1b 3e ac 0a d0 bd 30 73 c6 bd
       -0.050858285 0.15226528 -0.101582855 -0.09689939
0002c0 91 f6 bc be 7f d4 eb 3d d1 fc 4c bf fb 3e 06 bf
       -0.36906865 0.1151514 -0.8007327 -0.5243985
0002d0 c9 84 2a 3f d1 c2 1c bd 35 a7 5d 3d 28 ca c1 bf
       0.66608864 -0.03827173 0.05411454 -1.5139818
0002e0 5b 9b 5c 3f 7a 14 66 3e ab a5 f6 3e 00 a2 ce 3f
       0.86174554 0.22468749 0.4817327 1.6143188
0002f0 cd 63 d0 bd 06 53 94 bd 6e 39 bd 3f 63 7b 15 3e
       -0.101752855 -0.07242398 1.4783151 0.1459785
000300 bc a4 7e be 7b 3d a5 3e 11 82 cc be a2 35 e7 be
       -0.24867529 0.32273468 -0.39942983 -0.45158106
000310 7c c9 92 3d 04 c1 38 be 8c 47 57 bf 6f 44 48 3e
       0.07167336 -0.1804238 -0.84093547 0.19557355
000320 80 d4 c6 bd c3 08 e4 bd 1e 1b 9f 3e 67 48 16 bf
       -0.097085 -0.11134484 0.31075376 -0.5870423
000330 ad ab b7 be c7 2b 2a be cf 81 4c be 7d 14 9c 3e
       -0.35873166 -0.16618262 -0.19971393 0.3048438
000340 ee 2f 82 3e ef fb 43 be 2a b4 66 3e 48 8b 7b be
       0.25427192 -0.19139074 0.22529665 -0.2456485
000350 58 ee 8a 3d 23 a0 21 be 9a 4f 16 bd bc 47 af 3e
       0.06783742 -0.15783744 -0.036697008 0.34234416
000360 d4 7f 86 bc 72 a8 81 3e cb 37 2b bf e5 1c 7e bb
       -0.016418375 0.25323826 -0.6688201 -0.0038774547
000370 10 12 72 3e 7c 14 aa bd 9c 65 0c bf e8 e6 f0 bd
       0.23639703 -0.08304688 -0.54842544 -0.11762792
000380 49 ce 97 3d 92 c7 83 bd 6e 64 64 3e df 83 f0 3e
       0.07412393 -0.064345494 0.22303936 0.4697561
000390 9b 4b fc be 96 e7 29 3f ce 02 a5 be 6b 54 94 3f
       -0.49276432 0.66369 -0.32228702 1.1588262
0003a0 bb 0a db 3f 88 fa 9e 3e ac 06 aa bf 04 38 a4 be
       1.711265 0.31050515 -1.3283286 -0.32073987
0003b0 5c 99 dc 3d 58 8a c0 bf 89 05 61 be 8a 01 4c 3f
       0.107714385 -1.5042219 -0.21974768 0.7968985
0003c0 56 08 c0 bf 12 3c 4c be 38 4e 88 be 72 e2 8e 3d
       -1.5002544 -0.1994479 -0.26622176 0.06976785
0003d0 3a c9 13 3f b6 f0 e1 bd 5c cf df 3e 5a ba 0c 3f
       0.5772892 -0.1103224 0.4371289 0.5497185
0003e0 59 a0 0d 3f 20 82 e4 3e 64 90 9c 3e c4 36 bc 3d
       0.55322796 0.44630527 0.3057891 0.09190133
0003f0 e4 3a 0f bc 38 f3 a9 bd df e9 0d bf 41 49 89 be
       -0.008742068 -0.082983434 -0.55434984 -0.268137

conv1.bias f4 [16]
000000 c3 be 9e 3d ca 06 2f 3f 46 89 a7 be 2f 97 56 3f
       0.07751229 0.68369734 -0.3272192 0.8382444
000010 f6 60 56 bf fa f1 3f be a1 0c 8a be 9e b5 3b bc
       -0.837417 -0.1874465 -0.2696276 -0.011456875
000020 bc d4 31 bf 66 e4 d9 3d 60 2c 2d bd 86 28 f5 bd
       -0.6946523 0.10639267 -0.042278647 -0.1197062
000030 93 f8 12 be 2a 1d 97 3d 67 73 af 3e e3 f6 04 bf
       -0.14352636 0.073786095 0.34267733 -0.5193922

conv2.weight f4 [16, 16, 3, 5]
000000 63 8f f2 bd 84 c5 15 3b fa 33 92 bf 79 cf 60 bf
       -0.11843755 0.0022853324 -1.1422112 -0.8781658
000010 7a e2 9a bf e1 fd 38 bf 5a c1 86 bf 92 08 86 be
       -1.2100365 -0.7226239 -1.0527756 -0.26178414
000020 1f 87 8a bf 1e c5 16 bf d7 ce a0 bf f2 07 7c 3e
       -1.0822486 -0.58894527 -1.2563123 0.24612406
000030 bd 82 af be 28 32 56 bf 90 88 57 bf 88 cf 2a 3f
       -0.34279433 -0.8367028 -0.8419275 0.6672292
000040 e0 57 fe be 0b db b2 bf 81 26 5a bf 26 70 39 bf
       -0.49676418 -1.3973097 -0.85215 -0.7243675
000050 e6 b6 f1 be 48 c7 a3 3d 57 c3 99 be 48 cf e9 be
       -0.47209853 0.07996994 -0.30031845 -0.45665956
000060 d8 41 fe be db 52 5c 3c a5 23 54 bd f5 55 19 be
       -0.4965961 0.013447489 -0.051791806 -0.14974196
000070 47 c6 a2 be ff 5f 8b be 2d 0f 1b bf 5d 72 a6 be
       -0.317919 -0.27221677 -0.6057003 -0.32509127
000080 b2 f8 45 bf ed 16 40 bf 8a f9 95 ba a2 f6 ca 3d
       -0.77332604 -0.7503498 -0.0011442166 0.09910323
000090 dc f7 b4 3e d2 07 9d be 3b 30 f0 be ed d9 04 be
       0.35345352 -0.3067003 -0.46911797 -0.12973757
0000a0 fa 44 84 be 1a 88 53 be 10 75 42 bf ab 20 bc 3e
       -0.25833875 -0.20657387 -0.75959873 0.36743674
0000b0 7e 13 15 3f b9 35 02 3e 17 2a f9 be 91 b3 88 be
       0.5823287 0.12715806 -0.48664925 -0.26699498
0000c0 df 70 53 bc c1 22 28 be 31 87 18 bf 21 22 a6 3e
       -0.012905329 -0.16419508 -0.59581286 0.32447913
0000d0 71 26 41 bf a4 0e 82 3e 5f 7e d1 3e bd 60 72 3f
       -0.7544928 0.25401795 0.40916726 0.9467886
0000e0 6b ab ce be 73 4a e7 bd 24 26 71 bd f5 b6 95 3e
       -0.40365157 -0.11293497 -0.058874264 0.29241148
0000f0 5c 64 88 bf 5e 50 39 be aa 49 df be a2 8c 28 bf
       -1.0655627 -0.18097064 -0.4361089 -0.6583959
000100 34 51 e4 bd 11 14 f1 3d 96 9c 94 bd 37 e8 02 3e
       -0.11148301 0.117714055 -0.07256429 0.12783895
000110 4f e9 c2 3e 58 83 48 bd 50 ca 39 bf 71 76 a9 3d
       0.38068625 -0.048953384 -0.7257433 0.08274544
000120 dd 65 fa bc 2e d9 93 3d 6a 92 d2 be 5d f8 28 bf
       -0.03056615 0.07219158 -0.4112733 -0.6600397
000130 9d f0 52 3e 4b b6 6a be c8 61 2d bf 1a c0 e1 3e
       0.20599599 -0.22921102 -0.6772733 0.44091874
000140 37 c6 81 bf 97 a5 e9 3d fa 73 65 3f 04 5d d6 be
       -1.0138615 0.11408537 0.8963009 -0.4186784
000150 2b e1 67 be 9e cd 5e be cf d9 9b be ad c3 05 3d
       -0.22644489 -0.21758124 -0.30439612 0.032657314
000160 96 25 d4 3d e8 d8 61 3e f4 90 b2 bd a7 8c 9d bd
       0.103587314 0.220554 -0.08719054 -0.07692843
000170 5e 80 2d be c3 06 0a c0 c7 0a 72 3e da ce b5 bf
       -0.169435 -2.1566627 0.23636924 -1.4203751
000180 bf c7 3e 3f c8 a9 27 3f 68 de 53 bf fe 2e 00 bf
       0.7452354 0.6549344 -0.8276124 -0.50071704
000190 74 d3 14 be cd d5 a4 bf 33 3d 23 bf 07 83 41 3e
       -0.14533788 -1.2877747 -0.6376526 0.18897639
0001a0 e8 61 9e bf 79 33 d7 3d a9 35 82 be 89 c1 be bf
       -1.2373629 0.105078645 -0.25431564 -1.4902812
0001b0 05 15 05 3f f9 0d 07 c0 28 18 84 3e cf 7b 0e be
       0.519852 -2.1102278 0.2579968 -0.13914417
0001c0 b7 b7 50 3e 8f be 1d be 30 ed 86 bf f7 27 74 bf
       0.20382582 -0.15404724 -1.0541134 -0.9537348
0001d0 47 e0 21 bf 1a 10 29 3e 0e 7b a9 be c0 41 0f bd
       -0.63232845 0.16510049 -0.33101696 -0.034974813
0001e0 80 73 d6 3e ba ad 81 3e 21 68 1f be a3 27 fa 3c
       0.41884995 0.25327855 -0.15567066 0.030536478
0001f0 62 c5 cb be 53 5e 8a 3d 32 3d 92 bf 4d e1 f1 3d
       -0.3979903 0.06756272 -1.1424925 0.11810551
000200 1a 62 3b 3d 02 91 2f bf 00 93 cc be a1 98 3e bf
       0.045747854 -0.6858064 -0.39955902 -0.74451643
000210 a4 d8 1c 3c c8 50 76 bc 73 ce 67 bf 44 7b 1b bf
       0.0095731355 -0.015033908 -0.9054939 -0.60734963
000220 c7 01 20 bf 6b d5 18 bf 6a e1 8a bf 3e 96 57 3d
       -0.6250271 -0.5970065 -1.0850041 0.052633516
000230 69 68 27 bd 87 30 26 bf e5 dd 47 3d 9a 65 58 bf
       -0.040871058 -0.64917797 0.0487956 -0.8453003
000240 48 30 5a be 14 40 49 bf 61 d7 6a bd f3 6f 1f 3f
       -0.2130748 -0.786134 -0.057334308 0.62280196
000250 3c bb 47 bf 82 82 64 be a2 93 85 bf a9 2d e3 bd
       -0.7802007 -0.2231541 -1.0435679 -0.11092693
000260 bf 3b d0 be c6 4e 9f be 98 fd d6 bc 65 47 0b 3f
       -0.40670583 -0.31114787 -0.02624397 0.54405814
000270 4c 41 00 3f 85 1d 32 bf fe 9d 4d bd 8b 75 2a bf
       0.50099635 -0.69576293 -0.0501995 -0.66585606
000280 5a aa a6 be 98 c1 26 bf 06 35 13 be a5 41 f7 3d
       -0.32551843 -0.6513915 -0.14375696 0.120730676
000290 95 f8 20 3f d8 6e cf be ff 36 94 3d 2a bb aa be
       0.62879306 -0.40514255 0.07237052 -0.3334592
0002a0 84 19 09 be 46 53 af 3e 10 b2 73 bf 46 e7 a4 3c
       -0.1338864 0.3424322 -0.95193577 0.020129811
0002b0 5e 72 f7 3e c0 6f 6c be dc 4b 0f be 4c 7a 5b bf
       0.48329443 -0.23089504 -0.13993782 -0.85733485
0002c0 8c 77 00 be 59 7a 41 3d 02 c0 c4 be ba e1 33 be
       -0.12545604 0.04723582 -0.3842774 -0.17566577
0002d0 bf 0a 92 bf 78 a5 96 3e cb 9a 0e 3f d3 75 81 bf
       -1.140953 0.29423118 0.55704945 -1.0114082
0002e0 ff be f4 be 77 70 ec bf 2b 65 12 bf 46 cb ec 3e
       -0.47801968 -1.8471822 -0.5718562 0.46248835
0002f0 7e d3 06 3e 14 c3 8b 3d 63 43 a5 bf 02 f6 32 be
       0.13166615 0.068243176 -1.291119 -0.17476657
000300 a0 5b dd be 5e d4 17 be bc a7 6e be 68 05 d3 bd
       -0.43233967 -0.14827105 -0.23306173 -0.103037655
000310 d4 bd 38 bf 5b 1d e1 be b5 8a 9d be 1b 67 1d be
       -0.72164655 -0.4396771 -0.30769888 -0.15371363
000320 2a ef de 3d 49 48 c3 3e 5e 87 e5 be e5 94 cd be
       0.10885461 0.38141087 -0.4482984 -0.4015266
000330 92 b5 a1 3e 52 5e 4b 3e 3a 83 81 3d 37 f8 41 be
       0.3158384 0.19860199 0.063238576 -0.18942343
000340 79 cf 18 3e 9a f9 cf be fc d6 92 bf d9 ec 22 3d
       0.14922895 -0.40620118 -1.1471858 0.039776657
000350 98 0e 41 3d 95 49 5c bf f6 0c 85 be 86 02 a9 be
       0.04713306 -0.8604978 -0.2598645 -0.33009738
000360 0c 7a 60 bf bb 18 ea 3d 30 f5 fd bd 4c d9 bb be
       -0.8768623 0.11430498 -0.124002814 -0.36689222
000370 8f f4 3e bc 57 b0 e6 be 54 c5 1e bf e5 db 80 be
       -0.011654987 -0.45056412 -0.6201985 -0.25167766
000380 7e 8c d3 bd c8 78 ca be e8 01 9b be 0e 5f 69 3c
       -0.10329531 -0.39545274 -0.30274892 0.014243854
000390 41 96 bf 3d ec c7 13 bf 57 b4 0f bf 3f eb d2 be
       0.093548305 -0.5772693 -0.5613455 -0.41195104
0003a0 71 65 ab 3e 4a 92 97 be cb b3 16 bf 6f e0 ce be
       0.3347583 -0.29603797 -0.5886809 -0.40405604
0003b0 a4 ae bd 3d 0a b9 f1 bb 60 4b 8a be 8e 41 d0 be
       0.09261826 -0.0073767947 -0.27010632 -0.40675014
0003c0 58 cf f1 bd e5 fc bf 3d 32 a6 84 bf 07 45 fa be
       -0.11807126 0.09374408 -1.0363219 -0.4888079
0003d0 9a 4d 32 bf 85 9f d0 be bb 3b 8c be ae 3a a9 bf
       -0.6964966 -0.40746704 -0.2738932 -1.3221033
0003e0 b6 c5 48 bf 70 d1 1f 3e 68 ae 64 bf e8 18 67 bf
       -0.7842668 0.15607238 -0.8932862 -0.9027238
0003f0 45 69 87 bf 39 65 f1 be 72 5c ca bd 1a 81 75 be
       -1.0579001 -0.4714754 -0.09880914 -0.2397503

conv2.bias f4 [16]
000000 0f b1 a5 3e 8a 46 ba be 06 79 e9 bd f7 f0 96 bf
       0.32361647 -0.36381942 -0.114000365 -1.1792287
000010 01 7c 46 be 5e 37 64 bc 45 a8 bf be 7b 62 30 bf
       -0.19383241 -0.013929216 -0.37433067 -0.6890027
000020 1d 20 31 be 79 25 9d bd 1b 01 62 bf 4d a4 13 bf
       -0.17297406 -0.07673163 -0.88282937 -0.5767258
000030 cf 77 83 bf f9 b0 43 bf 09 c3 65 bd d3 b3 ef be
       -1.0270938 -0.76441914 -0.056094203 -0.46816882

conv3.weight f4 [32, 16, 8, 3]
000000 8d 26 9f be cb 58 a6 be 40 ce c6 3d e6 e8 b0 be
       -0.310841 -0.3248962 0.09707308 -0.34552687
000010 e3 2f 03 bf 00 4d 8e be ce a9 1e bf 93 c0 1e be
       -0.51244944 -0.2779312 -0.6197785 -0.15503149
000020 16 41 b9 be d2 0e 61 bf 99 70 17 bf cb 7b 61 bf
       -0.3618247 -0.8791324 -0.59156185 -0.8807952
000030 89 dd 39 bf 40 a7 cb bd e8 96 e4 3d 97 7c 45 3e
       -0.7260366 -0.0994401 0.111615956 0.19285809
000040 b0 34 e5 be de 57 4f be 5b f6 90 3e 21 39 1b be
       -0.4476676 -0.20248362 0.28312954 -0.15158512
000050 d3 b2 18 be 5f 03 93 3d 5e c7 c9 bd 88 f6 ea bd
       -0.14911966 0.07178377 -0.098524794 -0.11472803
000060 a9 75 5c 3f 95 a4 f8 bd 5d 62 a1 be 56 40 9d 3e
       0.86117035 -0.121407665 -0.31520358 0.30713147
000070 0a c9 1c be 2f b3 1c be fe b9 8d be 38 7d 32 be
       -0.15311065 -0.15302728 -0.27680963 -0.1743058
000080 6f e4 50 be 21 ca fd be ac d6 d1 3d ca 20 87 bf
       -0.2039964 -0.49568275 0.102460235 -1.0556881
000090 22 7f 47 be 2b 5d 95 be 9a dc c3 be 23 5a 9c be
       -0.19482091 -0.29172644 -0.38254243 -0.3053752
0000a0 30 f2 bf 3c 4c d7 18 be 7f 59 c2 bd 06 8b e1 be
       0.023430914 -0.14925879 -0.09489726 -0.4405138
0000b0 f9 a3 c0 3e 9c 7b 9f 3d b8 f7 ad bd b4 f1 a8 3e
       0.376251 0.077872485 -0.08494514 0.32996905
0000c0 b0 5a b4 be 59 a5 f7 be 76 10 3f be 73 b6 fc be
       -0.3522544 -0.48368338 -0.18658623 -0.49357948
0000d0 bc 70 a3 3e c5 20 15 be f2 f9 04 3e 30 ec 28 be
       0.31921947 -0.14563282 0.12985972 -0.16496348
0000e0 05 8b 26 3d 9c 39 55 be 7b 3e 13 bf 70 8e 94 be
       0.040659923 -0.20822757 -0.5751721 -0.2901492
0000f0 e8 59 c8 be e4 ea 89 3c d3 ce a5 be 7f 3c 0e bf
       -0.39131093 0.016835637 -0.32384357 -0.5556106
000100 1d 34 4a 3e 53 ef 1f 3e d7 89 db be 8c 5c a9 3e
       0.19746442 0.15618639 -0.428786 0.3307842
000110 72 c4 e0 bd 26 57 42 bd 85 2d 89 be ee f4 37 bf
       -0.10974969 -0.047446392 -0.2679254 -0.7185811
000120 e7 dd dc be b2 fd 28 bf 35 7e 3f bf 23 3c c4 be
       -0.43138048 -0.6601211 -0.7480195 -0.3832713
000130 16 44 eb be 98 50 1c bf 95 f5 01 be 36 22 59 bf
       -0.45950383 -0.61060476 -0.12691338 -0.84817827
000140 8a c7 3c 3f fb 28 5c bf e6 c8 48 bf 03 3f 26 bf
       0.7374197 -0.8600003 -0.78431547 -0.649399
000150 d7 7d 97 be b0 80 4c bf 96 09 02 bf 7b 0a 80 bf
       -0.29588196 -0.7988386 -0.50795877 -1.0003198
000160 2a b7 d1 bd df 51 0d bf c3 4e e2 be 4d af a4 be
       -0.10240014 -0.5520305 -0.44200715 -0.32164994
000170 03 9d 49 bf 5d 0e 3f bf 48 d7 f9 be 21 84 7e be
       -0.78755206 -0.7463129 -0.4879706 -0.2485509
000180 d3 de ce be 63 bc 55 bd e2 88 23 be 50 9b be be
       -0.40404376 -0.052181613 -0.15970185 -0.3722787
000190 8b dd 35 bf 59 b4 19 3e 42 98 ac bd 0d f2 45 be
       -0.7104117 0.15010203 -0.084274784 -0.19330616
0001a0 79 8f 49 be 4a 26 85 3c 74 fe 08 bf f7 1c 21 ba
       -0.19683637 0.01625361 -0.53513265 -0.00061459787
0001b0 d1 2a 82 be 4c 39 b1 be 6c 66 00 bf 9c dc d4 bd
       -0.2542329 -0.34614027 -0.50156283 -0.103936404
0001c0 68 c9 25 be df 23 44 be da bb d2 3d 66 3d 5b 3d
       -0.16190112 -0.19154309 0.10289736 0.05352535
0001d0 28 9a 00 be b9 e2 71 bd e1 1b 94 bb f5 94 0d be
       -0.12558806 -0.05905411 -0.004519925 -0.13826354
0001e0 d3 b1 84 bf 73 43 8c bc b4 19 8e bf d0 c6 93 be
       -1.0366768 -0.017122006 -1.1101594 -0.2886262
0001f0 26 bb 2b 3f 43 c7 1c 3e b4 a5 2d 3c 6d b9 f8 be
       0.6708244 0.15310387 0.010598589 -0.4857897
000200 1b 5d 24 bf 3a 6e 8c bf 73 a6 ff bc 1c 7d 8e bd
       -0.6420457 -1.0971138 -0.031207299 -0.069574565
000210 a1 b9 58 bc 0e 90 0b be 29 03 45 bd 85 22 74 3d
       -0.013227851 -0.13629171 -0.048098717 0.059603233
000220 12 de 79 3d 00 40 62 bc 86 a8 24 bf e9 d4 26 3e
       0.0610028 -0.013809204 -0.64319646 0.16292156
000230 c3 d1 ea bd 2f 01 7a bd a0 cc 43 3d da 2b 7a bf
       -0.1146579 -0.061036285 0.047802567 -0.9772316
000240 3a 41 9f bd 1d 3b 76 be 88 51 aa be da 2a 25 3f
       -0.07776113 -0.24045987 -0.33265328 0.6451851
000250 0e b7 ae be 02 13 96 bd e3 17 b5 be 23 b2 03 bf
       -0.34124035 -0.07327844 -0.35369787 -0.5144369
000260 2e 76 cc be 9c 6e 9c be 48 67 19 bf dd ce 40 bf
       -0.39933914 -0.30553138 -0.5992322 -0.7531565
000270 0f 47 85 be f1 b2 ba be e7 b5 ab be b2 28 8d bd
       -0.26030776 -0.36464646 -0.33537218 -0.06892528
000280 5b 98 9c be e7 39 bf be 6e 07 3b 3e 7c d1 50 be
       -0.30584988 -0.37348863 0.18264553 -0.20392412
000290 f2 35 d5 be 57 6b ac be 55 72 ab be bd 80 bb be
       -0.4164272 -0.33675644 -0.33485666 -0.36621657
0002a0 de 49 92 3e 38 17 21 3e f2 c8 0d bf 62 8d ef bd
       0.2857198 0.15731514 -0.55384743 -0.116968885
0002b0 64 d5 a2 be 7a 29 57 bf 39 2a 00 bf 7a 9d 57 be
       -0.3180343 -0.84047663 -0.50064427 -0.21056166
0002c0 03 bf 90 be b7 a3 14 bf 48 81 ae be 5f 11 84 bd
       -0.2827073 -0.5806231 -0.3408301 -0.06448626
0002d0 d8 13 98 be 99 ac 04 bf 61 de fd bd 56 9e 37 3e
       -0.2970264 -0.51825863 -0.12395931 0.17931494
0002e0 dd 78 2d 3d 67 31 0e be e2 65 cb bd c0 4d 8e 3e
       0.042351592 -0.13886033 -0.09931542 0.27793694
0002f0 1f 1e 9f be bd 73 94 bf 58 99 d5 be aa 94 21 bf
       -0.31077668 -1.159782 -0.41718554 -0.6311747
000300 2b 52 0b be 15 1d 26 be 2f 4f fd be 2f f1 72 3e
       -0.13605563 -0.16222031 -0.49474475 0.23724817
000310 66 50 35 be 96 dd 97 be c4 93 ca be 06 74 df bd
       -0.17706451 -0.29661244 -0.3956586 -0.109108016
000320 95 14 12 be 2e 9e 38 3e ed 30 81 be bf bd 3b be
       -0.14265664 0.18029091 -0.2523264 -0.18334101
000330 aa 3a 05 be 08 6f a2 be d9 70 66 bf be 15 7e 3b
       -0.1301066 -0.31725335 -0.9001594 0.0038770284
000340 26 de 4c 3d 38 bf b3 be 03 a4 54 be d5 15 9a be
       0.050016545 -0.35106826 -0.2076569 -0.30094782
000350 12 f9 94 bf 19 90 48 3d dc 39 f5 bc 58 f9 16 bf
       -1.163851 0.048965547 -0.029934816 -0.5897422
000360 d2 e1 15 bd fb 48 03 be 82 e3 8d be e6 20 1a bf
       -0.036592312 -0.12820809 -0.27712637 -0.6020645
000370 88 4f 07 bf aa fb d0 bd a8 d5 4c bf 1d dc 0d bf
       -0.5285573 -0.10204251 -0.80013514 -0.5541399
000380 37 0b 5d 3d ae dd 91 3d 3d 90 2f 3e ac c9 28 3e
       0.053965773 0.0712236 0.17144866 0.16483182
000390 72 53 c0 3c 48 83 ca 3d d9 0e 23 3f d9 92 6a be
       0.02347729 0.09888321 0.6369453 -0.2290758
0003a0 d3 b7 4a bf 3a c9 12 be 3f 93 fc bc cb 70 eb bc
       -0.79186743 -0.14334574 -0.030831931 -0.028740307
0003b0 86 de 9c be 09 23 ad be 9e 08 9d bd 84 30 9d bd
       -0.30638522 -0.33815792 -0.07667659 -0.07675269
0003c0 d7 8a e1 be 80 36 00 bf 6b b2 48 bf d3 4d ba be
       -0.4405124 -0.5008316 -0.78397244 -0.363875
0003d0 a3 bf 29 bf d5 5e d5 bd 04 ff 0a bf 37 82 7e be
       -0.6630804 -0.104184784 -0.5429537 -0.2485436
0003e0 8e fd 87 bf d6 58 01 3e 32 46 d8 bd 4d 76 1f bf
       -1.0624254 0.12631544 -0.10560264 -0.6228989
0003f0 d7 7a ca bd 49 4b 1d be 3c c1 23 bf 00 41 18 bf
       -0.09886711 -0.1536075 -0.6396673 -0.5947418

conv3.bias f4 [32]
000000 b7 b7 08 bf 86 92 26 3e a9 2d 15 bf e1 a3 c3 be
       -0.53405327 0.16266832 -0.58272797 -0.38210967
000010 ea f0 58 bf ad 1e 56 bf 58 6a b5 bf 99 7d 4b bf
       -0.84742606 -0.8364056 -1.4173079 -0.7948852
000020 bf 4b f1 3e a9 a2 80 3d 0d b3 3a 3f 12 33 7a be
       0.47128102 0.06281025 0.7292946 -0.24433544
000030 f3 16 18 bf 34 ab bc be 36 25 48 bf 18 0f f1 bf
       -0.5941002 -0.36849368 -0.7818178 -1.8832731
000040 9e 12 74 3f 85 ff 99 bf 87 60 9d bc 09 cc 1a bf
       0.9534091 -1.2031103 -0.019211067 -0.6046758
000050 5f 94 72 3f 51 c1 ba be fd db 7f be 0a 29 df 3d
       0.94757646 -0.36475614 -0.24986263 0.108964995
000060 25 88 fd be ae e9 be bf ff 22 11 bf 76 38 6e bf
       -0.49517933 -1.4915063 -0.56694025 -0.930549
000070 33 6c 38 3f 93 ca 24 bf e3 db 1a bf 8e a2 66 3f
       0.720401 -0.64371604 -0.6049177 0.9009179

conv4.weight f4 [32, 32, 4, 3]
000000 97 c4 ab bd a0 45 70 be f0 19 05 3e 82 dd c1 be
       -0.08387106 -0.2346406 0.12998176 -0.3786431
000010 87 75 6e bd 0f 05 c9 be d5 e0 aa be af de 5c be
       -0.05821755 -0.39261672 -0.33374658 -0.21569322
000020 7a e4 8c be 8b 12 b5 be c8 1e 00 be 85 65 4b bd
       -0.27518064 -0.3536571 -0.12511742 -0.049657363
000030 81 23 3e be 34 c0 7e bb a7 d6 31 bc db 3f 8a 3d
       -0.18568231 -0.0038871886 -0.0108544 0.06750461
000040 42 c8 45 bd 20 d8 1a be 74 26 76 be 76 20 1a bd
       -0.048286684 -0.15121508 -0.24038106 -0.037628613
000050 d8 31 b1 be 59 2a 82 bd 5d 66 71 be cf 53 e8 be
       -0.3460834 -0.063557334 -0.23574205 -0.4537644
000060 df 66 aa be 7a 31 e9 3c 08 a2 98 bd 42 16 87 be
       -0.3328161 0.028465975 -0.0745278 -0.2638417
000070 5c e9 e4 bd cf c8 fd bd 3a 4f ed bd d7 05 cd be
       -0.11177322 -0.12391817 -0.11587377 -0.40043518
000080 af 61 12 be 7a 5f 43 bd 8f c0 43 be 10 48 39 be
       -0.14295076 -0.047698475 -0.19116424 -0.18093896
000090 0e 25 02 bf d2 0f e6 3b f4 c7 29 3e ca de 93 bb
       -0.5083779 0.007020929 0.16580182 -0.0045126425
0000a0 bc 65 ba be 59 86 44 3e dd 2f d1 bd c5 c3 c9 3d
       -0.36405742 0.19191875 -0.10214207 0.09851793
0000b0 fd 1a 45 be 6f 77 a4 3d 8b 22 e4 be 27 50 f3 3d
       -0.19248576 0.08030593 -0.44557604 0.11880522
0000c0 74 58 a1 3e 48 55 bf be e3 f3 26 be 1f b6 54 bc
       0.31512797 -0.37369752 -0.16303973 -0.012982874
0000d0 77 8d 0a bd 58 6b 88 be 91 1f 8b bd ac aa 85 be
       -0.033826318 -0.26644397 -0.0679313 -0.26106775
0000e0 05 7b a3 bd 23 05 79 bd b0 7c d9 be cc 13 b1 be
       -0.079824485 -0.060795914 -0.42477942 -0.34585416
0000f0 38 87 8c be 9b 33 13 be 0b 00 68 3e 04 2b c0 bd
       -0.27446914 -0.14375155 0.22656266 -0.093832046
000100 cb 3a 74 bd eb 22 71 be 98 33 f6 3d eb 42 9e be
       -0.05962638 -0.23548476 0.120215595 -0.3091043
000110 6f d1 8d 3c 01 77 a9 be 5f 90 05 be ac 67 41 3d
       0.01731178 -0.33098605 -0.13043354 0.04721801
000120 b4 1a b1 be 61 44 2e be a6 63 ae be f2 2c 9a be
       -0.34590685 -0.17018272 -0.340604 -0.30112416
000130 77 4d ed bd 18 a7 e4 bd bc 66 5b be ee b1 7e be
       -0.11587041 -0.11164683 -0.21425909 -0.24872562
000140 8b 59 a8 bd d0 8e 9c be aa df 9d 3c c3 01 17 bd
       -0.08220204 -0.30577707 0.01927169 -0.036866914
000150 7c 9a 70 be 45 87 6b be 3e df bb bd 28 ae ee bd
       -0.23496431 -0.2300082 -0.091734394 -0.116543114
000160 9e ac b6 be 6b f8 ab be 25 25 58 be c1 14 bb bd
       -0.3567857 -0.33587965 -0.2110792 -0.09134818
000170 f8 41 03 be f2 0a ad be f2 ab 1f 3e 5d b8 4f be
       -0.12818134 -0.33797413 0.15592936 -0.20285173
000180 80 6b 43 3e ad 28 16 3e 54 22 b6 be 1e 2b 34 bd
       0.19083977 0.14663954 -0.35573065 -0.043986432
000190 c0 94 a6 be 2a 84 e4 be ce 60 8e bd 51 9e 8b be
       -0.32535362 -0.44632083 -0.06952058 -0.27269223
0001a0 f0 9c 67 bd 04 d1 eb be 38 19 2b bd f4 42 52 be
       -0.05654615 -0.46057904 -0.041772097 -0.20533353
0001b0 68 98 dd bd 39 48 99 bd 34 50 9d be 8d 23 8a be
       -0.10820085 -0.074844785 -0.30725253 -0.26980248
0001c0 3a 72 4a be bc 41 96 bc 0d 88 3b be 61 91 e2 bd
       -0.19770136 -0.018341891 -0.18313618 -0.11062885
0001d0 9b 9c 22 be 5a 2f 13 be 25 f1 22 be f3 76 d3 bc
       -0.15880053 -0.14373532 -0.15912302 -0.025813555
0001e0 3a 39 41 3e 52 73 0b be aa 37 ae 3d 96 39 39 be
       0.18869486 -0.1361821 0.08506711 -0.18088374
0001f0 fa d0 ef 3d 9c 71 16 be 67 1b ce be b9 f0 3c be
       0.11709781 -0.14691776 -0.4025528 -0.18451203
000200 2d c5 01 bf f1 af ce bd 33 b9 91 be a8 01 c2 be
       -0.5069149 -0.10092152 -0.28461608 -0.3789189
000210 b5 91 87 bd 84 d3 ab 3c cf b6 df 3d d2 80 83 be
       -0.06619588 0.020974882 0.1092354 -0.2568422
000220 b8 78 d9 be f2 70 81 be 3d 32 63 be 69 56 b2 bd
       -0.42474914 -0.25281483 -0.22187133 -0.08707888
000230 af 4a 5e be ee 56 ee be 4d b8 74 be 86 6a 2d 3e
       -0.21708177 -0.46550697 -0.2389843 0.16935167
000240 6d b0 2c be 0f 76 bb be b1 5b ba 3d 7b bb 72 be
       -0.16864176 -0.3661351 0.0909952 -0.2370433
000250 74 7e 53 bd 1c 0d 16 be b7 dd 56 be 6e fb a4 be
       -0.051634267 -0.14653438 -0.20983015 -0.32223076
000260 7d ef d3 3c 48 f0 ae bd 98 58 13 bc ab 46 d6 be
       0.025871033 -0.08541924 -0.00899329 -0.4185079
000270 2a f9 cb be 69 05 e5 bb e4 e2 42 be 8b e6 e5 bd
       -0.39838535 -0.0069891703 -0.19031864 -0.11225613
000280 6c 7e 27 be 79 56 d1 bd b2 90 ae bd 3e a9 97 be
       -0.1635682 -0.102215715 -0.08523692 -0.2962131
000290 fc eb 80 be 72 3a 89 ba 7f 36 98 bd a8 38 72 be
       -0.25180042 -0.0010469689 -0.07432269 -0.23654425
0002a0 8f 4e 84 be 9b 18 8c be d6 b0 47 be 4c a9 0b be
       -0.25841185 -0.27362522 -0.19501051 -0.136388
0002b0 dd 0e e1 3d b6 8e 0b 3e 64 3d 22 be 37 d8 19 be
       0.10989163 0.13628659 -0.15843731 -0.15023886
0002c0 f3 b3 29 be 95 c0 18 be f2 4c 95 be ca 93 89 3c
       -0.16572551 -0.14917214 -0.29160267 0.016794104
0002d0 89 47 d2 3d aa 05 50 be 47 90 8a 3c f6 16 b3 be
       0.102675505 -0.2031466 0.0169145 -0.34978455
0002e0 0e 58 be be 0c d0 ce be c1 99 b4 3d 62 29 1c be
       -0.37176555 -0.40393102 0.08818389 -0.15250161
0002f0 7e 16 b0 be cd 1f 0f bf 82 cb a4 be 1a 21 d8 be
       -0.3439216 -0.559079 -0.32186514 -0.42212754
000300 7f 7a 3a 3d c5 d5 83 3c ee 0e d8 bd 98 c3 24 be
       0.045526978 0.016093144 -0.105497226 -0.16090238
000310 e6 1b 89 bc 21 fb 21 3e 93 b2 ef 3c 31 d6 07 be
       -0.016736936 0.15818454 0.029259956 -0.13265301
000320 7b b5 f0 bc 9f 36 b7 bd a2 9b b5 3d 90 da cc be
       -0.029383412 -0.08945965 0.08867575 -0.400105
000330 91 9e e7 bd 52 50 c6 bd 9c 17 e3 bd c9 07 92 be
       -0.11309541 -0.09683289 -0.110884875 -0.28521565
000340 67 84 05 bf d5 69 ed be 61 f3 ac be 06 2d bf be
       -0.52155155 -0.46369806 -0.33779433 -0.37339038
000350 ee 47 28 be 8f 6a 3d 3d a3 98 4b be e9 a5 0c bf
       -0.16433689 0.0462442 -0.19882445 -0.5494066
000360 8c b7 75 be df ba bb bd 31 f2 1d 3e 29 ab 39 bd
       -0.23995799 -0.09166502 0.1542442 -0.045329247
000370 77 00 4b be b9 b8 f0 bc ab 08 9a be 69 90 63 be
       -0.19824396 -0.029384958 -0.30084738 -0.22223057
000380 9a e7 48 be d1 af 06 be 6a 9e d2 be 01 48 2e be
       -0.19619599 -0.13153006 -0.41136485 -0.17019655
000390 d3 33 88 bd 6d 71 2c bd 30 ba 07 be fb ea cd be
       -0.0665051 -0.04210036 -0.13254619 -0.40218338
0003a0 ec 91 90 be 7a e9 53 be d7 01 68 be af e6 2c be
       -0.2823633 -0.20694533 -0.22656952 -0.16884874
0003b0 99 e5 68 bd ef c8 b0 be e5 e7 48 be 4b 1c 97 bd
       -0.056859586 -0.345283 -0.1961971 -0.07378443
0003c0 b9 10 b7 be 36 76 b8 be 2e 90 1b bd cb ac a9 be
       -0.35754946 -0.36027688 -0.037979297 -0.33139643
0003d0 7d 85 9c be a9 90 bc be 15 b8 bd be 13 0c 30 bc
       -0.30570593 -0.36829117 -0.37054506 -0.010745066
0003e0 76 73 e7 bc 8e 8c 86 3c fa 89 ad be f3 cb 69 be
       -0.028253298 0.016424444 -0.3389433 -0.22831707
0003f0 5a 07 36 be ac 41 80 bd 0e ba 95 bc d7 4c f2 be
       -0.17776242 -0.06262526 -0.018277194 -0.4732425

conv4.bias f4 [32]
000000 48 ff 00 bf c1 58 b2 be c7 79 b9 be 61 2e de be
       -0.5038953 -0.3483334 -0.3622572 -0.4339476
000010 0e cb 2d be 95 d1 ea be cc 26 d8 be ae 08 23 3c
       -0.1697199 -0.45863023 -0.422171 0.0099508
000020 71 e4 97 be 0a 13 91 be 3c b2 75 3e 08 91 a8 be
       -0.29666474 -0.28334838 0.23993772 -0.3292315
000030 ae c0 3b be d9 e7 53 3e f2 a7 11 bf f0 1a 1c 3e
       -0.1833522 0.20693912 -0.5689689 0.15244651
000040 f2 b4 d9 be 97 3d 01 bf 5f 44 4e be 54 b5 4f be
       -0.42520863 -0.50484604 -0.20143269 -0.20284015
000050 af e0 7f bd 6b e5 b7 3d 17 9f 89 be f6 73 e5 be
       -0.062470134 0.08979305 -0.26879188 -0.44815034
000060 fc 63 a3 be 37 80 07 bf 92 77 b0 3d 72 aa 7b be
       -0.3191222 -0.52930015 0.08616556 -0.24576738
000070 35 00 e0 be 2a dd 0f bf 23 e3 80 be 61 9a db be
       -0.43750158 -0.56196845 -0.25173292 -0.4289122

fc.weight f4 [1, 1440]
000000 77 86 8a be 1d 85 da 3d 3a 31 4f 3e 33 f7 7d 3e
       -0.27055714 0.106699206 0.20233622 0.2480133
000010 9a e7 62 3b 8d 59 de 3d bd c8 93 be a2 37 f1 3e
       0.0034622909 0.10856924 -0.2886409 0.47112757
000020 b9 d8 46 bd b3 f1 38 3e 0e b2 50 be 02 91 33 be
       -0.048546527 0.18060951 -0.20380422 -0.17535785
000030 17 cb 3c be 0e c4 11 be 87 c8 0a bd a5 d8 5c bd
       -0.18436848 -0.14234945 -0.033882644 -0.053917546
000040 e6 9e 39 bd 11 7a d0 bd 91 09 fe bc 93 84 79 3e
       -0.045317553 -0.10179532 -0.031010421 0.2436698
000050 1b f8 4d be 65 af 48 3e 6b 44 18 be 66 74 ae bd
       -0.20114176 0.19598158 -0.1486985 -0.08518295
000060 81 1e 3b 3e e5 01 48 3e 3d 93 ce bd 54 83 d1 bc
       0.18273355 0.19531973 -0.10086677 -0.025575317
000070 75 51 03 3e 81 93 bb 3d 7b 90 46 be af fc 10 be
       0.12824042 0.091589935 -0.19391052 -0.14158891
000080 2f 3e 89 bd 55 2b bf bd b5 f0 38 be b5 5b d0 3d
       -0.06701314 -0.09334437 -0.18060572 0.10173742
000090 e6 64 4d be 0e 4f 24 bd eb f7 10 3d 40 f5 f3 3c
       -0.20058021 -0.040114455 0.035392683 0.02978003
0000a0 70 cf 42 3d 75 2d 0a 3e 74 95 77 3c 9d 95 e9 bd
       0.04756111 0.13493903 0.015111316 -0.114054896
0000b0 2d f5 81 be 4d 61 7c 3d 96 bd d6 be 46 00 b1 3e
       -0.25382367 0.06161623 -0.41941518 0.3457052
0000c0 b0 2d 87 be f7 63 8d 3e 5d 83 a3 be a0 0c 95 3e
       -0.26402044 0.2761533 -0.3193616 0.29111195
0000d0 c0 49 a0 3e 30 60 05 bd 32 6e 53 be e1 ab 53 be
       0.31306267 -0.032562435 -0.20647505 -0.20671035
0000e0 c8 4e 6d 3e 9c 7f 3a 3e 04 2e 43 3e fa 8a 20 3e
       0.23174584 0.18212742 0.19060522 0.15678015
0000f0 71 17 7f 3e 27 e7 22 be 5e e4 f4 3c c7 99 f0 bd
       0.24911286 -0.1590849 0.02989405 -0.11748081
000100 86 2d 9b 3d 40 0e 8c 3d 5a 36 24 be d8 99 e1 bb
       0.07577042 0.068386555 -0.16036358 -0.0068847947
000110 08 7b 30 be 09 2e 6b be 72 22 6d 3d b0 40 9a be
       -0.17234433 -0.2296678 0.057894178 -0.30127478
000120 e1 8d da 3e bf 61 a8 bd f7 31 21 3f 5e 10 c1 be
       0.4268637 -0.082217686 0.62966865 -0.377078
000130 7f 89 c1 3c 90 1c 92 bc 42 ba 3f 3e 15 ef bf be
       0.023625134 -0.017835885 0.18723395 -0.37487093
000140 f5 27 5d 3d 1d 78 91 bd fd 3b 12 bc 06 21 a6 bd
       0.053993184 -0.07102988 -0.008925435 -0.081117675
000150 3d b8 57 be 74 88 4f bd 41 b8 bc 3e 52 95 ef bd
       -0.21066375 -0.05066724 0.36859325 -0.116984025
000160 8a 1c e4 3d 5e 27 a4 3d b4 b1 0b be 4f 93 9b 3e
       0.11138256 0.08015321 -0.13642007 0.30385825
000170 69 38 ab 3e 9e 9f 9a 3e b0 fa f6 bd 1b 07 98 3e
       0.33441475 0.30199903 -0.120595336 0.2969292
000180 a6 ce 25 be 70 76 00 3f 64 59 54 3e a8 60 33 be
       -0.16192111 0.5018072 0.20737225 -0.1751734
000190 54 ab 15 3e 8e b2 0b 3d e1 1c 8c 3e 65 7e 0a 3d
       0.14616138 0.03410583 0.27365783 0.033811945
0001a0 68 cf 41 be 66 5c 84 3e 08 7e 95 be 76 40 a9 3c
       -0.18926775 0.25851744 -0.29197717 0.02066062
0001b0 d9 44 8d bd c2 bf 69 3e ab 2d 9f 3e 56 3c e3 3d
       -0.06897897 0.22827056 0.3108953 0.110954925
0001c0 cc 6e 81 be 86 66 f7 3c 77 e5 1b bc e2 ed 9b be
       -0.25279844 0.030200254 -0.009515158 -0.30454928
0001d0 8e bc 05 be f5 b2 0d 3e d0 6d 5e bd a1 aa 82 3d
       -0.13060209 0.13837798 -0.054303944 0.06380201
0001e0 db 4b d0 bd 76 6d df 3d ba 9c 10 3e ea 73 7c 3e
       -0.10170718 0.1090955 0.14122286 0.24653593
0001f0 c3 c3 c8 3d 25 dc 21 bd ff 36 1c 3d df a9 13 3c
       0.098029636 -0.039516587 0.038138386 0.009012668
000200 60 37 68 bc 7b e7 80 3d f5 cf 7b 3e fd 88 2e 3e
       -0.014173359 0.062941514 0.24591048 0.17044444
000210 71 99 42 3e 3d 12 85 be 29 83 7a bd f7 6d 8e 3e
       0.19003846 -0.25990477 -0.06116024 0.27818272
000220 d1 ff 89 3c 22 96 b9 3e 8e c1 88 3e c0 62 95 be
       0.016845616 0.36247355 0.2671017 -0.29176903
000230 b1 5e 6f be 62 1e ab 3d f0 a2 b9 3e cf f3 10 3f
       -0.23375966 0.083554044 0.36257124 0.5662202
000240 e0 ab a0 3d 43 1a 14 3e 11 0b a4 3e 7a 6f 66 3e
       0.078452826 0.14463143 0.32039693 0.22503462
000250 71 db 27 be ee 05 55 be c2 c1 1e 3e 38 66 85 3e
       -0.16392304 -0.20803043 0.155036 0.2605455
000260 4d 2b 85 3e 24 e7 82 bc f2 2d 4d be 4e 9a 6e be
       0.26009598 -0.015979357 -0.20037058 -0.2330105
000270 cb 22 86 3e 0b 46 6c 3c 02 01 76 be fd 4d f0 3d
       0.2619842 0.014420996 -0.24023822 0.11733625
000280 03 b6 94 3e 23 60 b4 bd b6 56 c6 3e 96 80 b1 3e
       0.29045114 -0.08807399 0.3873803 0.34668416
000290 8c 65 96 be 4f 99 ed 3d 0a 69 5c 3e 13 3a 8e 3e
       -0.2937435 0.11601507 0.21524444 0.27778682
0002a0 30 1d 5c 3c 1d ff 06 be 95 0c 32 3e 93 7e 54 be
       0.013434693 -0.13183255 0.17387612 -0.20751409
0002b0 01 c4 82 be e1 d6 94 be 7a 50 cb bd ae 0b 8b bd
       -0.25540164 -0.2907019 -0.09927459 -0.06789337
0002c0 dd 56 b5 3e 67 5f 07 3e 2e d5 07 bc 08 5c 91 bd
       0.35417834 0.13219987 -0.008290572 -0.07097632
0002d0 e5 f2 2f 3f 37 e0 f9 3e 69 5b b0 3e e7 ca 2b be
       0.6873 0.48803875 0.3444474 -0.1677662
0002e0 cc 29 84 be b6 18 46 be 50 87 bc 3e 8f 98 c3 3e
       -0.25813138 -0.19345364 0.36821985 0.3820233
0002f0 fe 34 7f be 13 74 26 3e 45 1f 80 be 9d 58 44 3e
       -0.24922559 0.16255216 -0.25023857 0.19174428
000300 e1 b3 de 3d c3 e3 96 3d a5 2c f3 bd 42 cd ca bd
       0.10874153 0.07367661 -0.1187375 -0.09902431
000310 1b e8 36 3d 53 67 09 be ff 45 82 3e 0d ce 71 be
       0.044654947 -0.13418321 0.25444028 -0.23613758
000320 69 02 07 be 52 6f 33 3d 65 a4 ef 3d 35 74 c1 3d
       -0.13184513 0.043807335 0.11701278 0.09445993
000330 6c 75 a3 bd a4 38 7a 3c 65 d7 38 3e 02 d1 83 3d
       -0.07981381 0.015272293 0.18050916 0.064363495
000340 54 74 51 be e6 c0 97 be 66 14 33 3e 73 ca 4e 3d
       -0.20454532 -0.29639357 0.1748825 0.05048604
000350 af 66 2d 3d a9 c2 54 3e 5d b4 96 3d 24 08 bc bd
       0.042334255 0.20777382 0.0735862 -0.0918124
000360 d0 ec 1f bc ce 3c 4e 3e af 31 b3 3e 87 ae 49 3e
       -0.00976105 0.20140383 0.34998843 0.19695483
000370 4e e4 18 3e 20 c9 54 3e 1c 52 24 3d fe d7 03 be
       0.14930841 0.20779848 0.040117368 -0.12875363
000380 3d 66 2c 3c a3 94 e2 be 0c 87 63 be be 09 9b 3e
       0.010522422 -0.44254026 -0.22219485 0.3028087
000390 39 fd 85 3e 4c c1 ac 3e 08 77 7c be 56 7f 21 be
       0.26169756 0.33741224 -0.24654782 -0.15771231
0003a0 77 9a 8b be b4 7a 0f 3e f0 0c 05 3e d8 b9 b2 bd
       -0.27266285 0.14011651 0.12993217 -0.08726853
0003b0 0a aa 13 3e e1 00 68 3e 27 fa 92 bd 1c 73 95 be
       0.14420334 0.22656585 -0.07176619 -0.29189384
0003c0 58 9f 4f be b9 d5 68 3e 5e 03 1d bd 02 69 1f be
       -0.20275629 0.22737779 -0.03833329 -0.15567401
0003d0 53 b2 7a be 32 31 1c be 4d fb 53 be 05 65 21 be
       -0.24482088 -0.15253142 -0.20701332 -0.15761192
0003e0 1e 58 7f 3e 19 2d 83 be c3 09 be 3e c2 12 6a bb
       0.24935958 -0.25620344 0.37116823 -0.0035716747
0003f0 2f 59 cc bd 9c 6a ed bc e1 39 63 3e 96 e0 e6 bc
       -0.09977948 -0.0289815 0.22190048 -0.028183263
