model_round_7.pth (torch, 126796 bytes, 9 tensors)

conv1.weight f4 [16, 1, 16, 3]
-0.983623 0.22151111 0.9811815 -0.8456238 0.17074195 0.20529948 -0.8200435 -0.17149262
-0.20269829 -0.44464788 -0.3560765 0.6128179 -0.3784218 -0.05162984 0.25754723 0.12096451
-0.34819418 -0.030811653 0.41446203 -0.23200566 0.41332296 0.023209954 -1.4550804 0.19207546
0.3684768 -1.5027245 -0.09195842 -0.046053708 -1.1274233 -0.8070991 0.64799076 -0.2801231
0.12629308 0.36379603 -0.38044423 0.47869438 0.850143 0.7949969 0.14544274 -0.40287477
-0.001000195 -0.932476 0.39244366 -0.0071320776 0.42009535 -0.6470598 -0.33218765 -0.63738614
0.25786313 -0.23256741 0.11062521 0.3679775 -0.70476115 -0.7630767 0.96680963 -0.41021037
-0.13061588 -0.8271684 -0.04196227 0.3333254 -0.07364166 -0.14529127 -0.019744705 0.2827987
-0.2096004 -0.3463576 0.8880219 -0.22205172 -0.64114594 -1.8230398 -0.5715602 -0.32745585
-0.3166766 -0.43788478 -0.50363 0.42143434 -0.1700481 -0.13841426 0.45740867 -0.2795984
-0.29903504 -1.1092643 0.48034003 -0.37820372 0.43903443 0.22592576 -0.51515317 0.40676194
-0.2640353 -0.97161025 0.0243898 -0.3304838 -0.81570476 -1.3835964 1.276917 -0.15154342
-0.74485916 -1.0153372 0.014434774 -0.23423871 0.5623472 -0.063353986 -0.24766631 0.25569892
-0.12123354 -0.47064608 0.18543762 -0.4350828 -0.29432246 0.4224109 -0.5121558 -0.5113962
0.26468462 -0.3803856 -0.89715225 -0.29814777 -0.37952483 -0.055278026 0.22396183 -0.56966585
0.037491567 0.091532834 -0.53501475 0.020778652 0.3136219 -0.3166675 0.3532258 0.68171275
-0.16231754 -0.23366725 0.3090716 -0.057308707 -0.08221814 0.040010218 0.024984961 0.06505946
0.17519675 -0.012585864 -0.02787902 0.62835324 0.37913492 0.8052005 -0.15989913 -0.432056
-0.48390108 0.10182602 -0.07247056 0.28509092 -1.0228288 -0.15099451 0.032884113 -0.26004058
-0.18312608 -0.13706422 -0.3578802 -0.3119867 -0.32800865 0.23147637 0.15121585 -0.6970893
-0.4796552 -0.25402647 -0.26664954 -0.6429518 -0.5407717 0.2385604 -0.9523392 0.10567733
0.3278252 -0.8937306 -0.18397756 -0.87399423 0.08350581 0.15721846 -0.06713297 -0.097929895
-0.3818632 0.117509104 -0.7368009 -0.48140287 0.6353997 -0.17006612 0.0020582941 -1.4001616
0.8029849 0.20809263 0.4391593 1.417218 -0.04801254 -0.048439052 1.3497736 0.17728437
-0.078918815 0.17619231 -0.2010086 -0.28790438 -0.084104694 -0.15574192 -0.55939287 0.0024779183
-0.16383363 0.024186723 0.2665847 -0.49755573 -0.3032336 -0.09945307 -0.13001834 0.1318471
0.2391742 -0.10526935 0.20041884 -0.2142667 0.049370505 -0.1490783 -0.069017164 0.3727918
0.054388274 0.20443045 -0.6338092 -0.027719952 0.27649105 -0.05913726 -0.49035 -0.168927
0.08493269 -0.0076067788 0.26521605 0.4394688 -0.4452021 0.5335909 -0.24292651 1.1249743
1.5482454 0.27192855 -1.1725513 -0.3331052 0.10826741 -1.3526508 -0.21264426 0.72596985
-1.339235 -0.20205453 -0.17453729 0.14852431 0.4945365 0.0179109 0.3428869 0.4535566
0.5024407 0.34194872 0.23330481 0.061357804 0.003660165 -0.06808356 -0.552806 -0.24809313
00000000: b8ce 7bbf cfd3 623e b62e 7b3f cd7a 58bf
00000010: fad6 2e3e 073a 523e 5fee 51bf c39b 2fbe
00000020: 2490 4fbe e3a8 e3be a94f b6be a2e1 1c3f
00000030: 81c0 c1be d079 53bd 3bdd 833e 3ebc f73d
00000040: 8246 b2be b868 fcbc 5e34 d43e e492 6dbe
00000050: 119f d33e cd22 be3c 1340 babf 6eaf 443e
00000060: fea8 bc3e 4759 c0bf b254 bcbd d0a2 3cbd
00000070: 684f 90bf 0c9e 4ebf b9e2 253f 4c6c 8fbe
00000080: f952 013e 7943 ba3e 96c9 c2be 6e17 f53e
00000090: f9a2 593f eb84 4b3f f1ee 143e 9a45 cebe
000000a0: fa18 83ba bfb6 6ebf 60ee c83e 34b4 e9bb
000000b0: bd16 d73e b6a5 25bf 8014 aabe bd2b 23bf
000000c0: a306 843e 2726 6ebe 788f e23d 8c67 bc3e
000000d0: 3a6b 34bf ff58 43bf d680 773f 1807 d2be
000000e0: 2bc0 05be 4fc1 53bf a1e0 2bbd a0a9 aa3e
000000f0: 70d1 96bd 3cc7 14be a6bf a1bc feca 903e
00000100: 7da1 56be c955 b1be 6755 633f 8761 63be
00000110: 2422 24bf 5e59 e9bf c551 12bf 4ba8 a7be
00000120: 6f23 a2be 6f32 e0be e5ed 00bf 3ec6 d73e
00000130: 1721 2ebe 78bc 0dbe 7831 ea3e 8627 8fbe
00000140: 1f1b 99be 5ffc 8dbf 21ef f53e eba3 c1be
00000150: 1fc9 e03e 1559 673e 14e1 03bf 1a43 d03e
00000160: a32f 87be 73bb 78bf 1ecd c73c 2c35 a9be
00000170: 07d2 50bf b019 b1bf 0472 a33f 332e 1bbe
00000180: 17af 3ebf 92f6 81bf d57f 6c3c 46dc 6fbe
00000190: fcf5 0f3f bcbf 81bd 3d9c 7dbe f8ea 823e
000001a0: 4a49 f8bd 86f8 f0be 5ce3 3d3e 2cc3 debe
000001b0: 6fb1 96be 3e46 d83e a41c 03bf ddea 02bf
000001c0: be84 873e e7c1 c2be c5ab 65bf d3a6 98be
000001d0: 1451 c2be 366b 62bd 4056 653e 9fd5 11bf
000001e0: c290 193d 9175 bb3d baf6 08bf fe37 aa3c
000001f0: 0d93 a03e 3e22 a2be 03da b43e ba84 2e3f
00000200: 9236 26be 7846 6fbe a23e 9e3e 89bc 6abd
00000210: fc61 a8bd c1e1 233d 43ad cc3c e53d 853d
00000220: c766 333e f134 4ebc 8b62 e4bc c2db 203f
00000230: f91d c23e 9f21 4e3f 99bc 23be 7236 ddbe
00000240: e2c1 f7be 298a d03d 726b 94bd 70f7 913e
00000250: 0eec 82bf 4e9e 1abe 7eb1 063d 0a24 85be
00000260: 6785 3bbe 905a 0cbe 133c b7be b9bc 9fbe
00000270: c0f0 a7be 2408 6d3e 54d8 1a3e 7274 32bf
00000280: 5e95 f5be c20f 82be 4a86 88be 7d98 24bf
00000290: 0470 0abf 2d49 743e 80cc 73bf 5b6d d83d
000002a0: b4d8 a73e 87cb 64bf 9d64 3cbe 16be 5fbf
000002b0: 1805 ab3d e0fd 203e 037d 89bd 788f c8bd
000002c0: 9383 c3be 9da8 f03d fc9e 3cbf 707a f6be
000002d0: 8ea9 223f d025 2ebe 72e4 063b 7f38 b3bf
000002e0: 6b90 4d3f 3c16 553e 7dd9 e03e 6667 b53f
000002f0: cca8 44bd 0768 46bd 62c5 ac3f 098a 353e
00000300: 30a0 a1bd c26b 343e 33d5 4dbe 3468 93be
00000310: 153f acbd cf7a 1fbe 5f34 0fbf 9264 223b
00000320: 01c4 27be 3c23 c63c ca7d 883e a0bf febe
00000330: 6f41 9bbe 0dae cbbd 8723 05be ed02 073e
00000340: 15ea 743e 7597 d7bd 993a 4d3e bb68 5bbe
00000350: ba38 4a3d fba7 18be df58 8dbd 91de be3e
00000360: 3dc6 5e3d 3756 513e 5241 22bf f414 e3bc
00000370: 3c90 8d3e e939 72bd 280f fbbe 33fb 2cbe
00000380: 31f1 ad3d 4942 f9bb 66ca 873e 0e02 e13e
00000390: 88f1 e3be 6a99 083f bac1 78be 28ff 8f3f
000003a0: e82c c63f 383a 8b3e 2916 96bf c48c aabe
000003b0: 4ebb dd3d a923 adbf 6bbf 59be 29d9 393f
000003c0: 0d6c abbf 62e7 4ebe e7b9 32be c216 183e
000003d0: e333 fd3e e1b9 923c df8e af3e 9238 e83e
000003e0: f49f 003f e713 af3e 75e7 6e3e 5252 7b3d
000003f0: 61df 6f3b 656f 8bbd b284 0dbf 200c 7ebe

conv1.bias f4 [16]
0.08398388 0.55434716 -0.31979018 0.7820562 -0.7415533 -0.16089496 -0.21782625 -0.043621574
-0.64704424 0.17020652 -0.02191816 -0.060204763 -0.1299216 0.043179374 0.3259856 -0.45448872
00000000: beff ab3d b2e9 0d3f 8abb a3be d634 483f
00000010: 70d6 3dbf a6c1 24be d80d 5fbe 89ac 32bd
00000020: b1a4 25bf 9e4a 2e3e b78d b3bc 4599 76bd
00000030: 2b0a 05be dbdc 303d 96e7 a63e bfb2 e8be

conv2.weight f4 [16, 16, 3, 5]
-0.10107281 -0.20377941 -0.56565154 -0.8257321 -0.7703825 -0.28729382 -0.7162921 -0.14173022
-0.7092116 -0.6337268 -1.1473744 0.28561336 -0.21276484 -0.5769354 -0.69558674 0.01570913
-0.17455056 -1.1187304 -0.5063785 -0.79117566 -0.19305062 0.008898087 -0.45714885 -0.574189
-0.4443597 0.13773867 -0.18174064 -0.29843837 -0.22807339 -0.42050278 -0.3873043 -0.281348
-0.6288633 -0.78366876 -0.006870323 -0.10439935 0.35092577 -0.20111817 -0.33911243 -0.12018285
-0.1274275 -0.19760746 -0.46171978 0.3944449 0.42450377 0.28020895 -0.3883783 -0.46778226
-0.35268578 -0.18570594 -0.43440124 0.2825555 -0.6164331 0.23566756 0.40680152 0.8942402
-0.45226964 -0.3448927 0.068294905 0.24247603 -0.86317724 -0.49130893 -0.32464644 -0.72028494
-0.21790875 -0.049059413 -0.13822374 0.16599979 0.44892266 -0.088463254 -0.752539 -0.021041684
-0.035636872 -0.06728868 -0.38671443 -0.58057034 0.23525022 -0.19914587 -0.650281 0.27746975
-0.8788595 0.040540442 0.85210633 -0.45677376 -0.37021247 -0.17382145 -0.22265506 0.11120431
0.20864311 0.11216351 -0.12853695 0.055898346 -0.12714773 -1.7184709 -0.090378374 -1.2345303
0.70722455 0.6452467 -0.78059065 -0.4577204 -0.41533142 -1.2415534 -0.56294495 0.11861772
-0.8450418 0.028796403 -0.18709952 -1.2652628 0.46711358 -1.272236 0.15297547 -0.08959605
0.23797743 -0.2115181 -0.70042 -0.677301 -0.7088064 0.19307368 -0.27272174 0.01943962
0.4379309 0.25116664 -0.18077366 -0.022269333 -0.2908471 0.026132913 -0.95493424 0.14599872
0.02694972 -0.74382675 -0.3308682 -0.90182674 -0.045146607 -0.20531473 -0.90271825 -0.50756466
-0.5939264 -0.48680055 -0.4766969 0.1631566 -0.16573097 -0.5966449 -0.00023848836 -0.4049454
-0.29331103 -0.90807277 -0.022141816 0.5774491 -0.25882062 -0.6076073 -0.8739628 -0.08578592
-0.30417556 -0.4165495 -0.0020092356 0.5091732 0.3744225 -0.79207516 -0.12698618 -0.60429156
-0.35667613 -0.6259942 -0.09903809 0.081122346 0.5741896 -0.129211 0.11969077 -0.3092574
-0.03687691 -0.07855485 -0.7851609 0.009326467 0.49393773 -0.32623115 -0.14776509 -0.70572305
-0.23108338 0.06988365 -0.3274167 -0.05107555 -0.8330538 0.3431629 0.45788085 -0.6297679
0.0012158534 -1.5990312 -0.317109 0.4870816 0.11136877 0.164072 -1.1265855 -0.22233425
-0.37934753 -0.14247204 0.07765195 0.055236883 -0.27050373 -0.30964488 -0.3734154 -0.01525728
-0.05120633 0.4069758 -0.48362237 -0.45546556 0.2475928 0.23072489 -0.20206624 -0.23509718
0.1696441 -0.03401569 -0.93224066 -0.10803122 -0.11485631 -0.77134985 -0.4334864 -0.21687438
-0.7204454 -0.10748181 -0.1901692 -0.3709562 0.10814444 -0.7363168 -0.3690074 -0.20448385
-0.21142527 -0.121986575 -0.28092498 -0.044938486 0.14135854 -0.3102864 -0.59123105 -0.5112827
0.35135916 -0.22521563 -0.58226115 -0.35524794 0.119406044 0.04535668 -0.16711552 -0.53022313
-0.30783737 -0.08192581 -0.7291148 -0.38403627 -0.5739612 -0.48576063 -0.65850705 -1.3537866
-0.78120846 -0.012858287 -0.54651946 -0.8510341 -1.1035993 -0.9288425 -0.110585496 -0.28067052
00000000: 43ff cebd 8dab 50be 8ace 10bf 2e63 53bf
00000010: ca37 45bf 2d18 93be eb5e 37bf ba21 11be
00000020: e48e 35bf eb3b 22bf 2add 92bf ea3b 923e
00000030: 07df 59be 0ab2 13bf f911 32bf 6fb0 803c
00000040: 62bd 32be 8f32 8fbf 05a2 01bf 7d8a 4abf
00000050: 10af 45be 48c9 113c 6a0f eabe 0dfe 12bf
00000060: 1d83 e3be 5e0b 0d3e 381a 3abe eacc 98be
00000070: 128c 69be 244c d7be c04c c6be d80c 90be
00000080: 2ffd 20bf 849e 48bf 7220 e1bb 54cf d5bd
00000090: 8bac b33e ecf1 4dbe 25a0 adbe 6d22 f6bd
000000a0: 5b7c 02be 9c59 4abe 8966 ecbe aff4 c93e
000000b0: 8f58 d93e 8c77 8f3e 85d9 c6be 2881 efbe
000000c0: 3b93 b4be b329 3ebe d769 debe 1dab 903e
000000d0: 8fce 1dbf d652 713e 4a48 d03e edec 643f
000000e0: e38f e7be c795 b0be 33de 8b3d a34b 783e
000000f0: 2ff9 5cbf d88c fbbe 0f38 a6be 9864 38bf
00000100: 7923 5fbe 86f2 48bd 868a 0dbe d9fb 293e
00000110: 31d9 e53e 392c b5bd 65a6 40bf 9c5f acbc
00000120: f8f7 11bd a6ce 89bd 6fff c5be 42a0 14bf
00000130: 6fe5 703e e5ec 4bbe d178 26bf 8410 8e3e
00000140: f0fc 60bf bc0d 263d a423 5a3f 40de e9be
00000150: 7d8c bdbe 40fe 31be b0ff 63be 16bf e33d
00000160: 8aa6 553e fbb5 e53d 319f 03be aaf5 643d
00000170: 0433 02be dbf6 dbbf 4c18 b9bd 1705 9ebf
00000180: ab0c 353f e32e 253f cad4 47bf 545a eabe
00000190: 52a6 d4be 39eb 9ebf 291d 10bf d9ed f23d
000001a0: a954 58bf 6fe6 eb3c 0497 3fbe 22f4 a1bf
000001b0: 8329 ef3e a1d8 a2bf 9aa5 1c3e 227e b7bd
000001c0: 5bb0 733e 3398 58be ba4e 33bf 9963 2dbf
000001d0: 5674 35bf 1bb5 453e 2fa2 8bbe d73f 9f3c
000001e0: 7b38 e03e ea98 803e bb1c 39be 2d6e b6bc
000001f0: e9e9 94be b114 d63c 9276 74bf b080 153e
00000200: a9c5 dc3c 6e6b 3ebf 8f67 a9be 1ede 66bf
00000210: a6eb 38bd 063e 52be 8b18 67bf c2ef 01bf
00000220: 900b 18bf ec3d f9be 9e11 f4be 8612 273e
00000230: 61b5 29be b8bd 18bf bb12 7ab9 0155 cfbe
00000240: dd2c 96be 7577 68bf c162 b5bc b4d3 133f
00000250: 2384 84be 278c 1bbf 07bc 5fbf 87b0 afbd
00000260: e6bc 9bbe fa45 d5be 61ad 03bb 2d59 023f
00000270: 4eb4 bf3e 70c5 4abf aa08 02be dab2 1abf
00000280: 419e b6be 2841 20bf 7bd4 cabd 7923 a63d
00000290: 17fe 123f e34f 04be 6f20 f53d fc56 9ebe
000002a0: 3e0c 17bd 5de1 a0bd 4e00 49bf 0ace 183c
000002b0: 68e5 fc3e c507 a7be bb4f 17be 44aa 34bf
000002c0: 1fa1 6cbe 291f 8f3d 29a3 a7be 9934 51bd
000002d0: 0443 55bf 0cb3 af3e 5c6f ea3e 7838 21bf
000002e0: 455d 9f3a 0ead ccbf 1c5c a2be c262 f93e
000002f0: 4f15 e43d 7e02 283e f433 90bf 97ab 63be
00000300: d739 c2be 31e4 11be fc07 9f3d 1240 623d
00000310: 777f 8abe c689 9ebe 4e30 bfbe acf9 79bc
00000320: bbbd 51bd 225f d03e 5a9d f7be c832 e9be
00000330: f888 7d3e 2543 6c3e 74ea 4ebe 51bd 70be
00000340: 2fb7 2d3e 0954 0bbd 53a7 6ebf 793f ddbd
00000350: c939 ebbd 2f77 45bf eef1 ddbe 5114 5ebe
00000360: 1c6f 38bf 6c1f dcbd b7bb 42be f9ed bdbe
00000370: d57a dd3d 427f 3cbf 8aee bcbe 3764 51be
00000380: de7f 58be 19d4 f9bd 66d5 8fbe 6b11 38bd
00000390: 4bc0 103e dcdd 9ebe eb5a 17bf 6ce3 02bf
000003a0: 59e5 b33e ed9e 66be 110f 15bf 0fe3 b5be
000003b0: 288b f43d edc7 393d 5520 2bbe b4bc 07bf
000003c0: dc9c 9dbe b8c8 a7bd 44a7 3abf 67a0 c4be
000003d0: 1fef 12bf 9eb5 f8be eb93 28bf e148 adbf
000003e0: 47fd 47bf 91ab 52bc b3e8 0bbf 5fdd 59bf
000003f0: be42 8dbf 9fc8 6dbf a67a e2bd 0cb4 8fbe

conv2.bias f4 [16]
0.27988136 -0.41785008 -0.107412465 -1.0347984 -0.18243459 0.120263405 -0.36463776 -0.5570574
-0.21750213 -0.026814189 -0.8163805 -0.61170024 -0.88490397 -0.6566899 -0.007664241 -0.35921976
00000000: 9c4c 8f3e 72f0 d5be 11fb dbbd 4674 84bf
00000010: 22d0 3abe a94c f63d cdb1 babe 509b 0ebf
00000020: e1b8 5ebe 6ea9 dbbc 50fe 50bf 6398 1cbf
00000030: 1189 62bf d41c 28bf 5024 fbbb a7eb b7be

conv3.weight f4 [32, 16, 8, 3]
-0.3568897 0.1321878 0.0736705 -0.50689524 -0.702475 -0.06318315 -0.50902826 -0.14114729
-0.07436293 -0.5154408 -0.2968719 -0.411523 -0.54202414 -0.45602438 0.10828072 0.22832859
0.099226154 -0.33420917 0.1468116 -0.2225707 -0.5401811 0.02010077 -0.106329605 -0.123049416
0.69956213 -0.0013457574 -0.47385612 0.17503259 -0.017669205 -0.15234901 -0.28029016 -0.033027966
-0.01728958 -0.41231418 0.007862816 -0.77215844 -0.23160167 -0.32824773 -0.36718014 -0.12171847
0.18670087 -0.24279732 -0.17805389 -0.20821832 0.37389258 0.15462458 -0.10867085 0.12915915
-0.057548236 -0.30462107 0.03543164 -0.40377697 0.30166587 -0.09803183 0.08078327 -0.22955059
0.047698937 -0.25573152 -0.2845561 -0.36943328 -0.14569844 0.020541783 -0.052346617 -0.52457875
0.174779 -0.04523868 -0.3661332 0.04815522 0.06433382 0.17576806 -0.03354025 -0.84792113
-0.44517627 -0.7650961 -0.6402257 -0.6602471 -0.38667622 -0.42439973 -0.22265618 -0.56316656
0.5752832 -0.5572581 -0.61644846 -0.70299035 -0.516655 -0.61952907 -0.2034407 -0.65763026
0.05037534 -0.39423952 -0.55584127 -0.12797916 -0.37341228 -0.5922582 -0.85622764 -0.1190017
-0.42680013 -0.34495574 -0.34747347 -0.27205816 -0.57142943 0.16128448 -0.028868865 -0.093406245
-0.12269233 0.10328709 -0.41842574 -0.284657 -0.41906506 -0.28764036 -0.1657572 -0.013113334
-0.23211111 -0.10341953 0.08698214 0.053565446 -0.04950365 -0.06181059 0.022509748 -0.058797598
-0.812195 -0.103218175 -0.7757962 -0.46203402 0.71317315 0.082803324 -0.038416136 -0.42953506
-0.30866042 -0.8514081 -0.079007395 0.015579891 -0.23003669 -0.15784128 -0.124472246 -0.027027367
0.0071704695 -0.09051598 -1.0508792 0.14930353 -0.30816048 -0.04027571 -0.0082421955 -0.5094485
-0.18738693 -0.118929714 -0.16085158 0.5399185 -0.5515717 0.05080209 -0.443011 -0.5913723
-0.19310348 -0.24647772 -0.29448637 -0.26974276 -0.35116005 -0.1716021 -0.47096008 0.14673254
-0.19597825 -0.42324793 0.46489713 -0.1453832 -0.48325703 -0.6184806 -0.4482843 -0.29718438
0.123968646 0.20638181 -0.43781197 -0.1347192 -0.5025129 -0.5364648 -0.38903737 -0.06586553
-0.35655755 -0.3985458 -0.21246308 -0.062102914 -0.27246714 -0.58255357 -0.215355 0.1969895
0.0065709855 -0.23574795 0.014052574 0.12313819 -0.17642896 -0.9936815 -0.14639756 -0.42779067
-0.1176346 -0.14009094 -0.12822479 0.25632983 -0.19227886 -0.18797745 -0.42955804 -0.07079831
-0.09430421 0.13996907 -0.39424914 -0.27570808 0.0032453304 -0.1483167 -0.60956246 0.0055060564
-0.044681657 -0.3431371 -0.12430301 -0.24795234 -0.94750065 -0.077586114 -0.18748493 -0.33302248
0.1938617 -0.2412791 -0.3999163 -0.54704857 -0.46049288 -0.30138844 -0.56359947 -0.57854056
0.08966183 0.33807626 0.18498969 0.070067585 0.1914276 0.086498946 0.7332316 -0.11120744
-0.60450053 -0.15769985 -0.07354692 -0.0760323 -0.22511935 -0.18540858 -0.2576535 -0.007276641
-0.6019657 -0.37673748 -0.99912786 -0.24351756 -0.50666356 0.031098692 -0.2323845 -0.21703388
-0.45823127 0.20028114 -0.13703154 -0.021015067 -0.053346954 -0.06762286 -0.505257 -0.47801527
00000000: 3fba b6be 3d5c 073e 8fe0 963d e3c3 01bf
00000010: 67d5 33bf 2b66 81bd ad4f 02bf ea88 10be
00000020: 984b 98bd eef3 03bf 98ff 97be 25b3 d2be
00000030: 18c2 0abf 077c e9be 48c2 dd3d f8ce 693e
00000040: 1537 cb3d 771d abbe c855 163e 93e9 63be
00000050: 4f49 0abf 5faa a43c 56c3 d9bd 5501 fcbd
00000060: 8116 333f 2064 b0ba 459d f2be be3b 333e
00000070: 02bf 90bc 6101 1cbe 3182 8fbe 5548 07bd
00000080: e1a2 8dbc d81a d3be 0ad3 003c 2dac 45bf
00000090: fd28 6dbe 1610 a8be 09ff bbbe 8847 f9bd
000000a0: 832e 3f3e dc9f 78be c253 36be 2f37 55be
000000b0: d96e bf3e e855 1e3e d38e debd 4c42 043e
000000c0: b3b7 6bbd 4bf7 9bbe c420 113d dbbb cebe
000000d0: f373 9a3e e9c4 c8bd b371 a53d 4f0f 6bbe
000000e0: f65f 433d 3eef 82be 56b1 91be 5c26 bdbe
000000f0: f931 15be 3e47 a83c 6869 56bd cb4a 06bf
00000100: 44f9 323e 324c 39bd d075 bbbe 683e 453d
00000110: 73c1 833d 8bfc 333e 8061 09bd 5c11 59bf
00000120: 25ee e3be 57dd 43bf d5e5 23bf f405 29bf
00000130: 6dfa c5be ec4a d9be fbff 63be af2b 10bf
00000140: c345 133f 78a8 0ebf 91cf 1dbf 2df7 33bf
00000150: 8143 04bf 7599 1ebf c252 50be 755a 28bf
00000160: 5f56 4e3d c3d9 c9be 9d4b 0ebf f80c 03be
00000170: e52f bfbe 3c9e 17bf bc31 5bbf 2ab7 f3bd
00000180: 8c85 dabe 0a9e b0be 0be8 b1be 354b 8bbe
00000190: 3349 12bf c227 253e 667e ecbc c64b bfbd
000001a0: 1e46 fbbd 2f88 d33d e63b d6be 90be 91be
000001b0: b28f d6be 9945 93be 41bc 29be 4fd9 56bc
000001c0: 89ae 6dbe 9ecd d3bd b123 b23d 7167 5b3d
000001d0: 57c4 4abd 1a2d 7dbd 5d66 b83c c0d5 70bd
000001e0: 03ec 4fbf 0d64 d3bd 949a 46bf b98f ecbe
000001f0: 8492 363f ca94 a93d 3d5a 1dbd 05ec dbbe
00000200: bd08 9ebe e2f5 59bf a1ce a1bd cd42 7f3c
00000210: bd8e 6bbe 25a1 21be 4eeb febd 7f68 ddbc
00000220: 42f6 ea3b 7160 b9bd 3683 86bf 06e3 183e
00000230: 36c7 9dbe 25f8 24bd 460a 07bc 386b 02bf
00000240: 5ce2 3fbe 6c91 f3bd 47b6 24be 1938 0a3f
00000250: ce33 0dbf da15 503d 56d2 e2be 2d64 17bf
00000260: ebbc 45be a864 7cbe ebc6 96be b91b 8abe
00000270: 40cb b3be 76b8 2fbe ae21 f1be 0e41 163e
00000280: 86ae 48be f4b3 d8be ff06 ee3e 55df 14be
00000290: 776d f7be bf54 1ebf 8585 e5be 8d28 98be
000002a0: 46e3 fd3d c155 533e e428 e0be d4f3 09be
000002b0: afa4 00bf c255 09bf e82f c7be 82e4 86bd
000002c0: b68e b6be 320e ccbe ec8f 59be a05f 7ebd
000002d0: d080 8bbe 3b22 15bf 0586 5cbe 9eb7 493e
000002e0: 6c51 d73b e967 71be c43c 663c e02f fc3d
000002f0: cba9 34be e961 7ebf 3ee9 15be 6107 dbbe
00000300: 69ea f0bd 0074 0fbe 5c4d 03be aa3d 833e
00000310: c0e4 44be 297d 40be 08ef dbbe b4fe 90bd
00000320: 9122 c1bd 0d54 0f3e 06db c9be 9c29 8dbe
00000330: 9caf 543b 55e0 17be 490c 1cbf 266c b43b
00000340: 1d04 37bd aaaf afbe 9492 febd 38e7 7dbe
00000350: 678f 72bf 78e5 9ebd 0dfc 3fbe ec81 aabe
00000360: ae83 463e de11 77be d4c1 ccbe 600b 0cbf
00000370: b9c5 ebbe 964f 9abe 0e48 10bf 3c1b 14bf
00000380: 9fa0 b73d 5518 ad3e f06d 3d3e 987f 8f3d
00000390: 9905 443e 5c26 b13d 11b5 3b3f bac0 e3bd
000003a0: 8cc0 1abf 127c 21be c59f 96bd d3b6 9bbd
000003b0: b085 66be bfdb 3dbe 29eb 83be e470 eebb
000003c0: 6d1a 1abf bce3 c0be d8c6 7fbf ab5c 79be
000003d0: b4b4 01bf afc2 fe3c 34f6 6dbe 213e 5ebe
000003e0: 4a9d eabe 8016 4d3e ff51 0cbe ca27 acbc
000003f0: 5682 5abd db7d 8abd 8658 01bf 6bbe f4be

conv3.bias f4 [32]
-0.52160114 0.015361475 -0.5039887 -0.40848702 -0.74633884 -0.740762 -1.2194173 -0.6655396
0.33068028 -0.07366394 0.53227913 -0.22204925 -0.47008172 -0.4083842 -0.7394648 -1.6014026
0.78248835 -1.1509554 -0.11759271 -0.5897865 0.86286944 -0.39127347 -0.25464717 0.004450868
-0.4294117 -1.3596039 -0.5025775 -0.80880517 0.63045543 -0.5262818 -0.6666288 0.60649496
00000000: a787 05bf b2ae 7b3c 6705 01bf 3625 d1be
00000010: 1010 3fbf 94a2 3dbf de15 9cbf ce60 2abf
00000020: ed4e a93e 1fdd 96bd 7243 083f e160 63be
00000030: 8dae f0be bc17 d1be 914d 3dbf c3fa ccbf
00000040: 2851 483f 8252 93bf 72d4 f0bd 40fc 16bf
00000050: 03e5 5c3f ff54 c8be 1d61 82be 96d8 913b
00000060: dadb dbbe 8007 aebf eba8 00bf db0d 4fbf
00000070: 8765 213f 67ba 06bf 2fa8 2abf 4143 1b3f

conv4.weight f4 [32, 32, 4, 3]
-0.026408488 -0.23757179 0.13389823 -0.28907868 -0.034635685 -0.36215368 -0.25224397 -0.21584855
-0.282203 -0.23553446 -0.00035034074 0.02589624 -0.18298998 -0.04500106 -0.01835 -0.001137284
-0.07891354 0.009240159 -0.22777882 -0.029894523 -0.2646606 -0.18067901 -0.23298283 -0.38963225
-0.29645398 0.0071661877 -0.0063055 -0.20564456 -0.11566582 -0.14407626 -0.043380212 -0.27259514
-0.076680146 -0.012334221 -0.14350061 -0.15387201 -0.3379138 -0.03718467 0.10310417 -0.015680516
-0.38279638 0.17780766 -0.16842562 0.04842341 -0.28128964 0.14443444 -0.45158243 0.049055126
0.26007912 -0.2882142 -0.11071801 -0.012275184 -0.08830816 -0.25883606 -0.0777819 -0.34180957
-0.033260774 -0.07550866 -0.46043423 -0.29548076 -0.289937 -0.09142755 0.21648051 -0.13702314
-0.06337216 -0.27608705 0.13528147 -0.28185114 0.041542392 -0.34687817 -0.15675323 0.00034811272
-0.32536724 -0.18651201 -0.34081227 -0.31715134 -0.103291765 -0.21910842 -0.19408841 -0.14209002
-0.0779829 -0.2522248 0.019314596 0.03107585 -0.2741323 -0.22790533 -0.09990818 -0.13664511
-0.3478121 -0.29893982 -0.18588743 -0.069580056 -0.066592574 -0.34575602 0.16073856 -0.15509614
0.18089715 0.117911465 -0.32830182 -0.036254037 -0.27718908 -0.36174452 -0.024398578 -0.26319978
-0.031404927 -0.44790432 0.012600829 -0.15677865 -0.056275465 -0.018190261 -0.18898237 -0.30796286
-0.16125768 0.021888753 -0.17984344 -0.10581325 -0.11521969 -0.06407968 -0.1997223 -0.07792745
0.21339937 -0.16138692 -0.007714089 -0.12937385 0.12475206 -0.14324202 -0.48364466 -0.19919913
-0.5209553 -0.008678048 -0.38314745 -0.28063676 -0.055299744 0.04466283 0.14575236 -0.22572443
-0.2255325 -0.20970136 -0.19184092 -0.12569156 -0.22144936 -0.48686108 -0.24577972 0.21284762
-0.1739155 -0.43232787 0.030863576 -0.15578477 -0.1285444 -0.073551446 -0.31805697 -0.28390834
-0.02736694 -0.026787572 -0.095527865 -0.48028558 -0.362073 -0.027308533 -0.1827739 -0.123490326
-0.1683546 -0.11410404 -0.075467974 -0.3435745 -0.14205673 -0.019506212 0.05965142 -0.24161811
-0.23992617 -0.28992796 -0.15109813 -0.09487863 0.10595801 0.08482174 -0.23840082 -0.14152497
-0.13605262 -0.18411864 -0.32549736 0.010637356 0.11302004 -0.13550846 -0.048217185 -0.25659284
-0.41471705 -0.3253094 0.09723863 -0.19564825 -0.44079068 -0.3170067 -0.3127567 -0.37201953
-0.005103834 0.046153042 -0.09791872 -0.08685334 -0.01860392 0.11553487 0.06788814 -0.12968673
-0.09524984 -0.029616306 0.025973082 -0.32156014 -0.09568775 -0.20065525 -0.120640375 -0.21424659
-0.40130493 -0.52563304 -0.3284885 -0.21014817 -0.04055978 0.0022600535 -0.08626441 -0.45232746
-0.24020463 -0.11435455 0.08502149 -0.1392678 -0.22904272 -0.012263383 -0.25892296 -0.12772705
-0.21478662 -0.040165305 -0.4025586 -0.17823924 0.020238252 -0.006551402 -0.076019704 -0.37601066
-0.14641437 -0.19167036 -0.2117078 -0.2569145 -0.09381259 -0.27051565 -0.22214216 -0.028787715
-0.45827672 -0.26018777 -0.04815481 -0.3612903 -0.27923062 -0.31734183 -0.40854877 0.065796025
-0.057530332 0.061788093 -0.31554973 -0.14715946 -0.19834065 -0.04248561 0.070468746 -0.4597606
00000000: 9d56 d8bc 0546 73be 9e1c 093e 1f02 94be
00000010: 26de 0dbd 356c b9be 1f26 81be 6707 5dbe
00000020: e97c 90be f22f 71be f0ad b7b9 5a24 d43c
00000030: ba61 3bbe 0853 38bd bd52 96bc eb10 95ba
00000040: 6c9d a1bd 0964 173c da3e 69be 5ce5 f4bc
00000050: 9881 87be eb03 39be 0d93 6ebe e17d c7be
00000060: d1c8 97be 57d2 ea3b 5e9e cebb 7d94 52be
00000070: 34e2 ecbd ba88 13be 73af 31bd 9791 8bbe
00000080: 7b0a 9dbd 7915 4abc d3f1 12be a090 1dbe
00000090: 0a03 adbe f44e 18bd 4728 d33d 6d74 80bc
000000a0: e3fd c3be 3613 363e c477 2cbe a057 463d
000000b0: 3205 90be 9fe6 133e d035 e7be 07ee 483d
000000c0: 1729 853e d090 93be 20c0 e2bd da1d 49bc
000000d0: e9da b4bd 2986 84be 1e4c 9fbd aa01 afbe
000000e0: 733c 08bd 49a4 9abd 09be ebbe 4149 97be
000000f0: 9f72 94be 5e3e bbbd 11ad 5d3e cb4f 0cbe
00000100: 43c9 81bd 485b 8dbe 3a87 0a3e cb4e 90be
00000110: 5b28 2a3d 049a b1be eb83 20be e682 b639
00000120: 8996 a6be 01fd 3ebe f27e aebe a961 a2be
00000130: a28a d3bd f55d 60be 1dbf 46be 0c80 11be
00000140: 80b5 9fbd 9c23 81be a539 9e3c c892 fe3c
00000150: 125b 8cbe 0460 69be a99c ccbd b2ec 0bbe
00000160: 6d14 b2be a40e 99be 4659 3ebe fd7f 8ebd
00000170: b061 88bd ef06 b1be a698 243e 86d1 1ebe
00000180: 1a3d 393e 917b f13d 2d17 a8be 1d7f 14bd
00000190: baeb 8dbe 9436 b9be 87df c7bc 1fc2 86be
000001a0: 74a2 00bd b753 e5be b573 4e3c 958a 20be
000001b0: 1a81 66bd be03 95bc 9884 41be 4fad 9dbe
000001c0: bc20 25be 0b50 b33c e128 38be 9eb4 d8bd
000001d0: 4df8 ebbd 353c 83bd 0184 4cbe 6d98 9fbd
000001e0: 5d85 5a3e 9d42 25be 78c6 fcbb 947a 04be
000001f0: 027e ff3d 09ae 12be 46a0 f7be dbfa 4bbe
00000200: 545d 05bf 5f2e 0ebc e72b c4be 9faf 8fbe
00000210: fc81 62bd 5ff0 363d 1b40 153e 4e24 67be
00000220: fef1 66be f4bb 56be f271 44be 4ab5 00be
00000230: 9fc3 62be db45 f9be aead 7bbe baf4 593e
00000240: e816 32be 145a ddbe 9cd5 fc3c 0b86 1fbe
00000250: 25a1 03be 24a2 96bd 5dd8 a2be 6f5c 91be
00000260: a230 e0bc 9c71 dbbc 1da4 c3bd fee7 f5be
00000270: a261 b9be 25b6 dfbc 1529 3bbe 7fe8 fcbd
00000280: 2665 2cbe 61af e9bd f48e 9abd ffe8 afbe
00000290: 5277 11be 7ecb 9fbc 0c55 743d bd6a 77be
000002a0: 35af 75be 7071 94be 78b9 1abe ba4f c2bd
000002b0: 8300 d93d 05b7 ad3d 581f 74be eceb 10be
000002c0: 6151 0bbe 9989 3cbe 97a7 a6be 4e48 2e3c
000002d0: 0d77 e73d bbc2 0abe 627f 45bd 2360 83be
000002e0: cb55 d4be f48e a6be 0c25 c73d 0458 48be
000002f0: 51af e1be b44e a2be a521 a0be 5879 bebe
00000300: 103e a7bb f90a 3d3d 9c89 c8bd 2ae0 b1bd
00000310: 3f67 98bc 8c9d ec3d f008 8b3d 99cc 04be
00000320: 5912 c3bd e59d f2bc 80c5 d43c 88a3 a4be
00000330: f0f7 c3bd 9278 4dbe 4d12 f7bd 7563 5bbe
00000340: d777 cdbe e38f 06bf a52f a8be 1531 57be
00000350: 0322 26bd 681d 143b 65ab b0bd 7797 e7be
00000360: 34f8 75be b832 eabd bf1f ae3d 389c 0ebe
00000370: 2d8a 6abe 5bec 48bc 8d91 84be e1ca 02be
00000380: 06f1 5bbe 6084 24bd 291c cebe 5984 36be
00000390: b1ca a53c 25ad d6bb 38b0 9bbd 7884 c0be
000003a0: a6ed 15be 3c45 44be eec9 58be 4c8a 83be
000003b0: d120 c0bd 0781 8abe 3c79 63be 37d4 ebbc
000003c0: 3fa3 eabe 5537 85be fa3d 45bd 0bfb b8be
000003d0: 51f7 8ebe a17a a2be 4e2d d1be 11c0 863d
000003e0: eda4 6bbd 8315 7d3d bc8f a1be f8b0 16be
000003f0: d019 4bbe 6405 2ebd eb51 903d be65 ebbe

conv4.bias f4 [32]
-0.42205018 -0.30542126 -0.37550354 -0.45063627 -0.21042934 -0.43331128 -0.3869511 0.032516908
-0.36982802 -0.32325438 0.17069584 -0.31095448 -0.26036912 0.21043235 -0.5794009 0.14931138
-0.4180719 -0.414371 -0.192449 -0.16847101 -0.07276208 0.0663793 -0.30912292 -0.41168875
-0.29304886 -0.51010734 -0.046860896 -0.22072628 -0.37561384 -0.5386129 -0.21449658 -0.43989736
00000000: f616 d8be 2d60 9cbe 0042 c0be ccb9 e6be
00000010: ca7a 57be fada ddbe 741e c6be 7330 053d
00000020: 195a bdbe 9981 a5be e4ca 2e3e 6d35 9fbe
00000030: 1a4f 85be 947b 573e 9e53 14bf 15e5 183e
00000040: 850d d6be 7028 d4be 5a11 45be aa83 2cbe
00000050: 4904 95bd dff1 873d 5c45 9ebe dec8 d2be
00000060: 800a 96be 6596 02bf 36f1 3fbd 1206 62be
00000070: 7550 c0be 89e2 09bf fea4 5bbe 3a3a e1be

fc.weight f4 [1, 1440]
-0.14451176 0.016160112 0.21985672 0.21079975 -0.03520561 0.074603505 -0.35526806 0.476569
-0.089716576 0.088437386 -0.18402776 -0.17210883 -0.14855345 -0.11910716 0.0016687057 -0.004718521
0.008748244 -0.11922686 -0.006660136 0.22716455 -0.18451606 0.20071165 -0.1486985 -0.10289145
0.19123645 0.20206265 -0.14420871 0.01947571 0.11164719 0.14191107 -0.19234024 -0.1415889
-0.08439312 -0.08212413 -0.1666874 0.12914605 -0.14362267 -0.015448617 0.005517873 0.06495442
0.029116528 0.15733181 -0.030838465 -0.09251381 -0.015299091 0.030516312 -0.29077515 0.47420308
-0.33225268 0.29827383 -0.35523224 0.3409988 0.35198975 -0.040280316 -0.16004075 -0.15358208
0.2695887 0.31083634 0.27453762 0.2101297 0.18783711 -0.17834665 0.06664629 -0.07141098
0.08275977 0.13357624 -0.19381338 0.011853626 -0.26922455 -0.26869977 0.0428758 -0.24702212
0.14242212 -0.011265589 0.68058556 -0.37828225 0.042393103 0.04298352 0.2724598 -0.3765918
-0.074492425 -0.10042232 -0.02576021 0.1448813 -0.13199979 -0.029043727 0.43566877 -0.04283099
-0.02473162 0.10859233 -0.049064584 0.28717452 0.4524989 0.27715108 -0.109572366 0.42672434
-0.20201544 0.5588773 0.33690053 -0.23993975 0.18875256 0.0034068404 0.30438933 0.09498318
-0.24847928 0.29783633 -0.29697135 0.043313317 -0.06897897 0.22310913 0.31089532 0.11611667
-0.25279844 0.030200254 0.07651166 -0.37219375 -0.16134165 0.13837796 -0.048678935 0.063802004
-0.10170718 0.1090955 0.15287462 0.24653591 0.13474993 -0.036268484 0.038138386 0.0090126665
-0.014173358 0.06294152 0.2567558 0.18035145 0.24147023 -0.24491848 -0.014538983 0.069422066
0.3918108 0.43037856 0.2092871 -0.33386007 -0.2835142 -0.13429318 0.2739462 0.4904025
-0.03988456 -0.100334994 0.35820314 0.112788476 -0.10626567 -0.3040823 -0.1313404 0.25004733
0.24106486 0.03203409 -0.33364224 -0.19953421 0.15839556 0.05881919 -0.23554644 0.08341697
0.34158853 0.024383511 -0.016031053 0.45952398 -0.21510655 0.03916102 0.0006022036 0.11041438
-0.01841919 -0.11146359 0.055659425 0.060765874 -0.18407033 -0.18946126 -0.044710647 -0.059343025
0.29164428 0.24682447 -0.11864407 -0.19158942 0.3957335 0.4748224 0.4776256 -0.3649526
-0.28710815 -0.22919148 0.4109015 0.39934304 -0.20022444 0.20407915 -0.23190695 0.2666905
0.20788236 0.067890115 -0.14470491 -0.13535716 -0.026828002 -0.13734862 0.22881503 -0.29917178
-0.16933282 -0.113793656 -0.012126477 0.17912857 -0.22583856 -0.16871133 0.22709097 0.16845381
-0.08096677 -0.26345432 0.33868662 0.029712977 0.047945805 0.32710287 0.13643256 -0.08902461
-0.09281257 0.25340298 0.11938466 0.13417603 0.08814795 0.090413816 0.08505766 -0.18982421
-0.23873197 -0.3734352 -0.215315 0.32063857 0.32623002 0.4525836 -0.34119383 -0.1541316
-0.28810832 0.08306595 0.09419604 0.09413962 0.16677004 0.28460625 -0.07677997 -0.32389462
-0.22680993 0.25978 -0.02328109 -0.13516894 -0.27028185 -0.14988169 -0.20045342 -0.19214293
0.20562387 -0.15563238 0.363914 0.08690969 -0.09977949 -0.017391099 0.19036898 -0.02447972
00000000: e4fa 13be 3662 843c 1f22 613e e4db 573e
00000010: c233 10bd b9c9 983d b2e5 b5be da00 f43e
00000020: 53bd b7bd a91e b53d c671 3cbe 4c3d 30be
00000030: 651e 18be 74ee f3bd 79b8 da3a d39d 9abb
00000040: cb54 0f3c 362d f4bd 453d dabb d39d 683e
00000050: c7f1 3cbe 5b87 4d3e 6b44 18be c1b8 d2bd
00000060: 7dd3 433e 83e9 4e3e 73ab 13be 868b 9f3c
00000070: 48a7 e43d 2351 113e d7f4 44be aefc 10be
00000080: 4dd6 acbd b230 a8bd 1ab0 2abe dd3e 043e
00000090: d211 13be 321c 7dbc 46cf b43b d306 853d
000000a0: c985 ee3c 971b 213e f3a0 fcbc e177 bdbd
000000b0: 0aa9 7abc 58fd f93c 7be0 94be bfca f23e
000000c0: 061d aabe 59b7 983e 00e1 b5be 6597 ae3e
000000d0: 0038 b43e f9fc 24bd b9e1 23be 9f44 1dbe
000000e0: 8807 8a3e f125 9f3e 3290 8c3e 3d2c 573e
000000f0: 5f58 403e 81a0 36be da7d 883d eb3f 92bd
00000100: f47d a93d 36c8 083e 0477 46be b635 423c
00000110: cdd7 89be 0493 89be 899e 2f3d 5ef3 7cbe
00000120: 1bd7 113e 4e93 38bc db3a 2e3f 36ae c1be
00000130: 64a4 2d3d 7d0f 303d da7f 8b3e a4d0 c0be
00000140: 7c8f 98bd 38aa cdbd 1307 d3bc c35b 143e
00000150: f42a 07be 1ced edbc fa0f df3e 8c6f 2fbd
00000160: f799 cabc a865 de3d f2f7 48bd 8a08 933e
00000170: f0ad e73e bfe6 8d3e 7a67 e0bd 9d7b da3e
00000180: 23dd 4ebe 9512 0f3f 3a7e ac3e c4b2 75be
00000190: 5a48 413e 4c45 5f3b ebd8 9b3e 8b86 c23d
000001a0: 5a71 7ebe 017e 983e a10c 98be 4e69 313d
000001b0: d944 8dbd b876 643e ac2d 9f3e 94ce ed3d
000001c0: cc6e 81be 8666 f73c 25b2 9c3d 2e90 bebe
000001d0: bf36 25be f4b2 0d3e 9063 47bd a0aa 823d
000001e0: db4b d0bd 766d df3d 2a8b 1c3e e973 7c3e
000001f0: e3fb 093e 438e 14bd ff36 1c3d dda9 133c
00000200: 5f37 68bc 7ce7 803d 7f75 833e 0dae 383e
00000210: f943 773e e9cb 7abe ea34 6ebc 282d 8e3d
00000220: 6d9b c83e 945a dc3e 5c4f 563e b5ef aabe
00000230: c628 91be 2784 09be ad42 8c3e 0916 fb3e
00000240: fe5d 23bd 6f7c cdbd 6766 b73e a5fd e63d
00000250: d1a1 d9bd adb0 9bbe 197e 06be 3406 803e
00000260: b5d9 763e 2e36 033d 28d3 aabe b252 4cbe
00000270: 7232 223e 64ec 703d 1633 71be 84d6 aa3d
00000280: b1e4 ae3e eebf c73c 8e53 83bc ba46 eb3e
00000290: e444 5cbe 4e67 203d 33dd 1d3a ef20 e23d
000002a0: d7e3 96bc 0647 e4bd 23fb 633d a3e5 783d
000002b0: ef7c 3cbe 2202 42be 8322 37bd ac11 73bd
000002c0: 6652 953e 8ebf 7c3e aafb f2bd 0430 44be
000002d0: 959d ca3e ec1b f33e 588b f43e 11db babe
000002e0: d7ff 92be 2cb1 6abe ae61 d23e b176 cc3e
000002f0: a307 4dbe 20fa 503e 0479 6dbe a88b 883e
00000300: 1ddf 543e f909 8b3d 862d 14be 119b 0abe
00000310: 66c6 dbbc 1ea5 0cbe 7d4e 6a3e 0b2d 99be
00000320: 9565 2dbe a60c e9bd 22ae 46bc 7b6d 373e
00000330: 3942 67be aac2 2cbe 898a 683e 287f 2c3e
00000340: e8d1 a5bd 7ce3 86be 5568 ad3e a168 f33c
00000350: d262 443d 077a a73e fab4 0b3e 8952 b6bd
00000360: 8414 bebd 09be 813e f27f f43d 7165 093e
00000370: ea86 b43d e12a b93d b632 ae3d 4761 42be
00000380: 2776 74be e632 bfbe 897b 5cbe bd2a a43e
00000390: 9f07 a73e 0ab9 e73e f5b0 aebe add4 1dbe
000003a0: ef82 93be 7b1e aa3d dae9 c03d 46cc c03d
000003b0: c4c5 2a3e e9b7 913e d13e 9dbd 84d5 a5be
000003c0: dd40 68be e201 853e fcb7 bebc ba69 0abe
000003d0: 6262 8abe 967a 19be a943 4dbe 1ec1 44be
000003e0: 108f 523e 185e 1fbe f052 ba3e b5fd b13d
000003f0: 3059 ccbd c777 8ebc 16f0 423e b289 c8bc
